# Inception Network (GoogLeNet Batch Normalization Network)
name: "InceptionNetwork"
### Training Set
layer {
  top: "data"
  top: "label"
  name: "data"
  type: "ImageData"
  image_data_param {
    root_folder:"root/yourdatasetPATH"
    source: "list_train.txt"
    batch_size: 8
    shuffle: true
    new_height: 512
    new_width: 512
  }
  include {
    phase: TRAIN
  }
  transform_param {
    mirror: false
    mean_value: 104
    mean_value: 117
    mean_value: 123
  }
}
layer {
  top: "data"
  top: "label"
  name: "data"
  type: "ImageData"
  image_data_param {
    root_folder:"root/yourdatasetPATH"
    source: "list_val.txt"
    batch_size: 8
    shuffle: false
    new_height: 512
    new_width: 512
  }
  include {
    phase: TEST
  }
  transform_param {
    mirror: false
    mean_value: 104
    mean_value: 117
    mean_value: 123
  }
}

layer {
  name: "data/layer1"
  type: "Crop"
  bottom: "data"
  top: "data/layer1"
  crop_param {
    axis: 2
    height: 96
    weight: 96
    offset: 0
    offset: 0
  }
}
layer {
  name: "data/layer2"
  type: "Crop"
  bottom: "data"
  top: "data/layer2"
  crop_param {
    axis: 2
    height: 192
    weight: 256
    offset: 96
    offset: 0
  }
}
layer {
  name: "data/layer3"
  type: "Crop"
  bottom: "data"
  top: "data/layer3"
  crop_param {
    axis: 2
    height: 224
    weight: 256
    offset: 288
    offset: 0
  }
}
layer {
  name: "data/full_data"
  type: "Crop"
  bottom: "data"
  top: "data/full_data"
  crop_param {
    axis: 2
    height: 512
    weight: 256
    offset: 0
    offset: 256
  }
}


layer {
 bottom: "data/layer1"
  top: "layer1/conv1/7x7_s2"
  name: "layer1/conv1/7x7_s2"
  type: "Convolution"
  param {
    name: "layer/conv1/7x7_s2"
    lr_mult: 1
    decay_mult: 1
  }
  convolution_param {
    num_output: 64
    pad: 3
    kernel_size: 7
    stride: 2
    weight_filler {
      type: "xavier"
    }
    bias_term: false
  }
}
layer {
  bottom: "layer1/conv1/7x7_s2"
  name: "layer1/conv1/7x7_s2/bn"
  top: "layer1/conv1/7x7_s2/bn"
  type: "BatchNorm"
}
layer {
  bottom: "layer1/conv1/7x7_s2/bn"
  top: "layer1/conv1/7x7_s2/bn/sc"
  name: "layer1/conv1/7x7_s2/bn/sc"
  type: "Scale"
  scale_param {
    bias_term: true
  }
}
layer {
  bottom: "layer1/conv1/7x7_s2/bn/sc"
  top: "layer1/conv1/7x7_s2/bn/sc"
  name: "layer1/conv1/7x7_s2/bn/sc/relu"
  type: "ReLU"
}
layer {
  bottom: "layer1/conv1/7x7_s2/bn/sc"
  top: "layer1/pool1/3x3_s2"
  name: "layer1/pool1/3x3_s2"
  type: "Pooling"
  pooling_param {
    pool: MAX
    kernel_size: 3
    stride: 2
  }
}
layer {
 bottom: "layer1/pool1/3x3_s2"
  top: "layer1/conv2/3x3_reduce"
  name: "layer1/conv2/3x3_reduce"
  type: "Convolution"
  param {
    name: "layer/conv2/3x3_reduce"
    lr_mult: 1
    decay_mult: 1
  }
  convolution_param {
    num_output: 64
    pad: 0
    kernel_size: 1
    stride: 1
    weight_filler {
      type: "xavier"
    }
    bias_term: false
  }
}
layer {
  bottom: "layer1/conv2/3x3_reduce"
  name: "layer1/conv2/3x3_reduce/bn"
  top: "layer1/conv2/3x3_reduce/bn"
  type: "BatchNorm"
}
layer {
  bottom: "layer1/conv2/3x3_reduce/bn"
  top: "layer1/conv2/3x3_reduce/bn/sc"
  name: "layer1/conv2/3x3_reduce/bn/sc"
  type: "Scale"
  scale_param {
    bias_term: true
  }
}
layer {
  bottom: "layer1/conv2/3x3_reduce/bn/sc"
  top: "layer1/conv2/3x3_reduce/bn/sc"
  name: "layer1/conv2/3x3_reduce/bn/sc/relu"
  type: "ReLU"
}
layer {
 bottom: "layer1/conv2/3x3_reduce/bn/sc"
  top: "layer1/conv2/3x3"
  name: "layer1/conv2/3x3"
  type: "Convolution"
  param {
    name: "layer/conv2/3x3"
    lr_mult: 1
    decay_mult: 1
  }
  convolution_param {
    num_output: 192
    pad: 1
    kernel_size: 3
    stride: 1
    weight_filler {
      type: "xavier"
    }
    bias_term: false
  }
}
layer {
  bottom: "layer1/conv2/3x3"
  name: "layer1/conv2/3x3/bn"
  top: "layer1/conv2/3x3/bn"
  type: "BatchNorm"
}
layer {
  bottom: "layer1/conv2/3x3/bn"
  top: "layer1/conv2/3x3/bn/sc"
  name: "layer1/conv2/3x3/bn/sc"
  type: "Scale"
  scale_param {
    bias_term: true
  }
}
layer {
  bottom: "layer1/conv2/3x3/bn/sc"
  top: "layer1/conv2/3x3/bn/sc"
  name: "layer1/conv2/3x3/bn/sc/relu"
  type: "ReLU"
}
layer {
  bottom: "layer1/conv2/3x3/bn/sc"
  top: "layer1/pool2/3x3_s2"
  name: "layer1/pool2/3x3_s2"
  type: "Pooling"
  pooling_param {
    pool: MAX
    kernel_size: 3
    stride: 2
  }
}
layer {
 bottom: "layer1/pool2/3x3_s2"
  top: "layer1/inception_3a/1x1"
  name: "layer1/inception_3a/1x1"
  type: "Convolution"
  param {
    name: "layer/inception_3a/1x1"
    lr_mult: 1
    decay_mult: 1
  }
  convolution_param {
    num_output: 64
    pad: 0
    kernel_size: 1
    stride: 1
    weight_filler {
      type: "xavier"
    }
    bias_term: false
  }
}
layer {
  bottom: "layer1/inception_3a/1x1"
  name: "layer1/inception_3a/1x1/bn"
  top: "layer1/inception_3a/1x1/bn"
  type: "BatchNorm"
}
layer {
  bottom: "layer1/inception_3a/1x1/bn"
  top: "layer1/inception_3a/1x1/bn/sc"
  name: "layer1/inception_3a/1x1/bn/sc"
  type: "Scale"
  scale_param {
    bias_term: true
  }
}
layer {
  bottom: "layer1/inception_3a/1x1/bn/sc"
  top: "layer1/inception_3a/1x1/bn/sc"
  name: "layer1/inception_3a/1x1/bn/sc/relu"
  type: "ReLU"
}
layer {
 bottom: "layer1/pool2/3x3_s2"
  top: "layer1/inception_3a/3x3_reduce"
  name: "layer1/inception_3a/3x3_reduce"
  type: "Convolution"
  param {
    name: "layer/inception_3a/3x3_reduce"
    lr_mult: 1
    decay_mult: 1
  }
  convolution_param {
    num_output: 64
    pad: 0
    kernel_size: 1
    stride: 1
    weight_filler {
      type: "xavier"
    }
    bias_term: false
  }
}
layer {
  bottom: "layer1/inception_3a/3x3_reduce"
  name: "layer1/inception_3a/3x3_reduce/bn"
  top: "layer1/inception_3a/3x3_reduce/bn"
  type: "BatchNorm"
}
layer {
  bottom: "layer1/inception_3a/3x3_reduce/bn"
  top: "layer1/inception_3a/3x3_reduce/bn/sc"
  name: "layer1/inception_3a/3x3_reduce/bn/sc"
  type: "Scale"
  scale_param {
    bias_term: true
  }
}
layer {
  bottom: "layer1/inception_3a/3x3_reduce/bn/sc"
  top: "layer1/inception_3a/3x3_reduce/bn/sc"
  name: "layer1/inception_3a/3x3_reduce/bn/sc/relu"
  type: "ReLU"
}
layer {
 bottom: "layer1/inception_3a/3x3_reduce/bn/sc"
  top: "layer1/inception_3a/3x3"
  name: "layer1/inception_3a/3x3"
  type: "Convolution"
  param {
    name: "layer/inception_3a/3x3"
    lr_mult: 1
    decay_mult: 1
  }
  convolution_param {
    num_output: 64
    pad: 1
    kernel_size: 3
    stride: 1
    weight_filler {
      type: "xavier"
    }
    bias_term: false
  }
}
layer {
  bottom: "layer1/inception_3a/3x3"
  name: "layer1/inception_3a/3x3/bn"
  top: "layer1/inception_3a/3x3/bn"
  type: "BatchNorm"
}
layer {
  bottom: "layer1/inception_3a/3x3/bn"
  top: "layer1/inception_3a/3x3/bn/sc"
  name: "layer1/inception_3a/3x3/bn/sc"
  type: "Scale"
  scale_param {
    bias_term: true
  }
}
layer {
  bottom: "layer1/inception_3a/3x3/bn/sc"
  top: "layer1/inception_3a/3x3/bn/sc"
  name: "layer1/inception_3a/3x3/bn/sc/relu"
  type: "ReLU"
}
layer {
 bottom: "layer1/pool2/3x3_s2"
  top: "layer1/inception_3a/double3x3_reduce"
  name: "layer1/inception_3a/double3x3_reduce"
  type: "Convolution"
  param {
    name: "layer/inception_3a/double3x3_reduce"
    lr_mult: 1
    decay_mult: 1
  }
  convolution_param {
    num_output: 64
    pad: 0
    kernel_size: 1
    stride: 1
    weight_filler {
      type: "xavier"
    }
    bias_term: false
  }
}
layer {
  bottom: "layer1/inception_3a/double3x3_reduce"
  name: "layer1/inception_3a/double3x3_reduce/bn"
  top: "layer1/inception_3a/double3x3_reduce/bn"
  type: "BatchNorm"
}
layer {
  bottom: "layer1/inception_3a/double3x3_reduce/bn"
  top: "layer1/inception_3a/double3x3_reduce/bn/sc"
  name: "layer1/inception_3a/double3x3_reduce/bn/sc"
  type: "Scale"
  scale_param {
    bias_term: true
  }
}
layer {
  bottom: "layer1/inception_3a/double3x3_reduce/bn/sc"
  top: "layer1/inception_3a/double3x3_reduce/bn/sc"
  name: "layer1/inception_3a/double3x3_reduce/bn/sc/relu"
  type: "ReLU"
}
layer {
 bottom: "layer1/inception_3a/double3x3_reduce/bn/sc"
  top: "layer1/inception_3a/double3x3a"
  name: "layer1/inception_3a/double3x3a"
  type: "Convolution"
  param {
    name: "layer/inception_3a/double3x3a"
    lr_mult: 1
    decay_mult: 1
  }
  convolution_param {
    num_output: 96
    pad: 1
    kernel_size: 3
    stride: 1
    weight_filler {
      type: "xavier"
    }
    bias_term: false
  }
}
layer {
  bottom: "layer1/inception_3a/double3x3a"
  name: "layer1/inception_3a/double3x3a/bn"
  top: "layer1/inception_3a/double3x3a/bn"
  type: "BatchNorm"
}
layer {
  bottom: "layer1/inception_3a/double3x3a/bn"
  top: "layer1/inception_3a/double3x3a/bn/sc"
  name: "layer1/inception_3a/double3x3a/bn/sc"
  type: "Scale"
  scale_param {
    bias_term: true
  }
}
layer {
  bottom: "layer1/inception_3a/double3x3a/bn/sc"
  top: "layer1/inception_3a/double3x3a/bn/sc"
  name: "layer1/inception_3a/double3x3a/bn/sc/relu"
  type: "ReLU"
}
layer {
 bottom: "layer1/inception_3a/double3x3a/bn/sc"
  top: "layer1/inception_3a/double3x3b"
  name: "layer1/inception_3a/double3x3b"
  type: "Convolution"
  param {
    name: "layer/inception_3a/double3x3b"
    lr_mult: 1
    decay_mult: 1
  }
  convolution_param {
    num_output: 96
    pad: 1
    kernel_size: 3
    stride: 1
    weight_filler {
      type: "xavier"
    }
    bias_term: false
  }
}
layer {
  bottom: "layer1/inception_3a/double3x3b"
  name: "layer1/inception_3a/double3x3b/bn"
  top: "layer1/inception_3a/double3x3b/bn"
  type: "BatchNorm"
}
layer {
  bottom: "layer1/inception_3a/double3x3b/bn"
  top: "layer1/inception_3a/double3x3b/bn/sc"
  name: "layer1/inception_3a/double3x3b/bn/sc"
  type: "Scale"
  scale_param {
    bias_term: true
  }
}
layer {
  bottom: "layer1/inception_3a/double3x3b/bn/sc"
  top: "layer1/inception_3a/double3x3b/bn/sc"
  name: "layer1/inception_3a/double3x3b/bn/sc/relu"
  type: "ReLU"
}
layer {
  bottom: "layer1/pool2/3x3_s2"
  top: "layer1/inception_3a/pool"
  name: "layer1/inception_3a/pool"
  type: "Pooling"
  pooling_param {
    pool: AVE
    kernel_size: 3
    stride: 1
    pad: 1
  }
}
layer {
 bottom: "layer1/inception_3a/pool"
  top: "layer1/inception_3a/pool_proj"
  name: "layer1/inception_3a/pool_proj"
  type: "Convolution"
  param {
    name: "layer/inception_3a/pool_proj"
    lr_mult: 1
    decay_mult: 1
  }
  convolution_param {
    num_output: 32
    pad: 0
    kernel_size: 1
    stride: 1
    weight_filler {
      type: "xavier"
    }
    bias_term: false
  }
}
layer {
  bottom: "layer1/inception_3a/pool_proj"
  name: "layer1/inception_3a/pool_proj/bn"
  top: "layer1/inception_3a/pool_proj/bn"
  type: "BatchNorm"
}
layer {
  bottom: "layer1/inception_3a/pool_proj/bn"
  top: "layer1/inception_3a/pool_proj/bn/sc"
  name: "layer1/inception_3a/pool_proj/bn/sc"
  type: "Scale"
  scale_param {
    bias_term: true
  }
}
layer {
  bottom: "layer1/inception_3a/pool_proj/bn/sc"
  top: "layer1/inception_3a/pool_proj/bn/sc"
  name: "layer1/inception_3a/pool_proj/bn/sc/relu"
  type: "ReLU"
}
layer {
  bottom: "layer1/inception_3a/1x1/bn/sc"
  bottom: "layer1/inception_3a/3x3/bn/sc"
  bottom: "layer1/inception_3a/double3x3b/bn/sc"
  bottom: "layer1/inception_3a/pool_proj/bn/sc"
  top: "layer1/inception_3a/output"
  name: "layer1/inception_3a/output"
  type: "Concat"
}
layer {
 bottom: "layer1/inception_3a/output"
  top: "layer1/inception_3b/1x1"
  name: "layer1/inception_3b/1x1"
  type: "Convolution"
  param {
    name: "layer/inception_3b/1x1"
    lr_mult: 1
    decay_mult: 1
  }
  convolution_param {
    num_output: 64
    pad: 0
    kernel_size: 1
    stride: 1
    weight_filler {
      type: "xavier"
    }
    bias_term: false
  }
}
layer {
  bottom: "layer1/inception_3b/1x1"
  name: "layer1/inception_3b/1x1/bn"
  top: "layer1/inception_3b/1x1/bn"
  type: "BatchNorm"
}
layer {
  bottom: "layer1/inception_3b/1x1/bn"
  top: "layer1/inception_3b/1x1/bn/sc"
  name: "layer1/inception_3b/1x1/bn/sc"
  type: "Scale"
  scale_param {
    bias_term: true
  }
}
layer {
  bottom: "layer1/inception_3b/1x1/bn/sc"
  top: "layer1/inception_3b/1x1/bn/sc"
  name: "layer1/inception_3b/1x1/bn/sc/relu"
  type: "ReLU"
}
layer {
 bottom: "layer1/inception_3a/output"
  top: "layer1/inception_3b/3x3_reduce"
  name: "layer1/inception_3b/3x3_reduce"
  type: "Convolution"
  param {
    name: "layer/inception_3b/3x3_reduce"
    lr_mult: 1
    decay_mult: 1
  }
  convolution_param {
    num_output: 64
    pad: 0
    kernel_size: 1
    stride: 1
    weight_filler {
      type: "xavier"
    }
    bias_term: false
  }
}
layer {
  bottom: "layer1/inception_3b/3x3_reduce"
  name: "layer1/inception_3b/3x3_reduce/bn"
  top: "layer1/inception_3b/3x3_reduce/bn"
  type: "BatchNorm"
}
layer {
  bottom: "layer1/inception_3b/3x3_reduce/bn"
  top: "layer1/inception_3b/3x3_reduce/bn/sc"
  name: "layer1/inception_3b/3x3_reduce/bn/sc"
  type: "Scale"
  scale_param {
    bias_term: true
  }
}
layer {
  bottom: "layer1/inception_3b/3x3_reduce/bn/sc"
  top: "layer1/inception_3b/3x3_reduce/bn/sc"
  name: "layer1/inception_3b/3x3_reduce/bn/sc/relu"
  type: "ReLU"
}
layer {
 bottom: "layer1/inception_3b/3x3_reduce/bn/sc"
  top: "layer1/inception_3b/3x3"
  name: "layer1/inception_3b/3x3"
  type: "Convolution"
  param {
    name: "layer/inception_3b/3x3"
    lr_mult: 1
    decay_mult: 1
  }
  convolution_param {
    num_output: 96
    pad: 1
    kernel_size: 3
    stride: 1
    weight_filler {
      type: "xavier"
    }
    bias_term: false
  }
}
layer {
  bottom: "layer1/inception_3b/3x3"
  name: "layer1/inception_3b/3x3/bn"
  top: "layer1/inception_3b/3x3/bn"
  type: "BatchNorm"
}
layer {
  bottom: "layer1/inception_3b/3x3/bn"
  top: "layer1/inception_3b/3x3/bn/sc"
  name: "layer1/inception_3b/3x3/bn/sc"
  type: "Scale"
  scale_param {
    bias_term: true
  }
}
layer {
  bottom: "layer1/inception_3b/3x3/bn/sc"
  top: "layer1/inception_3b/3x3/bn/sc"
  name: "layer1/inception_3b/3x3/bn/sc/relu"
  type: "ReLU"
}
layer {
 bottom: "layer1/inception_3a/output"
  top: "layer1/inception_3b/double3x3_reduce"
  name: "layer1/inception_3b/double3x3_reduce"
  type: "Convolution"
  param {
    name: "layer/inception_3b/double3x3_reduce"
    lr_mult: 1
    decay_mult: 1
  }
  convolution_param {
    num_output: 64
    pad: 0
    kernel_size: 1
    stride: 1
    weight_filler {
      type: "xavier"
    }
    bias_term: false
  }
}
layer {
  bottom: "layer1/inception_3b/double3x3_reduce"
  name: "layer1/inception_3b/double3x3_reduce/bn"
  top: "layer1/inception_3b/double3x3_reduce/bn"
  type: "BatchNorm"
}
layer {
  bottom: "layer1/inception_3b/double3x3_reduce/bn"
  top: "layer1/inception_3b/double3x3_reduce/bn/sc"
  name: "layer1/inception_3b/double3x3_reduce/bn/sc"
  type: "Scale"
  scale_param {
    bias_term: true
  }
}
layer {
  bottom: "layer1/inception_3b/double3x3_reduce/bn/sc"
  top: "layer1/inception_3b/double3x3_reduce/bn/sc"
  name: "layer1/inception_3b/double3x3_reduce/bn/sc/relu"
  type: "ReLU"
}
layer {
 bottom: "layer1/inception_3b/double3x3_reduce/bn/sc"
  top: "layer1/inception_3b/double3x3a"
  name: "layer1/inception_3b/double3x3a"
  type: "Convolution"
  param {
    name: "layer/inception_3b/double3x3a"
    lr_mult: 1
    decay_mult: 1
  }
  convolution_param {
    num_output: 96
    pad: 1
    kernel_size: 3
    stride: 1
    weight_filler {
      type: "xavier"
    }
    bias_term: false
  }
}
layer {
  bottom: "layer1/inception_3b/double3x3a"
  name: "layer1/inception_3b/double3x3a/bn"
  top: "layer1/inception_3b/double3x3a/bn"
  type: "BatchNorm"
}
layer {
  bottom: "layer1/inception_3b/double3x3a/bn"
  top: "layer1/inception_3b/double3x3a/bn/sc"
  name: "layer1/inception_3b/double3x3a/bn/sc"
  type: "Scale"
  scale_param {
    bias_term: true
  }
}
layer {
  bottom: "layer1/inception_3b/double3x3a/bn/sc"
  top: "layer1/inception_3b/double3x3a/bn/sc"
  name: "layer1/inception_3b/double3x3a/bn/sc/relu"
  type: "ReLU"
}
layer {
 bottom: "layer1/inception_3b/double3x3a/bn/sc"
  top: "layer1/inception_3b/double3x3b"
  name: "layer1/inception_3b/double3x3b"
  type: "Convolution"
  param {
    name: "layer/inception_3b/double3x3b"
    lr_mult: 1
    decay_mult: 1
  }
  convolution_param {
    num_output: 96
    pad: 1
    kernel_size: 3
    stride: 1
    weight_filler {
      type: "xavier"
    }
    bias_term: false
  }
}
layer {
  bottom: "layer1/inception_3b/double3x3b"
  name: "layer1/inception_3b/double3x3b/bn"
  top: "layer1/inception_3b/double3x3b/bn"
  type: "BatchNorm"
}
layer {
  bottom: "layer1/inception_3b/double3x3b/bn"
  top: "layer1/inception_3b/double3x3b/bn/sc"
  name: "layer1/inception_3b/double3x3b/bn/sc"
  type: "Scale"
  scale_param {
    bias_term: true
  }
}
layer {
  bottom: "layer1/inception_3b/double3x3b/bn/sc"
  top: "layer1/inception_3b/double3x3b/bn/sc"
  name: "layer1/inception_3b/double3x3b/bn/sc/relu"
  type: "ReLU"
}
layer {
  bottom: "layer1/inception_3a/output"
  top: "layer1/inception_3b/pool"
  name: "layer1/inception_3b/pool"
  type: "Pooling"
  pooling_param {
    pool: AVE
    kernel_size: 3
    stride: 1
    pad: 1
  }
}
layer {
 bottom: "layer1/inception_3b/pool"
  top: "layer1/inception_3b/pool_proj"
  name: "layer1/inception_3b/pool_proj"
  type: "Convolution"
  param {
    name: "layer/inception_3b/pool_proj"
    lr_mult: 1
    decay_mult: 1
  }
  convolution_param {
    num_output: 64
    pad: 0
    kernel_size: 1
    stride: 1
    weight_filler {
      type: "xavier"
    }
    bias_term: false
  }
}
layer {
  bottom: "layer1/inception_3b/pool_proj"
  name: "layer1/inception_3b/pool_proj/bn"
  top: "layer1/inception_3b/pool_proj/bn"
  type: "BatchNorm"
}
layer {
  bottom: "layer1/inception_3b/pool_proj/bn"
  top: "layer1/inception_3b/pool_proj/bn/sc"
  name: "layer1/inception_3b/pool_proj/bn/sc"
  type: "Scale"
  scale_param {
    bias_term: true
  }
}
layer {
  bottom: "layer1/inception_3b/pool_proj/bn/sc"
  top: "layer1/inception_3b/pool_proj/bn/sc"
  name: "layer1/inception_3b/pool_proj/bn/sc/relu"
  type: "ReLU"
}
layer {
  bottom: "layer1/inception_3b/1x1/bn/sc"
  bottom: "layer1/inception_3b/3x3/bn/sc"
  bottom: "layer1/inception_3b/double3x3b/bn/sc"
  bottom: "layer1/inception_3b/pool_proj/bn/sc"
  top: "layer1/inception_3b/output"
  name: "layer1/inception_3b/output"
  type: "Concat"
}
layer {
 bottom: "layer1/inception_3b/output"
  top: "layer1/inception_3c/3x3_reduce"
  name: "layer1/inception_3c/3x3_reduce"
  type: "Convolution"
  param {
    name: "layer/inception_3c/3x3_reduce"
    lr_mult: 1
    decay_mult: 1
  }
  convolution_param {
    num_output: 128
    pad: 0
    kernel_size: 1
    stride: 1
    weight_filler {
      type: "xavier"
    }
    bias_term: false
  }
}
layer {
  bottom: "layer1/inception_3c/3x3_reduce"
  name: "layer1/inception_3c/3x3_reduce/bn"
  top: "layer1/inception_3c/3x3_reduce/bn"
  type: "BatchNorm"
}
layer {
  bottom: "layer1/inception_3c/3x3_reduce/bn"
  top: "layer1/inception_3c/3x3_reduce/bn/sc"
  name: "layer1/inception_3c/3x3_reduce/bn/sc"
  type: "Scale"
  scale_param {
    bias_term: true
  }
}
layer {
  bottom: "layer1/inception_3c/3x3_reduce/bn/sc"
  top: "layer1/inception_3c/3x3_reduce/bn/sc"
  name: "layer1/inception_3c/3x3_reduce/bn/sc/relu"
  type: "ReLU"
}
layer {
 bottom: "layer1/inception_3c/3x3_reduce/bn/sc"
  top: "layer1/inception_3c/3x3"
  name: "layer1/inception_3c/3x3"
  type: "Convolution"
  param {
    name: "layer/inception_3c/3x3"
    lr_mult: 1
    decay_mult: 1
  }
  convolution_param {
    num_output: 160
    pad: 1
    kernel_size: 3
    stride: 2
    weight_filler {
      type: "xavier"
    }
    bias_term: false
  }
}
layer {
  bottom: "layer1/inception_3c/3x3"
  name: "layer1/inception_3c/3x3/bn"
  top: "layer1/inception_3c/3x3/bn"
  type: "BatchNorm"
}
layer {
  bottom: "layer1/inception_3c/3x3/bn"
  top: "layer1/inception_3c/3x3/bn/sc"
  name: "layer1/inception_3c/3x3/bn/sc"
  type: "Scale"
  scale_param {
    bias_term: true
  }
}
layer {
  bottom: "layer1/inception_3c/3x3/bn/sc"
  top: "layer1/inception_3c/3x3/bn/sc"
  name: "layer1/inception_3c/3x3/bn/sc/relu"
  type: "ReLU"
}
layer {
 bottom: "layer1/inception_3b/output"
  top: "layer1/inception_3c/double3x3_reduce"
  name: "layer1/inception_3c/double3x3_reduce"
  type: "Convolution"
  param {
    name: "layer/inception_3c/double3x3_reduce"
    lr_mult: 1
    decay_mult: 1
  }
  convolution_param {
    num_output: 64
    pad: 0
    kernel_size: 1
    stride: 1
    weight_filler {
      type: "xavier"
    }
    bias_term: false
  }
}
layer {
  bottom: "layer1/inception_3c/double3x3_reduce"
  name: "layer1/inception_3c/double3x3_reduce/bn"
  top: "layer1/inception_3c/double3x3_reduce/bn"
  type: "BatchNorm"
}
layer {
  bottom: "layer1/inception_3c/double3x3_reduce/bn"
  top: "layer1/inception_3c/double3x3_reduce/bn/sc"
  name: "layer1/inception_3c/double3x3_reduce/bn/sc"
  type: "Scale"
  scale_param {
    bias_term: true
  }
}
layer {
  bottom: "layer1/inception_3c/double3x3_reduce/bn/sc"
  top: "layer1/inception_3c/double3x3_reduce/bn/sc"
  name: "layer1/inception_3c/double3x3_reduce/bn/sc/relu"
  type: "ReLU"
}
layer {
 bottom: "layer1/inception_3c/double3x3_reduce/bn/sc"
  top: "layer1/inception_3c/double3x3a"
  name: "layer1/inception_3c/double3x3a"
  type: "Convolution"
  param {
    name: "layer/inception_3c/double3x3a"
    lr_mult: 1
    decay_mult: 1
  }
  convolution_param {
    num_output: 96
    pad: 1
    kernel_size: 3
    stride: 1
    weight_filler {
      type: "xavier"
    }
    bias_term: false
  }
}
layer {
  bottom: "layer1/inception_3c/double3x3a"
  name: "layer1/inception_3c/double3x3a/bn"
  top: "layer1/inception_3c/double3x3a/bn"
  type: "BatchNorm"
}
layer {
  bottom: "layer1/inception_3c/double3x3a/bn"
  top: "layer1/inception_3c/double3x3a/bn/sc"
  name: "layer1/inception_3c/double3x3a/bn/sc"
  type: "Scale"
  scale_param {
    bias_term: true
  }
}
layer {
  bottom: "layer1/inception_3c/double3x3a/bn/sc"
  top: "layer1/inception_3c/double3x3a/bn/sc"
  name: "layer1/inception_3c/double3x3a/bn/sc/relu"
  type: "ReLU"
}
layer {
 bottom: "layer1/inception_3c/double3x3a/bn/sc"
  top: "layer1/inception_3c/double3x3b"
  name: "layer1/inception_3c/double3x3b"
  type: "Convolution"
  param {
    name: "layer/inception_3c/double3x3b"
    lr_mult: 1
    decay_mult: 1
  }
  convolution_param {
    num_output: 96
    pad: 1
    kernel_size: 3
    stride: 2
    weight_filler {
      type: "xavier"
    }
    bias_term: false
  }
}
layer {
  bottom: "layer1/inception_3c/double3x3b"
  name: "layer1/inception_3c/double3x3b/bn"
  top: "layer1/inception_3c/double3x3b/bn"
  type: "BatchNorm"
}
layer {
  bottom: "layer1/inception_3c/double3x3b/bn"
  top: "layer1/inception_3c/double3x3b/bn/sc"
  name: "layer1/inception_3c/double3x3b/bn/sc"
  type: "Scale"
  scale_param {
    bias_term: true
  }
}
layer {
  bottom: "layer1/inception_3c/double3x3b/bn/sc"
  top: "layer1/inception_3c/double3x3b/bn/sc"
  name: "layer1/inception_3c/double3x3b/bn/sc/relu"
  type: "ReLU"
}
layer {
  bottom: "layer1/inception_3b/output"
  top: "layer1/inception_3c/pool"
  name: "layer1/inception_3c/pool"
  type: "Pooling"
  pooling_param {
    pool: MAX
    kernel_size: 3
    stride: 2
  }
}
layer {
  bottom: "layer1/inception_3c/3x3/bn/sc"
  bottom: "layer1/inception_3c/double3x3b/bn/sc"
  bottom: "layer1/inception_3c/pool"
  top: "layer1/inception_3c/output"
  name: "layer1/inception_3c/output"
  type: "Concat"
}





layer {
 bottom: "layer1/inception_3c/output"
  top: "layer1/inception_4a/1x1"
  name: "layer1/inception_4a/1x1"
  type: "Convolution"
  param {
    name: "layer/inception_4a/1x1"
    lr_mult: 1
    decay_mult: 1
  }
  convolution_param {
    num_output: 224
    pad: 0
    kernel_size: 1
    stride: 1
    weight_filler {
      type: "xavier"
    }
    bias_term: false
  }
}
layer {
  bottom: "layer1/inception_4a/1x1"
  name: "layer1/inception_4a/1x1/bn"
  top: "layer1/inception_4a/1x1/bn"
  type: "BatchNorm"
}
layer {
  bottom: "layer1/inception_4a/1x1/bn"
  top: "layer1/inception_4a/1x1/bn/sc"
  name: "layer1/inception_4a/1x1/bn/sc"
  type: "Scale"
  scale_param {
    bias_term: true
  }
}
layer {
  bottom: "layer1/inception_4a/1x1/bn/sc"
  top: "layer1/inception_4a/1x1/bn/sc"
  name: "layer1/inception_4a/1x1/bn/sc/relu"
  type: "ReLU"
}
layer {
 bottom: "layer1/inception_3c/output"
  top: "layer1/inception_4a/3x3_reduce"
  name: "layer1/inception_4a/3x3_reduce"
  type: "Convolution"
  param {
    name: "layer/inception_4a/3x3_reduce"
    lr_mult: 1
    decay_mult: 1
  }
  convolution_param {
    num_output: 64
    pad: 0
    kernel_size: 1
    stride: 1
    weight_filler {
      type: "xavier"
    }
    bias_term: false
  }
}
layer {
  bottom: "layer1/inception_4a/3x3_reduce"
  name: "layer1/inception_4a/3x3_reduce/bn"
  top: "layer1/inception_4a/3x3_reduce/bn"
  type: "BatchNorm"
}
layer {
  bottom: "layer1/inception_4a/3x3_reduce/bn"
  top: "layer1/inception_4a/3x3_reduce/bn/sc"
  name: "layer1/inception_4a/3x3_reduce/bn/sc"
  type: "Scale"
  scale_param {
    bias_term: true
  }
}
layer {
  bottom: "layer1/inception_4a/3x3_reduce/bn/sc"
  top: "layer1/inception_4a/3x3_reduce/bn/sc"
  name: "layer1/inception_4a/3x3_reduce/bn/sc/relu"
  type: "ReLU"
}
layer {
 bottom: "layer1/inception_4a/3x3_reduce/bn/sc"
  top: "layer1/inception_4a/3x3"
  name: "layer1/inception_4a/3x3"
  type: "Convolution"
  param {
    name: "layer/inception_4a/3x3"
    lr_mult: 1
    decay_mult: 1
  }
  convolution_param {
    num_output: 96
    pad: 1
    kernel_size: 3
    stride: 1
    weight_filler {
      type: "xavier"
    }
    bias_term: false
  }
}
layer {
  bottom: "layer1/inception_4a/3x3"
  name: "layer1/inception_4a/3x3/bn"
  top: "layer1/inception_4a/3x3/bn"
  type: "BatchNorm"
}
layer {
  bottom: "layer1/inception_4a/3x3/bn"
  top: "layer1/inception_4a/3x3/bn/sc"
  name: "layer1/inception_4a/3x3/bn/sc"
  type: "Scale"
  scale_param {
    bias_term: true
  }
}
layer {
  bottom: "layer1/inception_4a/3x3/bn/sc"
  top: "layer1/inception_4a/3x3/bn/sc"
  name: "layer1/inception_4a/3x3/bn/sc/relu"
  type: "ReLU"
}
layer {
 bottom: "layer1/inception_3c/output"
  top: "layer1/inception_4a/double3x3_reduce"
  name: "layer1/inception_4a/double3x3_reduce"
  type: "Convolution"
  param {
    name: "layer/inception_4a/double3x3_reduce"
    lr_mult: 1
    decay_mult: 1
  }
  convolution_param {
    num_output: 96
    pad: 0
    kernel_size: 1
    stride: 1
    weight_filler {
      type: "xavier"
    }
    bias_term: false
  }
}
layer {
  bottom: "layer1/inception_4a/double3x3_reduce"
  name: "layer1/inception_4a/double3x3_reduce/bn"
  top: "layer1/inception_4a/double3x3_reduce/bn"
  type: "BatchNorm"
}
layer {
  bottom: "layer1/inception_4a/double3x3_reduce/bn"
  top: "layer1/inception_4a/double3x3_reduce/bn/sc"
  name: "layer1/inception_4a/double3x3_reduce/bn/sc"
  type: "Scale"
  scale_param {
    bias_term: true
  }
}
layer {
  bottom: "layer1/inception_4a/double3x3_reduce/bn/sc"
  top: "layer1/inception_4a/double3x3_reduce/bn/sc"
  name: "layer1/inception_4a/double3x3_reduce/bn/sc/relu"
  type: "ReLU"
}
layer {
 bottom: "layer1/inception_4a/double3x3_reduce/bn/sc"
  top: "layer1/inception_4a/double3x3a"
  name: "layer1/inception_4a/double3x3a"
  type: "Convolution"
  param {
    name: "layer/inception_4a/double3x3a"
    lr_mult: 1
    decay_mult: 1
  }
  convolution_param {
    num_output: 128
    pad: 1
    kernel_size: 3
    stride: 1
    weight_filler {
      type: "xavier"
    }
    bias_term: false
  }
}
layer {
  bottom: "layer1/inception_4a/double3x3a"
  name: "layer1/inception_4a/double3x3a/bn"
  top: "layer1/inception_4a/double3x3a/bn"
  type: "BatchNorm"
}
layer {
  bottom: "layer1/inception_4a/double3x3a/bn"
  top: "layer1/inception_4a/double3x3a/bn/sc"
  name: "layer1/inception_4a/double3x3a/bn/sc"
  type: "Scale"
  scale_param {
    bias_term: true
  }
}
layer {
  bottom: "layer1/inception_4a/double3x3a/bn/sc"
  top: "layer1/inception_4a/double3x3a/bn/sc"
  name: "layer1/inception_4a/double3x3a/bn/sc/relu"
  type: "ReLU"
}
layer {
 bottom: "layer1/inception_4a/double3x3a/bn/sc"
  top: "layer1/inception_4a/double3x3b"
  name: "layer1/inception_4a/double3x3b"
  type: "Convolution"
  param {
    name: "layer/inception_4a/double3x3b"
    lr_mult: 1
    decay_mult: 1
  }
  convolution_param {
    num_output: 128
    pad: 1
    kernel_size: 3
    stride: 1
    weight_filler {
      type: "xavier"
    }
    bias_term: false
  }
}
layer {
  bottom: "layer1/inception_4a/double3x3b"
  name: "layer1/inception_4a/double3x3b/bn"
  top: "layer1/inception_4a/double3x3b/bn"
  type: "BatchNorm"
}
layer {
  bottom: "layer1/inception_4a/double3x3b/bn"
  top: "layer1/inception_4a/double3x3b/bn/sc"
  name: "layer1/inception_4a/double3x3b/bn/sc"
  type: "Scale"
  scale_param {
    bias_term: true
  }
}
layer {
  bottom: "layer1/inception_4a/double3x3b/bn/sc"
  top: "layer1/inception_4a/double3x3b/bn/sc"
  name: "layer1/inception_4a/double3x3b/bn/sc/relu"
  type: "ReLU"
}
layer {
  bottom: "layer1/inception_3c/output"
  top: "layer1/inception_4a/pool"
  name: "layer1/inception_4a/pool"
  type: "Pooling"
  pooling_param {
    pool: AVE
    kernel_size: 3
    stride: 1
    pad: 1
  }
}
layer {
 bottom: "layer1/inception_4a/pool"
  top: "layer1/inception_4a/pool_proj"
  name: "layer1/inception_4a/pool_proj"
  type: "Convolution"
  param {
    name: "layer/inception_4a/pool_proj"
    lr_mult: 1
    decay_mult: 1
  }
  convolution_param {
    num_output: 128
    pad: 0
    kernel_size: 1
    stride: 1
    weight_filler {
      type: "xavier"
    }
    bias_term: false
  }
}
layer {
  bottom: "layer1/inception_4a/pool_proj"
  name: "layer1/inception_4a/pool_proj/bn"
  top: "layer1/inception_4a/pool_proj/bn"
  type: "BatchNorm"
}
layer {
  bottom: "layer1/inception_4a/pool_proj/bn"
  top: "layer1/inception_4a/pool_proj/bn/sc"
  name: "layer1/inception_4a/pool_proj/bn/sc"
  type: "Scale"
  scale_param {
    bias_term: true
  }
}
layer {
  bottom: "layer1/inception_4a/pool_proj/bn/sc"
  top: "layer1/inception_4a/pool_proj/bn/sc"
  name: "layer1/inception_4a/pool_proj/bn/sc/relu"
  type: "ReLU"
}
layer {
  bottom: "layer1/inception_4a/1x1/bn/sc"
  bottom: "layer1/inception_4a/3x3/bn/sc"
  bottom: "layer1/inception_4a/double3x3b/bn/sc"
  bottom: "layer1/inception_4a/pool_proj/bn/sc"
  top: "layer1/inception_4a/output"
  name: "layer1/inception_4a/output"
  type: "Concat"
}
layer {
 bottom: "layer1/inception_4a/output"
  top: "layer1/inception_4b/1x1"
  name: "layer1/inception_4b/1x1"
  type: "Convolution"
  param {
    name: "layer/inception_4b/1x1"
    lr_mult: 1
    decay_mult: 1
  }
  convolution_param {
    num_output: 192
    pad: 0
    kernel_size: 1
    stride: 1
    weight_filler {
      type: "xavier"
    }
    bias_term: false
  }
}
layer {
  bottom: "layer1/inception_4b/1x1"
  name: "layer1/inception_4b/1x1/bn"
  top: "layer1/inception_4b/1x1/bn"
  type: "BatchNorm"
}
layer {
  bottom: "layer1/inception_4b/1x1/bn"
  top: "layer1/inception_4b/1x1/bn/sc"
  name: "layer1/inception_4b/1x1/bn/sc"
  type: "Scale"
  scale_param {
    bias_term: true
  }
}
layer {
  bottom: "layer1/inception_4b/1x1/bn/sc"
  top: "layer1/inception_4b/1x1/bn/sc"
  name: "layer1/inception_4b/1x1/bn/sc/relu"
  type: "ReLU"
}
layer {
 bottom: "layer1/inception_4a/output"
  top: "layer1/inception_4b/3x3_reduce"
  name: "layer1/inception_4b/3x3_reduce"
  type: "Convolution"
  param {
    name: "layer/inception_4b/3x3_reduce"
    lr_mult: 1
    decay_mult: 1
  }
  convolution_param {
    num_output: 96
    pad: 0
    kernel_size: 1
    stride: 1
    weight_filler {
      type: "xavier"
    }
    bias_term: false
  }
}
layer {
  bottom: "layer1/inception_4b/3x3_reduce"
  name: "layer1/inception_4b/3x3_reduce/bn"
  top: "layer1/inception_4b/3x3_reduce/bn"
  type: "BatchNorm"
}
layer {
  bottom: "layer1/inception_4b/3x3_reduce/bn"
  top: "layer1/inception_4b/3x3_reduce/bn/sc"
  name: "layer1/inception_4b/3x3_reduce/bn/sc"
  type: "Scale"
  scale_param {
    bias_term: true
  }
}
layer {
  bottom: "layer1/inception_4b/3x3_reduce/bn/sc"
  top: "layer1/inception_4b/3x3_reduce/bn/sc"
  name: "layer1/inception_4b/3x3_reduce/bn/sc/relu"
  type: "ReLU"
}
layer {
 bottom: "layer1/inception_4b/3x3_reduce/bn/sc"
  top: "layer1/inception_4b/3x3"
  name: "layer1/inception_4b/3x3"
  type: "Convolution"
  param {
    name: "layer/inception_4b/3x3"
    lr_mult: 1
    decay_mult: 1
  }
  convolution_param {
    num_output: 128
    pad: 1
    kernel_size: 3
    stride: 1
    weight_filler {
      type: "xavier"
    }
    bias_term: false
  }
}
layer {
  bottom: "layer1/inception_4b/3x3"
  name: "layer1/inception_4b/3x3/bn"
  top: "layer1/inception_4b/3x3/bn"
  type: "BatchNorm"
}
layer {
  bottom: "layer1/inception_4b/3x3/bn"
  top: "layer1/inception_4b/3x3/bn/sc"
  name: "layer1/inception_4b/3x3/bn/sc"
  type: "Scale"
  scale_param {
    bias_term: true
  }
}
layer {
  bottom: "layer1/inception_4b/3x3/bn/sc"
  top: "layer1/inception_4b/3x3/bn/sc"
  name: "layer1/inception_4b/3x3/bn/sc/relu"
  type: "ReLU"
}
layer {
 bottom: "layer1/inception_4a/output"
  top: "layer1/inception_4b/double3x3_reduce"
  name: "layer1/inception_4b/double3x3_reduce"
  type: "Convolution"
  param {
    name: "layer/inception_4b/double3x3_reduce"
    lr_mult: 1
    decay_mult: 1
  }
  convolution_param {
    num_output: 96
    pad: 0
    kernel_size: 1
    stride: 1
    weight_filler {
      type: "xavier"
    }
    bias_term: false
  }
}
layer {
  bottom: "layer1/inception_4b/double3x3_reduce"
  name: "layer1/inception_4b/double3x3_reduce/bn"
  top: "layer1/inception_4b/double3x3_reduce/bn"
  type: "BatchNorm"
}
layer {
  bottom: "layer1/inception_4b/double3x3_reduce/bn"
  top: "layer1/inception_4b/double3x3_reduce/bn/sc"
  name: "layer1/inception_4b/double3x3_reduce/bn/sc"
  type: "Scale"
  scale_param {
    bias_term: true
  }
}
layer {
  bottom: "layer1/inception_4b/double3x3_reduce/bn/sc"
  top: "layer1/inception_4b/double3x3_reduce/bn/sc"
  name: "layer1/inception_4b/double3x3_reduce/bn/sc/relu"
  type: "ReLU"
}
layer {
 bottom: "layer1/inception_4b/double3x3_reduce/bn/sc"
  top: "layer1/inception_4b/double3x3a"
  name: "layer1/inception_4b/double3x3a"
  type: "Convolution"
  param {
    name: "layer/inception_4b/double3x3a"
    lr_mult: 1
    decay_mult: 1
  }
  convolution_param {
    num_output: 128
    pad: 1
    kernel_size: 3
    stride: 1
    weight_filler {
      type: "xavier"
    }
    bias_term: false
  }
}
layer {
  bottom: "layer1/inception_4b/double3x3a"
  name: "layer1/inception_4b/double3x3a/bn"
  top: "layer1/inception_4b/double3x3a/bn"
  type: "BatchNorm"
}
layer {
  bottom: "layer1/inception_4b/double3x3a/bn"
  top: "layer1/inception_4b/double3x3a/bn/sc"
  name: "layer1/inception_4b/double3x3a/bn/sc"
  type: "Scale"
  scale_param {
    bias_term: true
  }
}
layer {
  bottom: "layer1/inception_4b/double3x3a/bn/sc"
  top: "layer1/inception_4b/double3x3a/bn/sc"
  name: "layer1/inception_4b/double3x3a/bn/sc/relu"
  type: "ReLU"
}
layer {
 bottom: "layer1/inception_4b/double3x3a/bn/sc"
  top: "layer1/inception_4b/double3x3b"
  name: "layer1/inception_4b/double3x3b"
  type: "Convolution"
  param {
    name: "layer/inception_4b/double3x3b"
    lr_mult: 1
    decay_mult: 1
  }
  convolution_param {
    num_output: 128
    pad: 1
    kernel_size: 3
    stride: 1
    weight_filler {
      type: "xavier"
    }
    bias_term: false
  }
}
layer {
  bottom: "layer1/inception_4b/double3x3b"
  name: "layer1/inception_4b/double3x3b/bn"
  top: "layer1/inception_4b/double3x3b/bn"
  type: "BatchNorm"
}
layer {
  bottom: "layer1/inception_4b/double3x3b/bn"
  top: "layer1/inception_4b/double3x3b/bn/sc"
  name: "layer1/inception_4b/double3x3b/bn/sc"
  type: "Scale"
  scale_param {
    bias_term: true
  }
}
layer {
  bottom: "layer1/inception_4b/double3x3b/bn/sc"
  top: "layer1/inception_4b/double3x3b/bn/sc"
  name: "layer1/inception_4b/double3x3b/bn/sc/relu"
  type: "ReLU"
}
layer {
  bottom: "layer1/inception_4a/output"
  top: "layer1/inception_4b/pool"
  name: "layer1/inception_4b/pool"
  type: "Pooling"
  pooling_param {
    pool: AVE
    kernel_size: 3
    stride: 1
    pad: 1
  }
}
layer {
 bottom: "layer1/inception_4b/pool"
  top: "layer1/inception_4b/pool_proj"
  name: "layer1/inception_4b/pool_proj"
  type: "Convolution"
  param {
    name: "layer/inception_4b/pool_proj"
    lr_mult: 1
    decay_mult: 1
  }
  convolution_param {
    num_output: 128
    pad: 0
    kernel_size: 1
    stride: 1
    weight_filler {
      type: "xavier"
    }
    bias_term: false
  }
}
layer {
  bottom: "layer1/inception_4b/pool_proj"
  name: "layer1/inception_4b/pool_proj/bn"
  top: "layer1/inception_4b/pool_proj/bn"
  type: "BatchNorm"
}
layer {
  bottom: "layer1/inception_4b/pool_proj/bn"
  top: "layer1/inception_4b/pool_proj/bn/sc"
  name: "layer1/inception_4b/pool_proj/bn/sc"
  type: "Scale"
  scale_param {
    bias_term: true
  }
}
layer {
  bottom: "layer1/inception_4b/pool_proj/bn/sc"
  top: "layer1/inception_4b/pool_proj/bn/sc"
  name: "layer1/inception_4b/pool_proj/bn/sc/relu"
  type: "ReLU"
}
layer {
  bottom: "layer1/inception_4b/1x1/bn/sc"
  bottom: "layer1/inception_4b/3x3/bn/sc"
  bottom: "layer1/inception_4b/double3x3b/bn/sc"
  bottom: "layer1/inception_4b/pool_proj/bn/sc"
  top: "layer1/inception_4b/output"
  name: "layer1/inception_4b/output"
  type: "Concat"
}
layer {
 bottom: "layer1/inception_4b/output"
  top: "layer1/inception_4c/1x1"
  name: "layer1/inception_4c/1x1"
  type: "Convolution"
  param {
    name: "layer/inception_4c/1x1"
    lr_mult: 1
    decay_mult: 1
  }
  convolution_param {
    num_output: 160
    pad: 0
    kernel_size: 1
    stride: 1
    weight_filler {
      type: "xavier"
    }
    bias_term: false
  }
}
layer {
  bottom: "layer1/inception_4c/1x1"
  name: "layer1/inception_4c/1x1/bn"
  top: "layer1/inception_4c/1x1/bn"
  type: "BatchNorm"
}
layer {
  bottom: "layer1/inception_4c/1x1/bn"
  top: "layer1/inception_4c/1x1/bn/sc"
  name: "layer1/inception_4c/1x1/bn/sc"
  type: "Scale"
  scale_param {
    bias_term: true
  }
}
layer {
  bottom: "layer1/inception_4c/1x1/bn/sc"
  top: "layer1/inception_4c/1x1/bn/sc"
  name: "layer1/inception_4c/1x1/bn/sc/relu"
  type: "ReLU"
}
layer {
 bottom: "layer1/inception_4b/output"
  top: "layer1/inception_4c/3x3_reduce"
  name: "layer1/inception_4c/3x3_reduce"
  type: "Convolution"
  param {
    name: "layer/inception_4c/3x3_reduce"
    lr_mult: 1
    decay_mult: 1
  }
  convolution_param {
    num_output: 128
    pad: 0
    kernel_size: 1
    stride: 1
    weight_filler {
      type: "xavier"
    }
    bias_term: false
  }
}
layer {
  bottom: "layer1/inception_4c/3x3_reduce"
  name: "layer1/inception_4c/3x3_reduce/bn"
  top: "layer1/inception_4c/3x3_reduce/bn"
  type: "BatchNorm"
}
layer {
  bottom: "layer1/inception_4c/3x3_reduce/bn"
  top: "layer1/inception_4c/3x3_reduce/bn/sc"
  name: "layer1/inception_4c/3x3_reduce/bn/sc"
  type: "Scale"
  scale_param {
    bias_term: true
  }
}
layer {
  bottom: "layer1/inception_4c/3x3_reduce/bn/sc"
  top: "layer1/inception_4c/3x3_reduce/bn/sc"
  name: "layer1/inception_4c/3x3_reduce/bn/sc/relu"
  type: "ReLU"
}
layer {
 bottom: "layer1/inception_4c/3x3_reduce/bn/sc"
  top: "layer1/inception_4c/3x3"
  name: "layer1/inception_4c/3x3"
  type: "Convolution"
  param {
    name: "layer/inception_4c/3x3"
    lr_mult: 1
    decay_mult: 1
  }
  convolution_param {
    num_output: 160
    pad: 1
    kernel_size: 3
    stride: 1
    weight_filler {
      type: "xavier"
    }
    bias_term: false
  }
}
layer {
  bottom: "layer1/inception_4c/3x3"
  name: "layer1/inception_4c/3x3/bn"
  top: "layer1/inception_4c/3x3/bn"
  type: "BatchNorm"
}
layer {
  bottom: "layer1/inception_4c/3x3/bn"
  top: "layer1/inception_4c/3x3/bn/sc"
  name: "layer1/inception_4c/3x3/bn/sc"
  type: "Scale"
  scale_param {
    bias_term: true
  }
}
layer {
  bottom: "layer1/inception_4c/3x3/bn/sc"
  top: "layer1/inception_4c/3x3/bn/sc"
  name: "layer1/inception_4c/3x3/bn/sc/relu"
  type: "ReLU"
}
layer {
 bottom: "layer1/inception_4b/output"
  top: "layer1/inception_4c/double3x3_reduce"
  name: "layer1/inception_4c/double3x3_reduce"
  type: "Convolution"
  param {
    name: "layer/inception_4c/double3x3_reduce"
    lr_mult: 1
    decay_mult: 1
  }
  convolution_param {
    num_output: 128
    pad: 0
    kernel_size: 1
    stride: 1
    weight_filler {
      type: "xavier"
    }
    bias_term: false
  }
}
layer {
  bottom: "layer1/inception_4c/double3x3_reduce"
  name: "layer1/inception_4c/double3x3_reduce/bn"
  top: "layer1/inception_4c/double3x3_reduce/bn"
  type: "BatchNorm"
}
layer {
  bottom: "layer1/inception_4c/double3x3_reduce/bn"
  top: "layer1/inception_4c/double3x3_reduce/bn/sc"
  name: "layer1/inception_4c/double3x3_reduce/bn/sc"
  type: "Scale"
  scale_param {
    bias_term: true
  }
}
layer {
  bottom: "layer1/inception_4c/double3x3_reduce/bn/sc"
  top: "layer1/inception_4c/double3x3_reduce/bn/sc"
  name: "layer1/inception_4c/double3x3_reduce/bn/sc/relu"
  type: "ReLU"
}
layer {
 bottom: "layer1/inception_4c/double3x3_reduce/bn/sc"
  top: "layer1/inception_4c/double3x3a"
  name: "layer1/inception_4c/double3x3a"
  type: "Convolution"
  param {
    name: "layer/inception_4c/double3x3a"
    lr_mult: 1
    decay_mult: 1
  }
  convolution_param {
    num_output: 160
    pad: 1
    kernel_size: 3
    stride: 1
    weight_filler {
      type: "xavier"
    }
    bias_term: false
  }
}
layer {
  bottom: "layer1/inception_4c/double3x3a"
  name: "layer1/inception_4c/double3x3a/bn"
  top: "layer1/inception_4c/double3x3a/bn"
  type: "BatchNorm"
}
layer {
  bottom: "layer1/inception_4c/double3x3a/bn"
  top: "layer1/inception_4c/double3x3a/bn/sc"
  name: "layer1/inception_4c/double3x3a/bn/sc"
  type: "Scale"
  scale_param {
    bias_term: true
  }
}
layer {
  bottom: "layer1/inception_4c/double3x3a/bn/sc"
  top: "layer1/inception_4c/double3x3a/bn/sc"
  name: "layer1/inception_4c/double3x3a/bn/sc/relu"
  type: "ReLU"
}
layer {
 bottom: "layer1/inception_4c/double3x3a/bn/sc"
  top: "layer1/inception_4c/double3x3b"
  name: "layer1/inception_4c/double3x3b"
  type: "Convolution"
  param {
    name: "layer/inception_4c/double3x3b"
    lr_mult: 1
    decay_mult: 1
  }
  convolution_param {
    num_output: 160
    pad: 1
    kernel_size: 3
    stride: 1
    weight_filler {
      type: "xavier"
    }
    bias_term: false
  }
}
layer {
  bottom: "layer1/inception_4c/double3x3b"
  name: "layer1/inception_4c/double3x3b/bn"
  top: "layer1/inception_4c/double3x3b/bn"
  type: "BatchNorm"
}
layer {
  bottom: "layer1/inception_4c/double3x3b/bn"
  top: "layer1/inception_4c/double3x3b/bn/sc"
  name: "layer1/inception_4c/double3x3b/bn/sc"
  type: "Scale"
  scale_param {
    bias_term: true
  }
}
layer {
  bottom: "layer1/inception_4c/double3x3b/bn/sc"
  top: "layer1/inception_4c/double3x3b/bn/sc"
  name: "layer1/inception_4c/double3x3b/bn/sc/relu"
  type: "ReLU"
}
layer {
  bottom: "layer1/inception_4b/output"
  top: "layer1/inception_4c/pool"
  name: "layer1/inception_4c/pool"
  type: "Pooling"
  pooling_param {
    pool: AVE
    kernel_size: 3
    stride: 1
    pad: 1
  }
}
layer {
 bottom: "layer1/inception_4c/pool"
  top: "layer1/inception_4c/pool_proj"
  name: "layer1/inception_4c/pool_proj"
  type: "Convolution"
  param {
    name: "layer/inception_4c/pool_proj"
    lr_mult: 1
    decay_mult: 1
  }
  convolution_param {
    num_output: 96
    pad: 0
    kernel_size: 1
    stride: 1
    weight_filler {
      type: "xavier"
    }
    bias_term: false
  }
}
layer {
  bottom: "layer1/inception_4c/pool_proj"
  name: "layer1/inception_4c/pool_proj/bn"
  top: "layer1/inception_4c/pool_proj/bn"
  type: "BatchNorm"
}
layer {
  bottom: "layer1/inception_4c/pool_proj/bn"
  top: "layer1/inception_4c/pool_proj/bn/sc"
  name: "layer1/inception_4c/pool_proj/bn/sc"
  type: "Scale"
  scale_param {
    bias_term: true
  }
}
layer {
  bottom: "layer1/inception_4c/pool_proj/bn/sc"
  top: "layer1/inception_4c/pool_proj/bn/sc"
  name: "layer1/inception_4c/pool_proj/bn/sc/relu"
  type: "ReLU"
}
layer {
  bottom: "layer1/inception_4c/1x1/bn/sc"
  bottom: "layer1/inception_4c/3x3/bn/sc"
  bottom: "layer1/inception_4c/double3x3b/bn/sc"
  bottom: "layer1/inception_4c/pool_proj/bn/sc"
  top: "layer1/inception_4c/output"
  name: "layer1/inception_4c/output"
  type: "Concat"
}
layer {
 bottom: "layer1/inception_4c/output"
  top: "layer1/inception_4d/1x1"
  name: "layer1/inception_4d/1x1"
  type: "Convolution"
  param {
    name: "layer/inception_4d/1x1"
    lr_mult: 1
    decay_mult: 1
  }
  convolution_param {
    num_output: 96
    pad: 0
    kernel_size: 1
    stride: 1
    weight_filler {
      type: "xavier"
    }
    bias_term: false
  }
}
layer {
  bottom: "layer1/inception_4d/1x1"
  name: "layer1/inception_4d/1x1/bn"
  top: "layer1/inception_4d/1x1/bn"
  type: "BatchNorm"
}
layer {
  bottom: "layer1/inception_4d/1x1/bn"
  top: "layer1/inception_4d/1x1/bn/sc"
  name: "layer1/inception_4d/1x1/bn/sc"
  type: "Scale"
  scale_param {
    bias_term: true
  }
}
layer {
  bottom: "layer1/inception_4d/1x1/bn/sc"
  top: "layer1/inception_4d/1x1/bn/sc"
  name: "layer1/inception_4d/1x1/bn/sc/relu"
  type: "ReLU"
}
layer {
 bottom: "layer1/inception_4c/output"
  top: "layer1/inception_4d/3x3_reduce"
  name: "layer1/inception_4d/3x3_reduce"
  type: "Convolution"
  param {
    name: "layer/inception_4d/3x3_reduce"
    lr_mult: 1
    decay_mult: 1
  }
  convolution_param {
    num_output: 128
    pad: 0
    kernel_size: 1
    stride: 1
    weight_filler {
      type: "xavier"
    }
    bias_term: false
  }
}
layer {
  bottom: "layer1/inception_4d/3x3_reduce"
  name: "layer1/inception_4d/3x3_reduce/bn"
  top: "layer1/inception_4d/3x3_reduce/bn"
  type: "BatchNorm"
}
layer {
  bottom: "layer1/inception_4d/3x3_reduce/bn"
  top: "layer1/inception_4d/3x3_reduce/bn/sc"
  name: "layer1/inception_4d/3x3_reduce/bn/sc"
  type: "Scale"
  scale_param {
    bias_term: true
  }
}
layer {
  bottom: "layer1/inception_4d/3x3_reduce/bn/sc"
  top: "layer1/inception_4d/3x3_reduce/bn/sc"
  name: "layer1/inception_4d/3x3_reduce/bn/sc/relu"
  type: "ReLU"
}
layer {
 bottom: "layer1/inception_4d/3x3_reduce/bn/sc"
  top: "layer1/inception_4d/3x3"
  name: "layer1/inception_4d/3x3"
  type: "Convolution"
  param {
    name: "layer/inception_4d/3x3"
    lr_mult: 1
    decay_mult: 1
  }
  convolution_param {
    num_output: 192
    pad: 1
    kernel_size: 3
    stride: 1
    weight_filler {
      type: "xavier"
    }
    bias_term: false
  }
}
layer {
  bottom: "layer1/inception_4d/3x3"
  name: "layer1/inception_4d/3x3/bn"
  top: "layer1/inception_4d/3x3/bn"
  type: "BatchNorm"
}
layer {
  bottom: "layer1/inception_4d/3x3/bn"
  top: "layer1/inception_4d/3x3/bn/sc"
  name: "layer1/inception_4d/3x3/bn/sc"
  type: "Scale"
  scale_param {
    bias_term: true
  }
}
layer {
  bottom: "layer1/inception_4d/3x3/bn/sc"
  top: "layer1/inception_4d/3x3/bn/sc"
  name: "layer1/inception_4d/3x3/bn/sc/relu"
  type: "ReLU"
}
layer {
 bottom: "layer1/inception_4c/output"
  top: "layer1/inception_4d/double3x3_reduce"
  name: "layer1/inception_4d/double3x3_reduce"
  type: "Convolution"
  param {
    name: "layer/inception_4d/double3x3_reduce"
    lr_mult: 1
    decay_mult: 1
  }
  convolution_param {
    num_output: 160
    pad: 0
    kernel_size: 1
    stride: 1
    weight_filler {
      type: "xavier"
    }
    bias_term: false
  }
}
layer {
  bottom: "layer1/inception_4d/double3x3_reduce"
  name: "layer1/inception_4d/double3x3_reduce/bn"
  top: "layer1/inception_4d/double3x3_reduce/bn"
  type: "BatchNorm"
}
layer {
  bottom: "layer1/inception_4d/double3x3_reduce/bn"
  top: "layer1/inception_4d/double3x3_reduce/bn/sc"
  name: "layer1/inception_4d/double3x3_reduce/bn/sc"
  type: "Scale"
  scale_param {
    bias_term: true
  }
}
layer {
  bottom: "layer1/inception_4d/double3x3_reduce/bn/sc"
  top: "layer1/inception_4d/double3x3_reduce/bn/sc"
  name: "layer1/inception_4d/double3x3_reduce/bn/sc/relu"
  type: "ReLU"
}
layer {
 bottom: "layer1/inception_4d/double3x3_reduce/bn/sc"
  top: "layer1/inception_4d/double3x3a"
  name: "layer1/inception_4d/double3x3a"
  type: "Convolution"
  param {
    name: "layer/inception_4d/double3x3a"
    lr_mult: 1
    decay_mult: 1
  }
  convolution_param {
    num_output: 192
    pad: 1
    kernel_size: 3
    stride: 1
    weight_filler {
      type: "xavier"
    }
    bias_term: false
  }
}
layer {
  bottom: "layer1/inception_4d/double3x3a"
  name: "layer1/inception_4d/double3x3a/bn"
  top: "layer1/inception_4d/double3x3a/bn"
  type: "BatchNorm"
}
layer {
  bottom: "layer1/inception_4d/double3x3a/bn"
  top: "layer1/inception_4d/double3x3a/bn/sc"
  name: "layer1/inception_4d/double3x3a/bn/sc"
  type: "Scale"
  scale_param {
    bias_term: true
  }
}
layer {
  bottom: "layer1/inception_4d/double3x3a/bn/sc"
  top: "layer1/inception_4d/double3x3a/bn/sc"
  name: "layer1/inception_4d/double3x3a/bn/sc/relu"
  type: "ReLU"
}
layer {
 bottom: "layer1/inception_4d/double3x3a/bn/sc"
  top: "layer1/inception_4d/double3x3b"
  name: "layer1/inception_4d/double3x3b"
  type: "Convolution"
  param {
    name: "layer/inception_4d/double3x3b"
    lr_mult: 1
    decay_mult: 1
  }
  convolution_param {
    num_output: 192
    pad: 1
    kernel_size: 3
    stride: 1
    weight_filler {
      type: "xavier"
    }
    bias_term: false
  }
}
layer {
  bottom: "layer1/inception_4d/double3x3b"
  name: "layer1/inception_4d/double3x3b/bn"
  top: "layer1/inception_4d/double3x3b/bn"
  type: "BatchNorm"
}
layer {
  bottom: "layer1/inception_4d/double3x3b/bn"
  top: "layer1/inception_4d/double3x3b/bn/sc"
  name: "layer1/inception_4d/double3x3b/bn/sc"
  type: "Scale"
  scale_param {
    bias_term: true
  }
}
layer {
  bottom: "layer1/inception_4d/double3x3b/bn/sc"
  top: "layer1/inception_4d/double3x3b/bn/sc"
  name: "layer1/inception_4d/double3x3b/bn/sc/relu"
  type: "ReLU"
}
layer {
  bottom: "layer1/inception_4c/output"
  top: "layer1/inception_4d/pool"
  name: "layer1/inception_4d/pool"
  type: "Pooling"
  pooling_param {
    pool: AVE
    kernel_size: 3
    stride: 1
    pad: 1
  }
}
layer {
 bottom: "layer1/inception_4d/pool"
  top: "layer1/inception_4d/pool_proj"
  name: "layer1/inception_4d/pool_proj"
  type: "Convolution"
  param {
    name: "layer/inception_4d/pool_proj"
    lr_mult: 1
    decay_mult: 1
  }
  convolution_param {
    num_output: 96
    pad: 0
    kernel_size: 1
    stride: 1
    weight_filler {
      type: "xavier"
    }
    bias_term: false
  }
}
layer {
  bottom: "layer1/inception_4d/pool_proj"
  name: "layer1/inception_4d/pool_proj/bn"
  top: "layer1/inception_4d/pool_proj/bn"
  type: "BatchNorm"
}
layer {
  bottom: "layer1/inception_4d/pool_proj/bn"
  top: "layer1/inception_4d/pool_proj/bn/sc"
  name: "layer1/inception_4d/pool_proj/bn/sc"
  type: "Scale"
  scale_param {
    bias_term: true
  }
}
layer {
  bottom: "layer1/inception_4d/pool_proj/bn/sc"
  top: "layer1/inception_4d/pool_proj/bn/sc"
  name: "layer1/inception_4d/pool_proj/bn/sc/relu"
  type: "ReLU"
}
layer {
  bottom: "layer1/inception_4d/1x1/bn/sc"
  bottom: "layer1/inception_4d/3x3/bn/sc"
  bottom: "layer1/inception_4d/double3x3b/bn/sc"
  bottom: "layer1/inception_4d/pool_proj/bn/sc"
  top: "layer1/inception_4d/output"
  name: "layer1/inception_4d/output"
  type: "Concat"
}
layer {
 bottom: "layer1/inception_4d/output"
  top: "layer1/inception_4e/3x3_reduce"
  name: "layer1/inception_4e/3x3_reduce"
  type: "Convolution"
  param {
    name: "layer/inception_4e/3x3_reduce"
    lr_mult: 1
    decay_mult: 1
  }
  convolution_param {
    num_output: 128
    pad: 0
    kernel_size: 1
    stride: 1
    weight_filler {
      type: "xavier"
    }
    bias_term: false
  }
}
layer {
  bottom: "layer1/inception_4e/3x3_reduce"
  name: "layer1/inception_4e/3x3_reduce/bn"
  top: "layer1/inception_4e/3x3_reduce/bn"
  type: "BatchNorm"
}
layer {
  bottom: "layer1/inception_4e/3x3_reduce/bn"
  top: "layer1/inception_4e/3x3_reduce/bn/sc"
  name: "layer1/inception_4e/3x3_reduce/bn/sc"
  type: "Scale"
  scale_param {
    bias_term: true
  }
}
layer {
  bottom: "layer1/inception_4e/3x3_reduce/bn/sc"
  top: "layer1/inception_4e/3x3_reduce/bn/sc"
  name: "layer1/inception_4e/3x3_reduce/bn/sc/relu"
  type: "ReLU"
}
layer {
 bottom: "layer1/inception_4e/3x3_reduce/bn/sc"
  top: "layer1/inception_4e/3x3"
  name: "layer1/inception_4e/3x3"
  type: "Convolution"
  param {
    name: "layer/inception_4e/3x3"
    lr_mult: 1
    decay_mult: 1
  }
  convolution_param {
    num_output: 192
    pad: 1
    kernel_size: 3
    stride: 2
    weight_filler {
      type: "xavier"
    }
    bias_term: false
  }
}
layer {
  bottom: "layer1/inception_4e/3x3"
  name: "layer1/inception_4e/3x3/bn"
  top: "layer1/inception_4e/3x3/bn"
  type: "BatchNorm"
}
layer {
  bottom: "layer1/inception_4e/3x3/bn"
  top: "layer1/inception_4e/3x3/bn/sc"
  name: "layer1/inception_4e/3x3/bn/sc"
  type: "Scale"
  scale_param {
    bias_term: true
  }
}
layer {
  bottom: "layer1/inception_4e/3x3/bn/sc"
  top: "layer1/inception_4e/3x3/bn/sc"
  name: "layer1/inception_4e/3x3/bn/sc/relu"
  type: "ReLU"
}
layer {
 bottom: "layer1/inception_4d/output"
  top: "layer1/inception_4e/double3x3_reduce"
  name: "layer1/inception_4e/double3x3_reduce"
  type: "Convolution"
  param {
    name: "layer/inception_4e/double3x3_reduce"
    lr_mult: 1
    decay_mult: 1
  }
  convolution_param {
    num_output: 192
    pad: 0
    kernel_size: 1
    stride: 1
    weight_filler {
      type: "xavier"
    }
    bias_term: false
  }
}
layer {
  bottom: "layer1/inception_4e/double3x3_reduce"
  name: "layer1/inception_4e/double3x3_reduce/bn"
  top: "layer1/inception_4e/double3x3_reduce/bn"
  type: "BatchNorm"
}
layer {
  bottom: "layer1/inception_4e/double3x3_reduce/bn"
  top: "layer1/inception_4e/double3x3_reduce/bn/sc"
  name: "layer1/inception_4e/double3x3_reduce/bn/sc"
  type: "Scale"
  scale_param {
    bias_term: true
  }
}
layer {
  bottom: "layer1/inception_4e/double3x3_reduce/bn/sc"
  top: "layer1/inception_4e/double3x3_reduce/bn/sc"
  name: "layer1/inception_4e/double3x3_reduce/bn/sc/relu"
  type: "ReLU"
}
layer {
 bottom: "layer1/inception_4e/double3x3_reduce/bn/sc"
  top: "layer1/inception_4e/double3x3a"
  name: "layer1/inception_4e/double3x3a"
  type: "Convolution"
  param {
    name: "layer/inception_4e/double3x3a"
    lr_mult: 1
    decay_mult: 1
  }
  convolution_param {
    num_output: 256
    pad: 1
    kernel_size: 3
    stride: 1
    weight_filler {
      type: "xavier"
    }
    bias_term: false
  }
}
layer {
  bottom: "layer1/inception_4e/double3x3a"
  name: "layer1/inception_4e/double3x3a/bn"
  top: "layer1/inception_4e/double3x3a/bn"
  type: "BatchNorm"
}
layer {
  bottom: "layer1/inception_4e/double3x3a/bn"
  top: "layer1/inception_4e/double3x3a/bn/sc"
  name: "layer1/inception_4e/double3x3a/bn/sc"
  type: "Scale"
  scale_param {
    bias_term: true
  }
}
layer {
  bottom: "layer1/inception_4e/double3x3a/bn/sc"
  top: "layer1/inception_4e/double3x3a/bn/sc"
  name: "layer1/inception_4e/double3x3a/bn/sc/relu"
  type: "ReLU"
}
layer {
 bottom: "layer1/inception_4e/double3x3a/bn/sc"
  top: "layer1/inception_4e/double3x3b"
  name: "layer1/inception_4e/double3x3b"
  type: "Convolution"
  param {
    name: "layer/inception_4e/double3x3b"
    lr_mult: 1
    decay_mult: 1
  }
  convolution_param {
    num_output: 256
    pad: 1
    kernel_size: 3
    stride: 2
    weight_filler {
      type: "xavier"
    }
    bias_term: false
  }
}
layer {
  bottom: "layer1/inception_4e/double3x3b"
  name: "layer1/inception_4e/double3x3b/bn"
  top: "layer1/inception_4e/double3x3b/bn"
  type: "BatchNorm"
}
layer {
  bottom: "layer1/inception_4e/double3x3b/bn"
  top: "layer1/inception_4e/double3x3b/bn/sc"
  name: "layer1/inception_4e/double3x3b/bn/sc"
  type: "Scale"
  scale_param {
    bias_term: true
  }
}
layer {
  bottom: "layer1/inception_4e/double3x3b/bn/sc"
  top: "layer1/inception_4e/double3x3b/bn/sc"
  name: "layer1/inception_4e/double3x3b/bn/sc/relu"
  type: "ReLU"
}
layer {
  bottom: "layer1/inception_4d/output"
  top: "layer1/inception_4e/pool"
  name: "layer1/inception_4e/pool"
  type: "Pooling"
  pooling_param {
    pool: MAX
    kernel_size: 3
    stride: 2
  }
}
layer {
  bottom: "layer1/inception_4e/3x3/bn/sc"
  bottom: "layer1/inception_4e/double3x3b/bn/sc"
  bottom: "layer1/inception_4e/pool"
  top: "layer1/inception_4e/output"
  name: "layer1/inception_4e/output"
  type: "Concat"
}


layer {
 bottom: "layer1/inception_4e/output"
  top: "layer1/inception_5a/1x1"
  name: "layer1/inception_5a/1x1"
  type: "Convolution"
  param {
    name: "layer/inception_5a/1x1"
    lr_mult: 1
    decay_mult: 1
  }
  convolution_param {
    num_output: 352
    pad: 0
    kernel_size: 1
    stride: 1
    weight_filler {
      type: "xavier"
    }
    bias_term: false
  }
}
layer {
  bottom: "layer1/inception_5a/1x1"
  name: "layer1/inception_5a/1x1/bn"
  top: "layer1/inception_5a/1x1/bn"
  type: "BatchNorm"
}
layer {
  bottom: "layer1/inception_5a/1x1/bn"
  top: "layer1/inception_5a/1x1/bn/sc"
  name: "layer1/inception_5a/1x1/bn/sc"
  type: "Scale"
  scale_param {
    bias_term: true
  }
}
layer {
  bottom: "layer1/inception_5a/1x1/bn/sc"
  top: "layer1/inception_5a/1x1/bn/sc"
  name: "layer1/inception_5a/1x1/bn/sc/relu"
  type: "ReLU"
}
layer {
 bottom: "layer1/inception_4e/output"
  top: "layer1/inception_5a/3x3_reduce"
  name: "layer1/inception_5a/3x3_reduce"
  type: "Convolution"
  param {
    name: "layer/inception_5a/3x3_reduce"
    lr_mult: 1
    decay_mult: 1
  }
  convolution_param {
    num_output: 192
    pad: 0
    kernel_size: 1
    stride: 1
    weight_filler {
      type: "xavier"
    }
    bias_term: false
  }
}
layer {
  bottom: "layer1/inception_5a/3x3_reduce"
  name: "layer1/inception_5a/3x3_reduce/bn"
  top: "layer1/inception_5a/3x3_reduce/bn"
  type: "BatchNorm"
}
layer {
  bottom: "layer1/inception_5a/3x3_reduce/bn"
  top: "layer1/inception_5a/3x3_reduce/bn/sc"
  name: "layer1/inception_5a/3x3_reduce/bn/sc"
  type: "Scale"
  scale_param {
    bias_term: true
  }
}
layer {
  bottom: "layer1/inception_5a/3x3_reduce/bn/sc"
  top: "layer1/inception_5a/3x3_reduce/bn/sc"
  name: "layer1/inception_5a/3x3_reduce/bn/sc/relu"
  type: "ReLU"
}
layer {
 bottom: "layer1/inception_5a/3x3_reduce/bn/sc"
  top: "layer1/inception_5a/3x3"
  name: "layer1/inception_5a/3x3"
  type: "Convolution"
  param {
    name: "layer/inception_5a/3x3"
    lr_mult: 1
    decay_mult: 1
  }
  convolution_param {
    num_output: 320
    pad: 1
    kernel_size: 3
    stride: 1
    weight_filler {
      type: "xavier"
    }
    bias_term: false
  }
}
layer {
  bottom: "layer1/inception_5a/3x3"
  name: "layer1/inception_5a/3x3/bn"
  top: "layer1/inception_5a/3x3/bn"
  type: "BatchNorm"
}
layer {
  bottom: "layer1/inception_5a/3x3/bn"
  top: "layer1/inception_5a/3x3/bn/sc"
  name: "layer1/inception_5a/3x3/bn/sc"
  type: "Scale"
  scale_param {
    bias_term: true
  }
}
layer {
  bottom: "layer1/inception_5a/3x3/bn/sc"
  top: "layer1/inception_5a/3x3/bn/sc"
  name: "layer1/inception_5a/3x3/bn/sc/relu"
  type: "ReLU"
}
layer {
 bottom: "layer1/inception_4e/output"
  top: "layer1/inception_5a/double3x3_reduce"
  name: "layer1/inception_5a/double3x3_reduce"
  type: "Convolution"
  param {
    name: "layer/inception_5a/double3x3_reduce"
    lr_mult: 1
    decay_mult: 1
  }
  convolution_param {
    num_output: 160
    pad: 0
    kernel_size: 1
    stride: 1
    weight_filler {
      type: "xavier"
    }
    bias_term: false
  }
}
layer {
  bottom: "layer1/inception_5a/double3x3_reduce"
  name: "layer1/inception_5a/double3x3_reduce/bn"
  top: "layer1/inception_5a/double3x3_reduce/bn"
  type: "BatchNorm"
}
layer {
  bottom: "layer1/inception_5a/double3x3_reduce/bn"
  top: "layer1/inception_5a/double3x3_reduce/bn/sc"
  name: "layer1/inception_5a/double3x3_reduce/bn/sc"
  type: "Scale"
  scale_param {
    bias_term: true
  }
}
layer {
  bottom: "layer1/inception_5a/double3x3_reduce/bn/sc"
  top: "layer1/inception_5a/double3x3_reduce/bn/sc"
  name: "layer1/inception_5a/double3x3_reduce/bn/sc/relu"
  type: "ReLU"
}
layer {
 bottom: "layer1/inception_5a/double3x3_reduce/bn/sc"
  top: "layer1/inception_5a/double3x3a"
  name: "layer1/inception_5a/double3x3a"
  type: "Convolution"
  param {
    name: "layer/inception_5a/double3x3a"
    lr_mult: 1
    decay_mult: 1
  }
  convolution_param {
    num_output: 224
    pad: 1
    kernel_size: 3
    stride: 1
    weight_filler {
      type: "xavier"
    }
    bias_term: false
  }
}
layer {
  bottom: "layer1/inception_5a/double3x3a"
  name: "layer1/inception_5a/double3x3a/bn"
  top: "layer1/inception_5a/double3x3a/bn"
  type: "BatchNorm"
}
layer {
  bottom: "layer1/inception_5a/double3x3a/bn"
  top: "layer1/inception_5a/double3x3a/bn/sc"
  name: "layer1/inception_5a/double3x3a/bn/sc"
  type: "Scale"
  scale_param {
    bias_term: true
  }
}
layer {
  bottom: "layer1/inception_5a/double3x3a/bn/sc"
  top: "layer1/inception_5a/double3x3a/bn/sc"
  name: "layer1/inception_5a/double3x3a/bn/sc/relu"
  type: "ReLU"
}
layer {
 bottom: "layer1/inception_5a/double3x3a/bn/sc"
  top: "layer1/inception_5a/double3x3b"
  name: "layer1/inception_5a/double3x3b"
  type: "Convolution"
  param {
    name: "layer/inception_5a/double3x3b"
    lr_mult: 1
    decay_mult: 1
  }
  convolution_param {
    num_output: 224
    pad: 1
    kernel_size: 3
    stride: 1
    weight_filler {
      type: "xavier"
    }
    bias_term: false
  }
}
layer {
  bottom: "layer1/inception_5a/double3x3b"
  name: "layer1/inception_5a/double3x3b/bn"
  top: "layer1/inception_5a/double3x3b/bn"
  type: "BatchNorm"
}
layer {
  bottom: "layer1/inception_5a/double3x3b/bn"
  top: "layer1/inception_5a/double3x3b/bn/sc"
  name: "layer1/inception_5a/double3x3b/bn/sc"
  type: "Scale"
  scale_param {
    bias_term: true
  }
}
layer {
  bottom: "layer1/inception_5a/double3x3b/bn/sc"
  top: "layer1/inception_5a/double3x3b/bn/sc"
  name: "layer1/inception_5a/double3x3b/bn/sc/relu"
  type: "ReLU"
}
layer {
  bottom: "layer1/inception_4e/output"
  top: "layer1/inception_5a/pool"
  name: "layer1/inception_5a/pool"
  type: "Pooling"
  pooling_param {
    pool: AVE
    kernel_size: 3
    stride: 1
    pad: 1
  }
}
layer {
 bottom: "layer1/inception_5a/pool"
  top: "layer1/inception_5a/pool_proj"
  name: "layer1/inception_5a/pool_proj"
  type: "Convolution"
  param {
    name: "layer/inception_5a/pool_proj"
    lr_mult: 1
    decay_mult: 1
  }
  convolution_param {
    num_output: 128
    pad: 0
    kernel_size: 1
    stride: 1
    weight_filler {
      type: "xavier"
    }
    bias_term: false
  }
}
layer {
  bottom: "layer1/inception_5a/pool_proj"
  name: "layer1/inception_5a/pool_proj/bn"
  top: "layer1/inception_5a/pool_proj/bn"
  type: "BatchNorm"
}
layer {
  bottom: "layer1/inception_5a/pool_proj/bn"
  top: "layer1/inception_5a/pool_proj/bn/sc"
  name: "layer1/inception_5a/pool_proj/bn/sc"
  type: "Scale"
  scale_param {
    bias_term: true
  }
}
layer {
  bottom: "layer1/inception_5a/pool_proj/bn/sc"
  top: "layer1/inception_5a/pool_proj/bn/sc"
  name: "layer1/inception_5a/pool_proj/bn/sc/relu"
  type: "ReLU"
}
layer {
  bottom: "layer1/inception_5a/1x1/bn/sc"
  bottom: "layer1/inception_5a/3x3/bn/sc"
  bottom: "layer1/inception_5a/double3x3b/bn/sc"
  bottom: "layer1/inception_5a/pool_proj/bn/sc"
  top: "layer1/inception_5a/output"
  name: "layer1/inception_5a/output"
  type: "Concat"
}
layer {
 bottom: "layer1/inception_5a/output"
  top: "layer1/inception_5b/1x1"
  name: "layer1/inception_5b/1x1"
  type: "Convolution"
  param {
    name: "layer/inception_5b/1x1"
    lr_mult: 1
    decay_mult: 1
  }
  convolution_param {
    num_output: 352
    pad: 0
    kernel_size: 1
    stride: 1
    weight_filler {
      type: "xavier"
    }
    bias_term: false
  }
}
layer {
  bottom: "layer1/inception_5b/1x1"
  name: "layer1/inception_5b/1x1/bn"
  top: "layer1/inception_5b/1x1/bn"
  type: "BatchNorm"
}
layer {
  bottom: "layer1/inception_5b/1x1/bn"
  top: "layer1/inception_5b/1x1/bn/sc"
  name: "layer1/inception_5b/1x1/bn/sc"
  type: "Scale"
  scale_param {
    bias_term: true
  }
}
layer {
  bottom: "layer1/inception_5b/1x1/bn/sc"
  top: "layer1/inception_5b/1x1/bn/sc"
  name: "layer1/inception_5b/1x1/bn/sc/relu"
  type: "ReLU"
}
layer {
 bottom: "layer1/inception_5a/output"
  top: "layer1/inception_5b/3x3_reduce"
  name: "layer1/inception_5b/3x3_reduce"
  type: "Convolution"
  param {
    name: "layer/inception_5b/3x3_reduce"
    lr_mult: 1
    decay_mult: 1
  }
  convolution_param {
    num_output: 192
    pad: 0
    kernel_size: 1
    stride: 1
    weight_filler {
      type: "xavier"
    }
    bias_term: false
  }
}
layer {
  bottom: "layer1/inception_5b/3x3_reduce"
  name: "layer1/inception_5b/3x3_reduce/bn"
  top: "layer1/inception_5b/3x3_reduce/bn"
  type: "BatchNorm"
}
layer {
  bottom: "layer1/inception_5b/3x3_reduce/bn"
  top: "layer1/inception_5b/3x3_reduce/bn/sc"
  name: "layer1/inception_5b/3x3_reduce/bn/sc"
  type: "Scale"
  scale_param {
    bias_term: true
  }
}
layer {
  bottom: "layer1/inception_5b/3x3_reduce/bn/sc"
  top: "layer1/inception_5b/3x3_reduce/bn/sc"
  name: "layer1/inception_5b/3x3_reduce/bn/sc/relu"
  type: "ReLU"
}
layer {
 bottom: "layer1/inception_5b/3x3_reduce/bn/sc"
  top: "layer1/inception_5b/3x3"
  name: "layer1/inception_5b/3x3"
  type: "Convolution"
  param {
    name: "layer/inception_5b/3x3"
    lr_mult: 1
    decay_mult: 1
  }
  convolution_param {
    num_output: 320
    pad: 1
    kernel_size: 3
    stride: 1
    weight_filler {
      type: "xavier"
    }
    bias_term: false
  }
}
layer {
  bottom: "layer1/inception_5b/3x3"
  name: "layer1/inception_5b/3x3/bn"
  top: "layer1/inception_5b/3x3/bn"
  type: "BatchNorm"
}
layer {
  bottom: "layer1/inception_5b/3x3/bn"
  top: "layer1/inception_5b/3x3/bn/sc"
  name: "layer1/inception_5b/3x3/bn/sc"
  type: "Scale"
  scale_param {
    bias_term: true
  }
}
layer {
  bottom: "layer1/inception_5b/3x3/bn/sc"
  top: "layer1/inception_5b/3x3/bn/sc"
  name: "layer1/inception_5b/3x3/bn/sc/relu"
  type: "ReLU"
}
layer {
 bottom: "layer1/inception_5a/output"
  top: "layer1/inception_5b/double3x3_reduce"
  name: "layer1/inception_5b/double3x3_reduce"
  type: "Convolution"
  param {
    name: "layer/inception_5b/double3x3_reduce"
    lr_mult: 1
    decay_mult: 1
  }
  convolution_param {
    num_output: 192
    pad: 0
    kernel_size: 1
    stride: 1
    weight_filler {
      type: "xavier"
    }
    bias_term: false
  }
}
layer {
  bottom: "layer1/inception_5b/double3x3_reduce"
  name: "layer1/inception_5b/double3x3_reduce/bn"
  top: "layer1/inception_5b/double3x3_reduce/bn"
  type: "BatchNorm"
}
layer {
  bottom: "layer1/inception_5b/double3x3_reduce/bn"
  top: "layer1/inception_5b/double3x3_reduce/bn/sc"
  name: "layer1/inception_5b/double3x3_reduce/bn/sc"
  type: "Scale"
  scale_param {
    bias_term: true
  }
}
layer {
  bottom: "layer1/inception_5b/double3x3_reduce/bn/sc"
  top: "layer1/inception_5b/double3x3_reduce/bn/sc"
  name: "layer1/inception_5b/double3x3_reduce/bn/sc/relu"
  type: "ReLU"
}
layer {
 bottom: "layer1/inception_5b/double3x3_reduce/bn/sc"
  top: "layer1/inception_5b/double3x3a"
  name: "layer1/inception_5b/double3x3a"
  type: "Convolution"
  param {
    name: "layer/inception_5b/double3x3a"
    lr_mult: 1
    decay_mult: 1
  }
  convolution_param {
    num_output: 224
    pad: 1
    kernel_size: 3
    stride: 1
    weight_filler {
      type: "xavier"
    }
    bias_term: false
  }
}
layer {
  bottom: "layer1/inception_5b/double3x3a"
  name: "layer1/inception_5b/double3x3a/bn"
  top: "layer1/inception_5b/double3x3a/bn"
  type: "BatchNorm"
}
layer {
  bottom: "layer1/inception_5b/double3x3a/bn"
  top: "layer1/inception_5b/double3x3a/bn/sc"
  name: "layer1/inception_5b/double3x3a/bn/sc"
  type: "Scale"
  scale_param {
    bias_term: true
  }
}
layer {
  bottom: "layer1/inception_5b/double3x3a/bn/sc"
  top: "layer1/inception_5b/double3x3a/bn/sc"
  name: "layer1/inception_5b/double3x3a/bn/sc/relu"
  type: "ReLU"
}
layer {
 bottom: "layer1/inception_5b/double3x3a/bn/sc"
  top: "layer1/inception_5b/double3x3b"
  name: "layer1/inception_5b/double3x3b"
  type: "Convolution"
  param {
    name: "layer/inception_5b/double3x3b"
    lr_mult: 1
    decay_mult: 1
  }
  convolution_param {
    num_output: 224
    pad: 1
    kernel_size: 3
    stride: 1
    weight_filler {
      type: "xavier"
    }
    bias_term: false
  }
}
layer {
  bottom: "layer1/inception_5b/double3x3b"
  name: "layer1/inception_5b/double3x3b/bn"
  top: "layer1/inception_5b/double3x3b/bn"
  type: "BatchNorm"
}
layer {
  bottom: "layer1/inception_5b/double3x3b/bn"
  top: "layer1/inception_5b/double3x3b/bn/sc"
  name: "layer1/inception_5b/double3x3b/bn/sc"
  type: "Scale"
  scale_param {
    bias_term: true
  }
}
layer {
  bottom: "layer1/inception_5b/double3x3b/bn/sc"
  top: "layer1/inception_5b/double3x3b/bn/sc"
  name: "layer1/inception_5b/double3x3b/bn/sc/relu"
  type: "ReLU"
}
layer {
  bottom: "layer1/inception_5a/output"
  top: "layer1/inception_5b/pool"
  name: "layer1/inception_5b/pool"
  type: "Pooling"
  pooling_param {
    pool: MAX
    kernel_size: 3
    stride: 1
    pad: 1
  }
}
layer {
 bottom: "layer1/inception_5b/pool"
  top: "layer1/inception_5b/pool_proj"
  name: "layer1/inception_5b/pool_proj"
  type: "Convolution"
  param {
    name: "layer/inception_5b/pool_proj"
    lr_mult: 1
    decay_mult: 1
  }
  convolution_param {
    num_output: 128
    pad: 0
    kernel_size: 1
    stride: 1
    weight_filler {
      type: "xavier"
    }
    bias_term: false
  }
}
layer {
  bottom: "layer1/inception_5b/pool_proj"
  name: "layer1/inception_5b/pool_proj/bn"
  top: "layer1/inception_5b/pool_proj/bn"
  type: "BatchNorm"
}
layer {
  bottom: "layer1/inception_5b/pool_proj/bn"
  top: "layer1/inception_5b/pool_proj/bn/sc"
  name: "layer1/inception_5b/pool_proj/bn/sc"
  type: "Scale"
  scale_param {
    bias_term: true
  }
}
layer {
  bottom: "layer1/inception_5b/pool_proj/bn/sc"
  top: "layer1/inception_5b/pool_proj/bn/sc"
  name: "layer1/inception_5b/pool_proj/bn/sc/relu"
  type: "ReLU"
}
layer {
  bottom: "layer1/inception_5b/1x1/bn/sc"
  bottom: "layer1/inception_5b/3x3/bn/sc"
  bottom: "layer1/inception_5b/double3x3b/bn/sc"
  bottom: "layer1/inception_5b/pool_proj/bn/sc"
  top: "layer1/inception_5b/output"
  name: "layer1/inception_5b/output"
  type: "Concat"
}





###########################layer2_to_upper###################

layer {
 bottom: "data/layer2"
  top: "layer2/conv1/7x7_s2"
  name: "layer2/conv1/7x7_s2"
  type: "Convolution"
  param {
    name: "layer/conv1/7x7_s2"
    lr_mult: 1
    decay_mult: 1
  }
  convolution_param {
    num_output: 64
    pad: 3
    kernel_size: 7
    stride: 2
    weight_filler {
      type: "xavier"
    }
    bias_term: false
  }
}
layer {
  bottom: "layer2/conv1/7x7_s2"
  name: "layer2/conv1/7x7_s2/bn"
  top: "layer2/conv1/7x7_s2/bn"
  type: "BatchNorm"
}
layer {
  bottom: "layer2/conv1/7x7_s2/bn"
  top: "layer2/conv1/7x7_s2/bn/sc"
  name: "layer2/conv1/7x7_s2/bn/sc"
  type: "Scale"
  scale_param {
    bias_term: true
  }
}
layer {
  bottom: "layer2/conv1/7x7_s2/bn/sc"
  top: "layer2/conv1/7x7_s2/bn/sc"
  name: "layer2/conv1/7x7_s2/bn/sc/relu"
  type: "ReLU"
}
layer {
  bottom: "layer2/conv1/7x7_s2/bn/sc"
  top: "layer2/pool1/3x3_s2"
  name: "layer2/pool1/3x3_s2"
  type: "Pooling"
  pooling_param {
    pool: MAX
    kernel_size: 3
    stride: 2
  }
}
layer {
 bottom: "layer2/pool1/3x3_s2"
  top: "layer2/conv2/3x3_reduce"
  name: "layer2/conv2/3x3_reduce"
  type: "Convolution"
  param {
    name: "layer/conv2/3x3_reduce"
    lr_mult: 1
    decay_mult: 1
  }
  convolution_param {
    num_output: 64
    pad: 0
    kernel_size: 1
    stride: 1
    weight_filler {
      type: "xavier"
    }
    bias_term: false
  }
}
layer {
  bottom: "layer2/conv2/3x3_reduce"
  name: "layer2/conv2/3x3_reduce/bn"
  top: "layer2/conv2/3x3_reduce/bn"
  type: "BatchNorm"
}
layer {
  bottom: "layer2/conv2/3x3_reduce/bn"
  top: "layer2/conv2/3x3_reduce/bn/sc"
  name: "layer2/conv2/3x3_reduce/bn/sc"
  type: "Scale"
  scale_param {
    bias_term: true
  }
}
layer {
  bottom: "layer2/conv2/3x3_reduce/bn/sc"
  top: "layer2/conv2/3x3_reduce/bn/sc"
  name: "layer2/conv2/3x3_reduce/bn/sc/relu"
  type: "ReLU"
}
layer {
 bottom: "layer2/conv2/3x3_reduce/bn/sc"
  top: "layer2/conv2/3x3"
  name: "layer2/conv2/3x3"
  type: "Convolution"
  param {
    name: "layer/conv2/3x3"
    lr_mult: 1
    decay_mult: 1
  }
  convolution_param {
    num_output: 192
    pad: 1
    kernel_size: 3
    stride: 1
    weight_filler {
      type: "xavier"
    }
    bias_term: false
  }
}
layer {
  bottom: "layer2/conv2/3x3"
  name: "layer2/conv2/3x3/bn"
  top: "layer2/conv2/3x3/bn"
  type: "BatchNorm"
}
layer {
  bottom: "layer2/conv2/3x3/bn"
  top: "layer2/conv2/3x3/bn/sc"
  name: "layer2/conv2/3x3/bn/sc"
  type: "Scale"
  scale_param {
    bias_term: true
  }
}
layer {
  bottom: "layer2/conv2/3x3/bn/sc"
  top: "layer2/conv2/3x3/bn/sc"
  name: "layer2/conv2/3x3/bn/sc/relu"
  type: "ReLU"
}
layer {
  bottom: "layer2/conv2/3x3/bn/sc"
  top: "layer2/pool2/3x3_s2"
  name: "layer2/pool2/3x3_s2"
  type: "Pooling"
  pooling_param {
    pool: MAX
    kernel_size: 3
    stride: 2
  }
}
layer {
 bottom: "layer2/pool2/3x3_s2"
  top: "layer2/inception_3a/1x1"
  name: "layer2/inception_3a/1x1"
  type: "Convolution"
  param {
    name: "layer/inception_3a/1x1"
    lr_mult: 1
    decay_mult: 1
  }
  convolution_param {
    num_output: 64
    pad: 0
    kernel_size: 1
    stride: 1
    weight_filler {
      type: "xavier"
    }
    bias_term: false
  }
}
layer {
  bottom: "layer2/inception_3a/1x1"
  name: "layer2/inception_3a/1x1/bn"
  top: "layer2/inception_3a/1x1/bn"
  type: "BatchNorm"
}
layer {
  bottom: "layer2/inception_3a/1x1/bn"
  top: "layer2/inception_3a/1x1/bn/sc"
  name: "layer2/inception_3a/1x1/bn/sc"
  type: "Scale"
  scale_param {
    bias_term: true
  }
}
layer {
  bottom: "layer2/inception_3a/1x1/bn/sc"
  top: "layer2/inception_3a/1x1/bn/sc"
  name: "layer2/inception_3a/1x1/bn/sc/relu"
  type: "ReLU"
}
layer {
 bottom: "layer2/pool2/3x3_s2"
  top: "layer2/inception_3a/3x3_reduce"
  name: "layer2/inception_3a/3x3_reduce"
  type: "Convolution"
  param {
    name: "layer/inception_3a/3x3_reduce"
    lr_mult: 1
    decay_mult: 1
  }
  convolution_param {
    num_output: 64
    pad: 0
    kernel_size: 1
    stride: 1
    weight_filler {
      type: "xavier"
    }
    bias_term: false
  }
}
layer {
  bottom: "layer2/inception_3a/3x3_reduce"
  name: "layer2/inception_3a/3x3_reduce/bn"
  top: "layer2/inception_3a/3x3_reduce/bn"
  type: "BatchNorm"
}
layer {
  bottom: "layer2/inception_3a/3x3_reduce/bn"
  top: "layer2/inception_3a/3x3_reduce/bn/sc"
  name: "layer2/inception_3a/3x3_reduce/bn/sc"
  type: "Scale"
  scale_param {
    bias_term: true
  }
}
layer {
  bottom: "layer2/inception_3a/3x3_reduce/bn/sc"
  top: "layer2/inception_3a/3x3_reduce/bn/sc"
  name: "layer2/inception_3a/3x3_reduce/bn/sc/relu"
  type: "ReLU"
}
layer {
 bottom: "layer2/inception_3a/3x3_reduce/bn/sc"
  top: "layer2/inception_3a/3x3"
  name: "layer2/inception_3a/3x3"
  type: "Convolution"
  param {
    name: "layer/inception_3a/3x3"
    lr_mult: 1
    decay_mult: 1
  }
  convolution_param {
    num_output: 64
    pad: 1
    kernel_size: 3
    stride: 1
    weight_filler {
      type: "xavier"
    }
    bias_term: false
  }
}
layer {
  bottom: "layer2/inception_3a/3x3"
  name: "layer2/inception_3a/3x3/bn"
  top: "layer2/inception_3a/3x3/bn"
  type: "BatchNorm"
}
layer {
  bottom: "layer2/inception_3a/3x3/bn"
  top: "layer2/inception_3a/3x3/bn/sc"
  name: "layer2/inception_3a/3x3/bn/sc"
  type: "Scale"
  scale_param {
    bias_term: true
  }
}
layer {
  bottom: "layer2/inception_3a/3x3/bn/sc"
  top: "layer2/inception_3a/3x3/bn/sc"
  name: "layer2/inception_3a/3x3/bn/sc/relu"
  type: "ReLU"
}
layer {
 bottom: "layer2/pool2/3x3_s2"
  top: "layer2/inception_3a/double3x3_reduce"
  name: "layer2/inception_3a/double3x3_reduce"
  type: "Convolution"
  param {
    name: "layer/inception_3a/double3x3_reduce"
    lr_mult: 1
    decay_mult: 1
  }
  convolution_param {
    num_output: 64
    pad: 0
    kernel_size: 1
    stride: 1
    weight_filler {
      type: "xavier"
    }
    bias_term: false
  }
}
layer {
  bottom: "layer2/inception_3a/double3x3_reduce"
  name: "layer2/inception_3a/double3x3_reduce/bn"
  top: "layer2/inception_3a/double3x3_reduce/bn"
  type: "BatchNorm"
}
layer {
  bottom: "layer2/inception_3a/double3x3_reduce/bn"
  top: "layer2/inception_3a/double3x3_reduce/bn/sc"
  name: "layer2/inception_3a/double3x3_reduce/bn/sc"
  type: "Scale"
  scale_param {
    bias_term: true
  }
}
layer {
  bottom: "layer2/inception_3a/double3x3_reduce/bn/sc"
  top: "layer2/inception_3a/double3x3_reduce/bn/sc"
  name: "layer2/inception_3a/double3x3_reduce/bn/sc/relu"
  type: "ReLU"
}
layer {
 bottom: "layer2/inception_3a/double3x3_reduce/bn/sc"
  top: "layer2/inception_3a/double3x3a"
  name: "layer2/inception_3a/double3x3a"
  type: "Convolution"
  param {
    name: "layer/inception_3a/double3x3a"
    lr_mult: 1
    decay_mult: 1
  }
  convolution_param {
    num_output: 96
    pad: 1
    kernel_size: 3
    stride: 1
    weight_filler {
      type: "xavier"
    }
    bias_term: false
  }
}
layer {
  bottom: "layer2/inception_3a/double3x3a"
  name: "layer2/inception_3a/double3x3a/bn"
  top: "layer2/inception_3a/double3x3a/bn"
  type: "BatchNorm"
}
layer {
  bottom: "layer2/inception_3a/double3x3a/bn"
  top: "layer2/inception_3a/double3x3a/bn/sc"
  name: "layer2/inception_3a/double3x3a/bn/sc"
  type: "Scale"
  scale_param {
    bias_term: true
  }
}
layer {
  bottom: "layer2/inception_3a/double3x3a/bn/sc"
  top: "layer2/inception_3a/double3x3a/bn/sc"
  name: "layer2/inception_3a/double3x3a/bn/sc/relu"
  type: "ReLU"
}
layer {
 bottom: "layer2/inception_3a/double3x3a/bn/sc"
  top: "layer2/inception_3a/double3x3b"
  name: "layer2/inception_3a/double3x3b"
  type: "Convolution"
  param {
    name: "layer/inception_3a/double3x3b"
    lr_mult: 1
    decay_mult: 1
  }
  convolution_param {
    num_output: 96
    pad: 1
    kernel_size: 3
    stride: 1
    weight_filler {
      type: "xavier"
    }
    bias_term: false
  }
}
layer {
  bottom: "layer2/inception_3a/double3x3b"
  name: "layer2/inception_3a/double3x3b/bn"
  top: "layer2/inception_3a/double3x3b/bn"
  type: "BatchNorm"
}
layer {
  bottom: "layer2/inception_3a/double3x3b/bn"
  top: "layer2/inception_3a/double3x3b/bn/sc"
  name: "layer2/inception_3a/double3x3b/bn/sc"
  type: "Scale"
  scale_param {
    bias_term: true
  }
}
layer {
  bottom: "layer2/inception_3a/double3x3b/bn/sc"
  top: "layer2/inception_3a/double3x3b/bn/sc"
  name: "layer2/inception_3a/double3x3b/bn/sc/relu"
  type: "ReLU"
}
layer {
  bottom: "layer2/pool2/3x3_s2"
  top: "layer2/inception_3a/pool"
  name: "layer2/inception_3a/pool"
  type: "Pooling"
  pooling_param {
    pool: AVE
    kernel_size: 3
    stride: 1
    pad: 1
  }
}
layer {
 bottom: "layer2/inception_3a/pool"
  top: "layer2/inception_3a/pool_proj"
  name: "layer2/inception_3a/pool_proj"
  type: "Convolution"
  param {
    name: "layer/inception_3a/pool_proj"
    lr_mult: 1
    decay_mult: 1
  }
  convolution_param {
    num_output: 32
    pad: 0
    kernel_size: 1
    stride: 1
    weight_filler {
      type: "xavier"
    }
    bias_term: false
  }
}
layer {
  bottom: "layer2/inception_3a/pool_proj"
  name: "layer2/inception_3a/pool_proj/bn"
  top: "layer2/inception_3a/pool_proj/bn"
  type: "BatchNorm"
}
layer {
  bottom: "layer2/inception_3a/pool_proj/bn"
  top: "layer2/inception_3a/pool_proj/bn/sc"
  name: "layer2/inception_3a/pool_proj/bn/sc"
  type: "Scale"
  scale_param {
    bias_term: true
  }
}
layer {
  bottom: "layer2/inception_3a/pool_proj/bn/sc"
  top: "layer2/inception_3a/pool_proj/bn/sc"
  name: "layer2/inception_3a/pool_proj/bn/sc/relu"
  type: "ReLU"
}
layer {
  bottom: "layer2/inception_3a/1x1/bn/sc"
  bottom: "layer2/inception_3a/3x3/bn/sc"
  bottom: "layer2/inception_3a/double3x3b/bn/sc"
  bottom: "layer2/inception_3a/pool_proj/bn/sc"
  top: "layer2/inception_3a/output"
  name: "layer2/inception_3a/output"
  type: "Concat"
}
layer {
 bottom: "layer2/inception_3a/output"
  top: "layer2/inception_3b/1x1"
  name: "layer2/inception_3b/1x1"
  type: "Convolution"
  param {
    name: "layer/inception_3b/1x1"
    lr_mult: 1
    decay_mult: 1
  }
  convolution_param {
    num_output: 64
    pad: 0
    kernel_size: 1
    stride: 1
    weight_filler {
      type: "xavier"
    }
    bias_term: false
  }
}
layer {
  bottom: "layer2/inception_3b/1x1"
  name: "layer2/inception_3b/1x1/bn"
  top: "layer2/inception_3b/1x1/bn"
  type: "BatchNorm"
}
layer {
  bottom: "layer2/inception_3b/1x1/bn"
  top: "layer2/inception_3b/1x1/bn/sc"
  name: "layer2/inception_3b/1x1/bn/sc"
  type: "Scale"
  scale_param {
    bias_term: true
  }
}
layer {
  bottom: "layer2/inception_3b/1x1/bn/sc"
  top: "layer2/inception_3b/1x1/bn/sc"
  name: "layer2/inception_3b/1x1/bn/sc/relu"
  type: "ReLU"
}
layer {
 bottom: "layer2/inception_3a/output"
  top: "layer2/inception_3b/3x3_reduce"
  name: "layer2/inception_3b/3x3_reduce"
  type: "Convolution"
  param {
    name: "layer/inception_3b/3x3_reduce"
    lr_mult: 1
    decay_mult: 1
  }
  convolution_param {
    num_output: 64
    pad: 0
    kernel_size: 1
    stride: 1
    weight_filler {
      type: "xavier"
    }
    bias_term: false
  }
}
layer {
  bottom: "layer2/inception_3b/3x3_reduce"
  name: "layer2/inception_3b/3x3_reduce/bn"
  top: "layer2/inception_3b/3x3_reduce/bn"
  type: "BatchNorm"
}
layer {
  bottom: "layer2/inception_3b/3x3_reduce/bn"
  top: "layer2/inception_3b/3x3_reduce/bn/sc"
  name: "layer2/inception_3b/3x3_reduce/bn/sc"
  type: "Scale"
  scale_param {
    bias_term: true
  }
}
layer {
  bottom: "layer2/inception_3b/3x3_reduce/bn/sc"
  top: "layer2/inception_3b/3x3_reduce/bn/sc"
  name: "layer2/inception_3b/3x3_reduce/bn/sc/relu"
  type: "ReLU"
}
layer {
 bottom: "layer2/inception_3b/3x3_reduce/bn/sc"
  top: "layer2/inception_3b/3x3"
  name: "layer2/inception_3b/3x3"
  type: "Convolution"
  param {
    name: "layer/inception_3b/3x3"
    lr_mult: 1
    decay_mult: 1
  }
  convolution_param {
    num_output: 96
    pad: 1
    kernel_size: 3
    stride: 1
    weight_filler {
      type: "xavier"
    }
    bias_term: false
  }
}
layer {
  bottom: "layer2/inception_3b/3x3"
  name: "layer2/inception_3b/3x3/bn"
  top: "layer2/inception_3b/3x3/bn"
  type: "BatchNorm"
}
layer {
  bottom: "layer2/inception_3b/3x3/bn"
  top: "layer2/inception_3b/3x3/bn/sc"
  name: "layer2/inception_3b/3x3/bn/sc"
  type: "Scale"
  scale_param {
    bias_term: true
  }
}
layer {
  bottom: "layer2/inception_3b/3x3/bn/sc"
  top: "layer2/inception_3b/3x3/bn/sc"
  name: "layer2/inception_3b/3x3/bn/sc/relu"
  type: "ReLU"
}
layer {
 bottom: "layer2/inception_3a/output"
  top: "layer2/inception_3b/double3x3_reduce"
  name: "layer2/inception_3b/double3x3_reduce"
  type: "Convolution"
  param {
    name: "layer/inception_3b/double3x3_reduce"
    lr_mult: 1
    decay_mult: 1
  }
  convolution_param {
    num_output: 64
    pad: 0
    kernel_size: 1
    stride: 1
    weight_filler {
      type: "xavier"
    }
    bias_term: false
  }
}
layer {
  bottom: "layer2/inception_3b/double3x3_reduce"
  name: "layer2/inception_3b/double3x3_reduce/bn"
  top: "layer2/inception_3b/double3x3_reduce/bn"
  type: "BatchNorm"
}
layer {
  bottom: "layer2/inception_3b/double3x3_reduce/bn"
  top: "layer2/inception_3b/double3x3_reduce/bn/sc"
  name: "layer2/inception_3b/double3x3_reduce/bn/sc"
  type: "Scale"
  scale_param {
    bias_term: true
  }
}
layer {
  bottom: "layer2/inception_3b/double3x3_reduce/bn/sc"
  top: "layer2/inception_3b/double3x3_reduce/bn/sc"
  name: "layer2/inception_3b/double3x3_reduce/bn/sc/relu"
  type: "ReLU"
}
layer {
 bottom: "layer2/inception_3b/double3x3_reduce/bn/sc"
  top: "layer2/inception_3b/double3x3a"
  name: "layer2/inception_3b/double3x3a"
  type: "Convolution"
  param {
    name: "layer/inception_3b/double3x3a"
    lr_mult: 1
    decay_mult: 1
  }
  convolution_param {
    num_output: 96
    pad: 1
    kernel_size: 3
    stride: 1
    weight_filler {
      type: "xavier"
    }
    bias_term: false
  }
}
layer {
  bottom: "layer2/inception_3b/double3x3a"
  name: "layer2/inception_3b/double3x3a/bn"
  top: "layer2/inception_3b/double3x3a/bn"
  type: "BatchNorm"
}
layer {
  bottom: "layer2/inception_3b/double3x3a/bn"
  top: "layer2/inception_3b/double3x3a/bn/sc"
  name: "layer2/inception_3b/double3x3a/bn/sc"
  type: "Scale"
  scale_param {
    bias_term: true
  }
}
layer {
  bottom: "layer2/inception_3b/double3x3a/bn/sc"
  top: "layer2/inception_3b/double3x3a/bn/sc"
  name: "layer2/inception_3b/double3x3a/bn/sc/relu"
  type: "ReLU"
}
layer {
 bottom: "layer2/inception_3b/double3x3a/bn/sc"
  top: "layer2/inception_3b/double3x3b"
  name: "layer2/inception_3b/double3x3b"
  type: "Convolution"
  param {
    name: "layer/inception_3b/double3x3b"
    lr_mult: 1
    decay_mult: 1
  }
  convolution_param {
    num_output: 96
    pad: 1
    kernel_size: 3
    stride: 1
    weight_filler {
      type: "xavier"
    }
    bias_term: false
  }
}
layer {
  bottom: "layer2/inception_3b/double3x3b"
  name: "layer2/inception_3b/double3x3b/bn"
  top: "layer2/inception_3b/double3x3b/bn"
  type: "BatchNorm"
}
layer {
  bottom: "layer2/inception_3b/double3x3b/bn"
  top: "layer2/inception_3b/double3x3b/bn/sc"
  name: "layer2/inception_3b/double3x3b/bn/sc"
  type: "Scale"
  scale_param {
    bias_term: true
  }
}
layer {
  bottom: "layer2/inception_3b/double3x3b/bn/sc"
  top: "layer2/inception_3b/double3x3b/bn/sc"
  name: "layer2/inception_3b/double3x3b/bn/sc/relu"
  type: "ReLU"
}
layer {
  bottom: "layer2/inception_3a/output"
  top: "layer2/inception_3b/pool"
  name: "layer2/inception_3b/pool"
  type: "Pooling"
  pooling_param {
    pool: AVE
    kernel_size: 3
    stride: 1
    pad: 1
  }
}
layer {
 bottom: "layer2/inception_3b/pool"
  top: "layer2/inception_3b/pool_proj"
  name: "layer2/inception_3b/pool_proj"
  type: "Convolution"
  param {
    name: "layer/inception_3b/pool_proj"
    lr_mult: 1
    decay_mult: 1
  }
  convolution_param {
    num_output: 64
    pad: 0
    kernel_size: 1
    stride: 1
    weight_filler {
      type: "xavier"
    }
    bias_term: false
  }
}
layer {
  bottom: "layer2/inception_3b/pool_proj"
  name: "layer2/inception_3b/pool_proj/bn"
  top: "layer2/inception_3b/pool_proj/bn"
  type: "BatchNorm"
}
layer {
  bottom: "layer2/inception_3b/pool_proj/bn"
  top: "layer2/inception_3b/pool_proj/bn/sc"
  name: "layer2/inception_3b/pool_proj/bn/sc"
  type: "Scale"
  scale_param {
    bias_term: true
  }
}
layer {
  bottom: "layer2/inception_3b/pool_proj/bn/sc"
  top: "layer2/inception_3b/pool_proj/bn/sc"
  name: "layer2/inception_3b/pool_proj/bn/sc/relu"
  type: "ReLU"
}
layer {
  bottom: "layer2/inception_3b/1x1/bn/sc"
  bottom: "layer2/inception_3b/3x3/bn/sc"
  bottom: "layer2/inception_3b/double3x3b/bn/sc"
  bottom: "layer2/inception_3b/pool_proj/bn/sc"
  top: "layer2/inception_3b/output"
  name: "layer2/inception_3b/output"
  type: "Concat"
}
layer {
 bottom: "layer2/inception_3b/output"
  top: "layer2/inception_3c/3x3_reduce"
  name: "layer2/inception_3c/3x3_reduce"
  type: "Convolution"
  param {
    name: "layer/inception_3c/3x3_reduce"
    lr_mult: 1
    decay_mult: 1
  }
  convolution_param {
    num_output: 128
    pad: 0
    kernel_size: 1
    stride: 1
    weight_filler {
      type: "xavier"
    }
    bias_term: false
  }
}
layer {
  bottom: "layer2/inception_3c/3x3_reduce"
  name: "layer2/inception_3c/3x3_reduce/bn"
  top: "layer2/inception_3c/3x3_reduce/bn"
  type: "BatchNorm"
}
layer {
  bottom: "layer2/inception_3c/3x3_reduce/bn"
  top: "layer2/inception_3c/3x3_reduce/bn/sc"
  name: "layer2/inception_3c/3x3_reduce/bn/sc"
  type: "Scale"
  scale_param {
    bias_term: true
  }
}
layer {
  bottom: "layer2/inception_3c/3x3_reduce/bn/sc"
  top: "layer2/inception_3c/3x3_reduce/bn/sc"
  name: "layer2/inception_3c/3x3_reduce/bn/sc/relu"
  type: "ReLU"
}
layer {
 bottom: "layer2/inception_3c/3x3_reduce/bn/sc"
  top: "layer2/inception_3c/3x3"
  name: "layer2/inception_3c/3x3"
  type: "Convolution"
  param {
    name: "layer/inception_3c/3x3"
    lr_mult: 1
    decay_mult: 1
  }
  convolution_param {
    num_output: 160
    pad: 1
    kernel_size: 3
    stride: 2
    weight_filler {
      type: "xavier"
    }
    bias_term: false
  }
}
layer {
  bottom: "layer2/inception_3c/3x3"
  name: "layer2/inception_3c/3x3/bn"
  top: "layer2/inception_3c/3x3/bn"
  type: "BatchNorm"
}
layer {
  bottom: "layer2/inception_3c/3x3/bn"
  top: "layer2/inception_3c/3x3/bn/sc"
  name: "layer2/inception_3c/3x3/bn/sc"
  type: "Scale"
  scale_param {
    bias_term: true
  }
}
layer {
  bottom: "layer2/inception_3c/3x3/bn/sc"
  top: "layer2/inception_3c/3x3/bn/sc"
  name: "layer2/inception_3c/3x3/bn/sc/relu"
  type: "ReLU"
}
layer {
 bottom: "layer2/inception_3b/output"
  top: "layer2/inception_3c/double3x3_reduce"
  name: "layer2/inception_3c/double3x3_reduce"
  type: "Convolution"
  param {
    name: "layer/inception_3c/double3x3_reduce"
    lr_mult: 1
    decay_mult: 1
  }
  convolution_param {
    num_output: 64
    pad: 0
    kernel_size: 1
    stride: 1
    weight_filler {
      type: "xavier"
    }
    bias_term: false
  }
}
layer {
  bottom: "layer2/inception_3c/double3x3_reduce"
  name: "layer2/inception_3c/double3x3_reduce/bn"
  top: "layer2/inception_3c/double3x3_reduce/bn"
  type: "BatchNorm"
}
layer {
  bottom: "layer2/inception_3c/double3x3_reduce/bn"
  top: "layer2/inception_3c/double3x3_reduce/bn/sc"
  name: "layer2/inception_3c/double3x3_reduce/bn/sc"
  type: "Scale"
  scale_param {
    bias_term: true
  }
}
layer {
  bottom: "layer2/inception_3c/double3x3_reduce/bn/sc"
  top: "layer2/inception_3c/double3x3_reduce/bn/sc"
  name: "layer2/inception_3c/double3x3_reduce/bn/sc/relu"
  type: "ReLU"
}
layer {
 bottom: "layer2/inception_3c/double3x3_reduce/bn/sc"
  top: "layer2/inception_3c/double3x3a"
  name: "layer2/inception_3c/double3x3a"
  type: "Convolution"
  param {
    name: "layer/inception_3c/double3x3a"
    lr_mult: 1
    decay_mult: 1
  }
  convolution_param {
    num_output: 96
    pad: 1
    kernel_size: 3
    stride: 1
    weight_filler {
      type: "xavier"
    }
    bias_term: false
  }
}
layer {
  bottom: "layer2/inception_3c/double3x3a"
  name: "layer2/inception_3c/double3x3a/bn"
  top: "layer2/inception_3c/double3x3a/bn"
  type: "BatchNorm"
}
layer {
  bottom: "layer2/inception_3c/double3x3a/bn"
  top: "layer2/inception_3c/double3x3a/bn/sc"
  name: "layer2/inception_3c/double3x3a/bn/sc"
  type: "Scale"
  scale_param {
    bias_term: true
  }
}
layer {
  bottom: "layer2/inception_3c/double3x3a/bn/sc"
  top: "layer2/inception_3c/double3x3a/bn/sc"
  name: "layer2/inception_3c/double3x3a/bn/sc/relu"
  type: "ReLU"
}
layer {
 bottom: "layer2/inception_3c/double3x3a/bn/sc"
  top: "layer2/inception_3c/double3x3b"
  name: "layer2/inception_3c/double3x3b"
  type: "Convolution"
  param {
    name: "layer/inception_3c/double3x3b"
    lr_mult: 1
    decay_mult: 1
  }
  convolution_param {
    num_output: 96
    pad: 1
    kernel_size: 3
    stride: 2
    weight_filler {
      type: "xavier"
    }
    bias_term: false
  }
}
layer {
  bottom: "layer2/inception_3c/double3x3b"
  name: "layer2/inception_3c/double3x3b/bn"
  top: "layer2/inception_3c/double3x3b/bn"
  type: "BatchNorm"
}
layer {
  bottom: "layer2/inception_3c/double3x3b/bn"
  top: "layer2/inception_3c/double3x3b/bn/sc"
  name: "layer2/inception_3c/double3x3b/bn/sc"
  type: "Scale"
  scale_param {
    bias_term: true
  }
}
layer {
  bottom: "layer2/inception_3c/double3x3b/bn/sc"
  top: "layer2/inception_3c/double3x3b/bn/sc"
  name: "layer2/inception_3c/double3x3b/bn/sc/relu"
  type: "ReLU"
}
layer {
  bottom: "layer2/inception_3b/output"
  top: "layer2/inception_3c/pool"
  name: "layer2/inception_3c/pool"
  type: "Pooling"
  pooling_param {
    pool: MAX
    kernel_size: 3
    stride: 2
  }
}
layer {
  bottom: "layer2/inception_3c/3x3/bn/sc"
  bottom: "layer2/inception_3c/double3x3b/bn/sc"
  bottom: "layer2/inception_3c/pool"
  top: "layer2/inception_3c/output"
  name: "layer2/inception_3c/output"
  type: "Concat"
}





layer {
 bottom: "layer2/inception_3c/output"
  top: "layer2/inception_4a/1x1"
  name: "layer2/inception_4a/1x1"
  type: "Convolution"
  param {
    name: "layer/inception_4a/1x1"
    lr_mult: 1
    decay_mult: 1
  }
  convolution_param {
    num_output: 224
    pad: 0
    kernel_size: 1
    stride: 1
    weight_filler {
      type: "xavier"
    }
    bias_term: false
  }
}
layer {
  bottom: "layer2/inception_4a/1x1"
  name: "layer2/inception_4a/1x1/bn"
  top: "layer2/inception_4a/1x1/bn"
  type: "BatchNorm"
}
layer {
  bottom: "layer2/inception_4a/1x1/bn"
  top: "layer2/inception_4a/1x1/bn/sc"
  name: "layer2/inception_4a/1x1/bn/sc"
  type: "Scale"
  scale_param {
    bias_term: true
  }
}
layer {
  bottom: "layer2/inception_4a/1x1/bn/sc"
  top: "layer2/inception_4a/1x1/bn/sc"
  name: "layer2/inception_4a/1x1/bn/sc/relu"
  type: "ReLU"
}
layer {
 bottom: "layer2/inception_3c/output"
  top: "layer2/inception_4a/3x3_reduce"
  name: "layer2/inception_4a/3x3_reduce"
  type: "Convolution"
  param {
    name: "layer/inception_4a/3x3_reduce"
    lr_mult: 1
    decay_mult: 1
  }
  convolution_param {
    num_output: 64
    pad: 0
    kernel_size: 1
    stride: 1
    weight_filler {
      type: "xavier"
    }
    bias_term: false
  }
}
layer {
  bottom: "layer2/inception_4a/3x3_reduce"
  name: "layer2/inception_4a/3x3_reduce/bn"
  top: "layer2/inception_4a/3x3_reduce/bn"
  type: "BatchNorm"
}
layer {
  bottom: "layer2/inception_4a/3x3_reduce/bn"
  top: "layer2/inception_4a/3x3_reduce/bn/sc"
  name: "layer2/inception_4a/3x3_reduce/bn/sc"
  type: "Scale"
  scale_param {
    bias_term: true
  }
}
layer {
  bottom: "layer2/inception_4a/3x3_reduce/bn/sc"
  top: "layer2/inception_4a/3x3_reduce/bn/sc"
  name: "layer2/inception_4a/3x3_reduce/bn/sc/relu"
  type: "ReLU"
}
layer {
 bottom: "layer2/inception_4a/3x3_reduce/bn/sc"
  top: "layer2/inception_4a/3x3"
  name: "layer2/inception_4a/3x3"
  type: "Convolution"
  param {
    name: "layer/inception_4a/3x3"
    lr_mult: 1
    decay_mult: 1
  }
  convolution_param {
    num_output: 96
    pad: 1
    kernel_size: 3
    stride: 1
    weight_filler {
      type: "xavier"
    }
    bias_term: false
  }
}
layer {
  bottom: "layer2/inception_4a/3x3"
  name: "layer2/inception_4a/3x3/bn"
  top: "layer2/inception_4a/3x3/bn"
  type: "BatchNorm"
}
layer {
  bottom: "layer2/inception_4a/3x3/bn"
  top: "layer2/inception_4a/3x3/bn/sc"
  name: "layer2/inception_4a/3x3/bn/sc"
  type: "Scale"
  scale_param {
    bias_term: true
  }
}
layer {
  bottom: "layer2/inception_4a/3x3/bn/sc"
  top: "layer2/inception_4a/3x3/bn/sc"
  name: "layer2/inception_4a/3x3/bn/sc/relu"
  type: "ReLU"
}
layer {
 bottom: "layer2/inception_3c/output"
  top: "layer2/inception_4a/double3x3_reduce"
  name: "layer2/inception_4a/double3x3_reduce"
  type: "Convolution"
  param {
    name: "layer/inception_4a/double3x3_reduce"
    lr_mult: 1
    decay_mult: 1
  }
  convolution_param {
    num_output: 96
    pad: 0
    kernel_size: 1
    stride: 1
    weight_filler {
      type: "xavier"
    }
    bias_term: false
  }
}
layer {
  bottom: "layer2/inception_4a/double3x3_reduce"
  name: "layer2/inception_4a/double3x3_reduce/bn"
  top: "layer2/inception_4a/double3x3_reduce/bn"
  type: "BatchNorm"
}
layer {
  bottom: "layer2/inception_4a/double3x3_reduce/bn"
  top: "layer2/inception_4a/double3x3_reduce/bn/sc"
  name: "layer2/inception_4a/double3x3_reduce/bn/sc"
  type: "Scale"
  scale_param {
    bias_term: true
  }
}
layer {
  bottom: "layer2/inception_4a/double3x3_reduce/bn/sc"
  top: "layer2/inception_4a/double3x3_reduce/bn/sc"
  name: "layer2/inception_4a/double3x3_reduce/bn/sc/relu"
  type: "ReLU"
}
layer {
 bottom: "layer2/inception_4a/double3x3_reduce/bn/sc"
  top: "layer2/inception_4a/double3x3a"
  name: "layer2/inception_4a/double3x3a"
  type: "Convolution"
  param {
    name: "layer/inception_4a/double3x3a"
    lr_mult: 1
    decay_mult: 1
  }
  convolution_param {
    num_output: 128
    pad: 1
    kernel_size: 3
    stride: 1
    weight_filler {
      type: "xavier"
    }
    bias_term: false
  }
}
layer {
  bottom: "layer2/inception_4a/double3x3a"
  name: "layer2/inception_4a/double3x3a/bn"
  top: "layer2/inception_4a/double3x3a/bn"
  type: "BatchNorm"
}
layer {
  bottom: "layer2/inception_4a/double3x3a/bn"
  top: "layer2/inception_4a/double3x3a/bn/sc"
  name: "layer2/inception_4a/double3x3a/bn/sc"
  type: "Scale"
  scale_param {
    bias_term: true
  }
}
layer {
  bottom: "layer2/inception_4a/double3x3a/bn/sc"
  top: "layer2/inception_4a/double3x3a/bn/sc"
  name: "layer2/inception_4a/double3x3a/bn/sc/relu"
  type: "ReLU"
}
layer {
 bottom: "layer2/inception_4a/double3x3a/bn/sc"
  top: "layer2/inception_4a/double3x3b"
  name: "layer2/inception_4a/double3x3b"
  type: "Convolution"
  param {
    name: "layer/inception_4a/double3x3b"
    lr_mult: 1
    decay_mult: 1
  }
  convolution_param {
    num_output: 128
    pad: 1
    kernel_size: 3
    stride: 1
    weight_filler {
      type: "xavier"
    }
    bias_term: false
  }
}
layer {
  bottom: "layer2/inception_4a/double3x3b"
  name: "layer2/inception_4a/double3x3b/bn"
  top: "layer2/inception_4a/double3x3b/bn"
  type: "BatchNorm"
}
layer {
  bottom: "layer2/inception_4a/double3x3b/bn"
  top: "layer2/inception_4a/double3x3b/bn/sc"
  name: "layer2/inception_4a/double3x3b/bn/sc"
  type: "Scale"
  scale_param {
    bias_term: true
  }
}
layer {
  bottom: "layer2/inception_4a/double3x3b/bn/sc"
  top: "layer2/inception_4a/double3x3b/bn/sc"
  name: "layer2/inception_4a/double3x3b/bn/sc/relu"
  type: "ReLU"
}
layer {
  bottom: "layer2/inception_3c/output"
  top: "layer2/inception_4a/pool"
  name: "layer2/inception_4a/pool"
  type: "Pooling"
  pooling_param {
    pool: AVE
    kernel_size: 3
    stride: 1
    pad: 1
  }
}
layer {
 bottom: "layer2/inception_4a/pool"
  top: "layer2/inception_4a/pool_proj"
  name: "layer2/inception_4a/pool_proj"
  type: "Convolution"
  param {
    name: "layer/inception_4a/pool_proj"
    lr_mult: 1
    decay_mult: 1
  }
  convolution_param {
    num_output: 128
    pad: 0
    kernel_size: 1
    stride: 1
    weight_filler {
      type: "xavier"
    }
    bias_term: false
  }
}
layer {
  bottom: "layer2/inception_4a/pool_proj"
  name: "layer2/inception_4a/pool_proj/bn"
  top: "layer2/inception_4a/pool_proj/bn"
  type: "BatchNorm"
}
layer {
  bottom: "layer2/inception_4a/pool_proj/bn"
  top: "layer2/inception_4a/pool_proj/bn/sc"
  name: "layer2/inception_4a/pool_proj/bn/sc"
  type: "Scale"
  scale_param {
    bias_term: true
  }
}
layer {
  bottom: "layer2/inception_4a/pool_proj/bn/sc"
  top: "layer2/inception_4a/pool_proj/bn/sc"
  name: "layer2/inception_4a/pool_proj/bn/sc/relu"
  type: "ReLU"
}
layer {
  bottom: "layer2/inception_4a/1x1/bn/sc"
  bottom: "layer2/inception_4a/3x3/bn/sc"
  bottom: "layer2/inception_4a/double3x3b/bn/sc"
  bottom: "layer2/inception_4a/pool_proj/bn/sc"
  top: "layer2/inception_4a/output"
  name: "layer2/inception_4a/output"
  type: "Concat"
}
layer {
 bottom: "layer2/inception_4a/output"
  top: "layer2/inception_4b/1x1"
  name: "layer2/inception_4b/1x1"
  type: "Convolution"
  param {
    name: "layer/inception_4b/1x1"
    lr_mult: 1
    decay_mult: 1
  }
  convolution_param {
    num_output: 192
    pad: 0
    kernel_size: 1
    stride: 1
    weight_filler {
      type: "xavier"
    }
    bias_term: false
  }
}
layer {
  bottom: "layer2/inception_4b/1x1"
  name: "layer2/inception_4b/1x1/bn"
  top: "layer2/inception_4b/1x1/bn"
  type: "BatchNorm"
}
layer {
  bottom: "layer2/inception_4b/1x1/bn"
  top: "layer2/inception_4b/1x1/bn/sc"
  name: "layer2/inception_4b/1x1/bn/sc"
  type: "Scale"
  scale_param {
    bias_term: true
  }
}
layer {
  bottom: "layer2/inception_4b/1x1/bn/sc"
  top: "layer2/inception_4b/1x1/bn/sc"
  name: "layer2/inception_4b/1x1/bn/sc/relu"
  type: "ReLU"
}
layer {
 bottom: "layer2/inception_4a/output"
  top: "layer2/inception_4b/3x3_reduce"
  name: "layer2/inception_4b/3x3_reduce"
  type: "Convolution"
  param {
    name: "layer/inception_4b/3x3_reduce"
    lr_mult: 1
    decay_mult: 1
  }
  convolution_param {
    num_output: 96
    pad: 0
    kernel_size: 1
    stride: 1
    weight_filler {
      type: "xavier"
    }
    bias_term: false
  }
}
layer {
  bottom: "layer2/inception_4b/3x3_reduce"
  name: "layer2/inception_4b/3x3_reduce/bn"
  top: "layer2/inception_4b/3x3_reduce/bn"
  type: "BatchNorm"
}
layer {
  bottom: "layer2/inception_4b/3x3_reduce/bn"
  top: "layer2/inception_4b/3x3_reduce/bn/sc"
  name: "layer2/inception_4b/3x3_reduce/bn/sc"
  type: "Scale"
  scale_param {
    bias_term: true
  }
}
layer {
  bottom: "layer2/inception_4b/3x3_reduce/bn/sc"
  top: "layer2/inception_4b/3x3_reduce/bn/sc"
  name: "layer2/inception_4b/3x3_reduce/bn/sc/relu"
  type: "ReLU"
}
layer {
 bottom: "layer2/inception_4b/3x3_reduce/bn/sc"
  top: "layer2/inception_4b/3x3"
  name: "layer2/inception_4b/3x3"
  type: "Convolution"
  param {
    name: "layer/inception_4b/3x3"
    lr_mult: 1
    decay_mult: 1
  }
  convolution_param {
    num_output: 128
    pad: 1
    kernel_size: 3
    stride: 1
    weight_filler {
      type: "xavier"
    }
    bias_term: false
  }
}
layer {
  bottom: "layer2/inception_4b/3x3"
  name: "layer2/inception_4b/3x3/bn"
  top: "layer2/inception_4b/3x3/bn"
  type: "BatchNorm"
}
layer {
  bottom: "layer2/inception_4b/3x3/bn"
  top: "layer2/inception_4b/3x3/bn/sc"
  name: "layer2/inception_4b/3x3/bn/sc"
  type: "Scale"
  scale_param {
    bias_term: true
  }
}
layer {
  bottom: "layer2/inception_4b/3x3/bn/sc"
  top: "layer2/inception_4b/3x3/bn/sc"
  name: "layer2/inception_4b/3x3/bn/sc/relu"
  type: "ReLU"
}
layer {
 bottom: "layer2/inception_4a/output"
  top: "layer2/inception_4b/double3x3_reduce"
  name: "layer2/inception_4b/double3x3_reduce"
  type: "Convolution"
  param {
    name: "layer/inception_4b/double3x3_reduce"
    lr_mult: 1
    decay_mult: 1
  }
  convolution_param {
    num_output: 96
    pad: 0
    kernel_size: 1
    stride: 1
    weight_filler {
      type: "xavier"
    }
    bias_term: false
  }
}
layer {
  bottom: "layer2/inception_4b/double3x3_reduce"
  name: "layer2/inception_4b/double3x3_reduce/bn"
  top: "layer2/inception_4b/double3x3_reduce/bn"
  type: "BatchNorm"
}
layer {
  bottom: "layer2/inception_4b/double3x3_reduce/bn"
  top: "layer2/inception_4b/double3x3_reduce/bn/sc"
  name: "layer2/inception_4b/double3x3_reduce/bn/sc"
  type: "Scale"
  scale_param {
    bias_term: true
  }
}
layer {
  bottom: "layer2/inception_4b/double3x3_reduce/bn/sc"
  top: "layer2/inception_4b/double3x3_reduce/bn/sc"
  name: "layer2/inception_4b/double3x3_reduce/bn/sc/relu"
  type: "ReLU"
}
layer {
 bottom: "layer2/inception_4b/double3x3_reduce/bn/sc"
  top: "layer2/inception_4b/double3x3a"
  name: "layer2/inception_4b/double3x3a"
  type: "Convolution"
  param {
    name: "layer/inception_4b/double3x3a"
    lr_mult: 1
    decay_mult: 1
  }
  convolution_param {
    num_output: 128
    pad: 1
    kernel_size: 3
    stride: 1
    weight_filler {
      type: "xavier"
    }
    bias_term: false
  }
}
layer {
  bottom: "layer2/inception_4b/double3x3a"
  name: "layer2/inception_4b/double3x3a/bn"
  top: "layer2/inception_4b/double3x3a/bn"
  type: "BatchNorm"
}
layer {
  bottom: "layer2/inception_4b/double3x3a/bn"
  top: "layer2/inception_4b/double3x3a/bn/sc"
  name: "layer2/inception_4b/double3x3a/bn/sc"
  type: "Scale"
  scale_param {
    bias_term: true
  }
}
layer {
  bottom: "layer2/inception_4b/double3x3a/bn/sc"
  top: "layer2/inception_4b/double3x3a/bn/sc"
  name: "layer2/inception_4b/double3x3a/bn/sc/relu"
  type: "ReLU"
}
layer {
 bottom: "layer2/inception_4b/double3x3a/bn/sc"
  top: "layer2/inception_4b/double3x3b"
  name: "layer2/inception_4b/double3x3b"
  type: "Convolution"
  param {
    name: "layer/inception_4b/double3x3b"
    lr_mult: 1
    decay_mult: 1
  }
  convolution_param {
    num_output: 128
    pad: 1
    kernel_size: 3
    stride: 1
    weight_filler {
      type: "xavier"
    }
    bias_term: false
  }
}
layer {
  bottom: "layer2/inception_4b/double3x3b"
  name: "layer2/inception_4b/double3x3b/bn"
  top: "layer2/inception_4b/double3x3b/bn"
  type: "BatchNorm"
}
layer {
  bottom: "layer2/inception_4b/double3x3b/bn"
  top: "layer2/inception_4b/double3x3b/bn/sc"
  name: "layer2/inception_4b/double3x3b/bn/sc"
  type: "Scale"
  scale_param {
    bias_term: true
  }
}
layer {
  bottom: "layer2/inception_4b/double3x3b/bn/sc"
  top: "layer2/inception_4b/double3x3b/bn/sc"
  name: "layer2/inception_4b/double3x3b/bn/sc/relu"
  type: "ReLU"
}
layer {
  bottom: "layer2/inception_4a/output"
  top: "layer2/inception_4b/pool"
  name: "layer2/inception_4b/pool"
  type: "Pooling"
  pooling_param {
    pool: AVE
    kernel_size: 3
    stride: 1
    pad: 1
  }
}
layer {
 bottom: "layer2/inception_4b/pool"
  top: "layer2/inception_4b/pool_proj"
  name: "layer2/inception_4b/pool_proj"
  type: "Convolution"
  param {
    name: "layer/inception_4b/pool_proj"
    lr_mult: 1
    decay_mult: 1
  }
  convolution_param {
    num_output: 128
    pad: 0
    kernel_size: 1
    stride: 1
    weight_filler {
      type: "xavier"
    }
    bias_term: false
  }
}
layer {
  bottom: "layer2/inception_4b/pool_proj"
  name: "layer2/inception_4b/pool_proj/bn"
  top: "layer2/inception_4b/pool_proj/bn"
  type: "BatchNorm"
}
layer {
  bottom: "layer2/inception_4b/pool_proj/bn"
  top: "layer2/inception_4b/pool_proj/bn/sc"
  name: "layer2/inception_4b/pool_proj/bn/sc"
  type: "Scale"
  scale_param {
    bias_term: true
  }
}
layer {
  bottom: "layer2/inception_4b/pool_proj/bn/sc"
  top: "layer2/inception_4b/pool_proj/bn/sc"
  name: "layer2/inception_4b/pool_proj/bn/sc/relu"
  type: "ReLU"
}
layer {
  bottom: "layer2/inception_4b/1x1/bn/sc"
  bottom: "layer2/inception_4b/3x3/bn/sc"
  bottom: "layer2/inception_4b/double3x3b/bn/sc"
  bottom: "layer2/inception_4b/pool_proj/bn/sc"
  top: "layer2/inception_4b/output"
  name: "layer2/inception_4b/output"
  type: "Concat"
}
layer {
 bottom: "layer2/inception_4b/output"
  top: "layer2/inception_4c/1x1"
  name: "layer2/inception_4c/1x1"
  type: "Convolution"
  param {
    name: "layer/inception_4c/1x1"
    lr_mult: 1
    decay_mult: 1
  }
  convolution_param {
    num_output: 160
    pad: 0
    kernel_size: 1
    stride: 1
    weight_filler {
      type: "xavier"
    }
    bias_term: false
  }
}
layer {
  bottom: "layer2/inception_4c/1x1"
  name: "layer2/inception_4c/1x1/bn"
  top: "layer2/inception_4c/1x1/bn"
  type: "BatchNorm"
}
layer {
  bottom: "layer2/inception_4c/1x1/bn"
  top: "layer2/inception_4c/1x1/bn/sc"
  name: "layer2/inception_4c/1x1/bn/sc"
  type: "Scale"
  scale_param {
    bias_term: true
  }
}
layer {
  bottom: "layer2/inception_4c/1x1/bn/sc"
  top: "layer2/inception_4c/1x1/bn/sc"
  name: "layer2/inception_4c/1x1/bn/sc/relu"
  type: "ReLU"
}
layer {
 bottom: "layer2/inception_4b/output"
  top: "layer2/inception_4c/3x3_reduce"
  name: "layer2/inception_4c/3x3_reduce"
  type: "Convolution"
  param {
    name: "layer/inception_4c/3x3_reduce"
    lr_mult: 1
    decay_mult: 1
  }
  convolution_param {
    num_output: 128
    pad: 0
    kernel_size: 1
    stride: 1
    weight_filler {
      type: "xavier"
    }
    bias_term: false
  }
}
layer {
  bottom: "layer2/inception_4c/3x3_reduce"
  name: "layer2/inception_4c/3x3_reduce/bn"
  top: "layer2/inception_4c/3x3_reduce/bn"
  type: "BatchNorm"
}
layer {
  bottom: "layer2/inception_4c/3x3_reduce/bn"
  top: "layer2/inception_4c/3x3_reduce/bn/sc"
  name: "layer2/inception_4c/3x3_reduce/bn/sc"
  type: "Scale"
  scale_param {
    bias_term: true
  }
}
layer {
  bottom: "layer2/inception_4c/3x3_reduce/bn/sc"
  top: "layer2/inception_4c/3x3_reduce/bn/sc"
  name: "layer2/inception_4c/3x3_reduce/bn/sc/relu"
  type: "ReLU"
}
layer {
 bottom: "layer2/inception_4c/3x3_reduce/bn/sc"
  top: "layer2/inception_4c/3x3"
  name: "layer2/inception_4c/3x3"
  type: "Convolution"
  param {
    name: "layer/inception_4c/3x3"
    lr_mult: 1
    decay_mult: 1
  }
  convolution_param {
    num_output: 160
    pad: 1
    kernel_size: 3
    stride: 1
    weight_filler {
      type: "xavier"
    }
    bias_term: false
  }
}
layer {
  bottom: "layer2/inception_4c/3x3"
  name: "layer2/inception_4c/3x3/bn"
  top: "layer2/inception_4c/3x3/bn"
  type: "BatchNorm"
}
layer {
  bottom: "layer2/inception_4c/3x3/bn"
  top: "layer2/inception_4c/3x3/bn/sc"
  name: "layer2/inception_4c/3x3/bn/sc"
  type: "Scale"
  scale_param {
    bias_term: true
  }
}
layer {
  bottom: "layer2/inception_4c/3x3/bn/sc"
  top: "layer2/inception_4c/3x3/bn/sc"
  name: "layer2/inception_4c/3x3/bn/sc/relu"
  type: "ReLU"
}
layer {
 bottom: "layer2/inception_4b/output"
  top: "layer2/inception_4c/double3x3_reduce"
  name: "layer2/inception_4c/double3x3_reduce"
  type: "Convolution"
  param {
    name: "layer/inception_4c/double3x3_reduce"
    lr_mult: 1
    decay_mult: 1
  }
  convolution_param {
    num_output: 128
    pad: 0
    kernel_size: 1
    stride: 1
    weight_filler {
      type: "xavier"
    }
    bias_term: false
  }
}
layer {
  bottom: "layer2/inception_4c/double3x3_reduce"
  name: "layer2/inception_4c/double3x3_reduce/bn"
  top: "layer2/inception_4c/double3x3_reduce/bn"
  type: "BatchNorm"
}
layer {
  bottom: "layer2/inception_4c/double3x3_reduce/bn"
  top: "layer2/inception_4c/double3x3_reduce/bn/sc"
  name: "layer2/inception_4c/double3x3_reduce/bn/sc"
  type: "Scale"
  scale_param {
    bias_term: true
  }
}
layer {
  bottom: "layer2/inception_4c/double3x3_reduce/bn/sc"
  top: "layer2/inception_4c/double3x3_reduce/bn/sc"
  name: "layer2/inception_4c/double3x3_reduce/bn/sc/relu"
  type: "ReLU"
}
layer {
 bottom: "layer2/inception_4c/double3x3_reduce/bn/sc"
  top: "layer2/inception_4c/double3x3a"
  name: "layer2/inception_4c/double3x3a"
  type: "Convolution"
  param {
    name: "layer/inception_4c/double3x3a"
    lr_mult: 1
    decay_mult: 1
  }
  convolution_param {
    num_output: 160
    pad: 1
    kernel_size: 3
    stride: 1
    weight_filler {
      type: "xavier"
    }
    bias_term: false
  }
}
layer {
  bottom: "layer2/inception_4c/double3x3a"
  name: "layer2/inception_4c/double3x3a/bn"
  top: "layer2/inception_4c/double3x3a/bn"
  type: "BatchNorm"
}
layer {
  bottom: "layer2/inception_4c/double3x3a/bn"
  top: "layer2/inception_4c/double3x3a/bn/sc"
  name: "layer2/inception_4c/double3x3a/bn/sc"
  type: "Scale"
  scale_param {
    bias_term: true
  }
}
layer {
  bottom: "layer2/inception_4c/double3x3a/bn/sc"
  top: "layer2/inception_4c/double3x3a/bn/sc"
  name: "layer2/inception_4c/double3x3a/bn/sc/relu"
  type: "ReLU"
}
layer {
 bottom: "layer2/inception_4c/double3x3a/bn/sc"
  top: "layer2/inception_4c/double3x3b"
  name: "layer2/inception_4c/double3x3b"
  type: "Convolution"
  param {
    name: "layer/inception_4c/double3x3b"
    lr_mult: 1
    decay_mult: 1
  }
  convolution_param {
    num_output: 160
    pad: 1
    kernel_size: 3
    stride: 1
    weight_filler {
      type: "xavier"
    }
    bias_term: false
  }
}
layer {
  bottom: "layer2/inception_4c/double3x3b"
  name: "layer2/inception_4c/double3x3b/bn"
  top: "layer2/inception_4c/double3x3b/bn"
  type: "BatchNorm"
}
layer {
  bottom: "layer2/inception_4c/double3x3b/bn"
  top: "layer2/inception_4c/double3x3b/bn/sc"
  name: "layer2/inception_4c/double3x3b/bn/sc"
  type: "Scale"
  scale_param {
    bias_term: true
  }
}
layer {
  bottom: "layer2/inception_4c/double3x3b/bn/sc"
  top: "layer2/inception_4c/double3x3b/bn/sc"
  name: "layer2/inception_4c/double3x3b/bn/sc/relu"
  type: "ReLU"
}
layer {
  bottom: "layer2/inception_4b/output"
  top: "layer2/inception_4c/pool"
  name: "layer2/inception_4c/pool"
  type: "Pooling"
  pooling_param {
    pool: AVE
    kernel_size: 3
    stride: 1
    pad: 1
  }
}
layer {
 bottom: "layer2/inception_4c/pool"
  top: "layer2/inception_4c/pool_proj"
  name: "layer2/inception_4c/pool_proj"
  type: "Convolution"
  param {
    name: "layer/inception_4c/pool_proj"
    lr_mult: 1
    decay_mult: 1
  }
  convolution_param {
    num_output: 96
    pad: 0
    kernel_size: 1
    stride: 1
    weight_filler {
      type: "xavier"
    }
    bias_term: false
  }
}
layer {
  bottom: "layer2/inception_4c/pool_proj"
  name: "layer2/inception_4c/pool_proj/bn"
  top: "layer2/inception_4c/pool_proj/bn"
  type: "BatchNorm"
}
layer {
  bottom: "layer2/inception_4c/pool_proj/bn"
  top: "layer2/inception_4c/pool_proj/bn/sc"
  name: "layer2/inception_4c/pool_proj/bn/sc"
  type: "Scale"
  scale_param {
    bias_term: true
  }
}
layer {
  bottom: "layer2/inception_4c/pool_proj/bn/sc"
  top: "layer2/inception_4c/pool_proj/bn/sc"
  name: "layer2/inception_4c/pool_proj/bn/sc/relu"
  type: "ReLU"
}
layer {
  bottom: "layer2/inception_4c/1x1/bn/sc"
  bottom: "layer2/inception_4c/3x3/bn/sc"
  bottom: "layer2/inception_4c/double3x3b/bn/sc"
  bottom: "layer2/inception_4c/pool_proj/bn/sc"
  top: "layer2/inception_4c/output"
  name: "layer2/inception_4c/output"
  type: "Concat"
}
layer {
 bottom: "layer2/inception_4c/output"
  top: "layer2/inception_4d/1x1"
  name: "layer2/inception_4d/1x1"
  type: "Convolution"
  param {
    name: "layer/inception_4d/1x1"
    lr_mult: 1
    decay_mult: 1
  }
  convolution_param {
    num_output: 96
    pad: 0
    kernel_size: 1
    stride: 1
    weight_filler {
      type: "xavier"
    }
    bias_term: false
  }
}
layer {
  bottom: "layer2/inception_4d/1x1"
  name: "layer2/inception_4d/1x1/bn"
  top: "layer2/inception_4d/1x1/bn"
  type: "BatchNorm"
}
layer {
  bottom: "layer2/inception_4d/1x1/bn"
  top: "layer2/inception_4d/1x1/bn/sc"
  name: "layer2/inception_4d/1x1/bn/sc"
  type: "Scale"
  scale_param {
    bias_term: true
  }
}
layer {
  bottom: "layer2/inception_4d/1x1/bn/sc"
  top: "layer2/inception_4d/1x1/bn/sc"
  name: "layer2/inception_4d/1x1/bn/sc/relu"
  type: "ReLU"
}
layer {
 bottom: "layer2/inception_4c/output"
  top: "layer2/inception_4d/3x3_reduce"
  name: "layer2/inception_4d/3x3_reduce"
  type: "Convolution"
  param {
    name: "layer/inception_4d/3x3_reduce"
    lr_mult: 1
    decay_mult: 1
  }
  convolution_param {
    num_output: 128
    pad: 0
    kernel_size: 1
    stride: 1
    weight_filler {
      type: "xavier"
    }
    bias_term: false
  }
}
layer {
  bottom: "layer2/inception_4d/3x3_reduce"
  name: "layer2/inception_4d/3x3_reduce/bn"
  top: "layer2/inception_4d/3x3_reduce/bn"
  type: "BatchNorm"
}
layer {
  bottom: "layer2/inception_4d/3x3_reduce/bn"
  top: "layer2/inception_4d/3x3_reduce/bn/sc"
  name: "layer2/inception_4d/3x3_reduce/bn/sc"
  type: "Scale"
  scale_param {
    bias_term: true
  }
}
layer {
  bottom: "layer2/inception_4d/3x3_reduce/bn/sc"
  top: "layer2/inception_4d/3x3_reduce/bn/sc"
  name: "layer2/inception_4d/3x3_reduce/bn/sc/relu"
  type: "ReLU"
}
layer {
 bottom: "layer2/inception_4d/3x3_reduce/bn/sc"
  top: "layer2/inception_4d/3x3"
  name: "layer2/inception_4d/3x3"
  type: "Convolution"
  param {
    name: "layer/inception_4d/3x3"
    lr_mult: 1
    decay_mult: 1
  }
  convolution_param {
    num_output: 192
    pad: 1
    kernel_size: 3
    stride: 1
    weight_filler {
      type: "xavier"
    }
    bias_term: false
  }
}
layer {
  bottom: "layer2/inception_4d/3x3"
  name: "layer2/inception_4d/3x3/bn"
  top: "layer2/inception_4d/3x3/bn"
  type: "BatchNorm"
}
layer {
  bottom: "layer2/inception_4d/3x3/bn"
  top: "layer2/inception_4d/3x3/bn/sc"
  name: "layer2/inception_4d/3x3/bn/sc"
  type: "Scale"
  scale_param {
    bias_term: true
  }
}
layer {
  bottom: "layer2/inception_4d/3x3/bn/sc"
  top: "layer2/inception_4d/3x3/bn/sc"
  name: "layer2/inception_4d/3x3/bn/sc/relu"
  type: "ReLU"
}
layer {
 bottom: "layer2/inception_4c/output"
  top: "layer2/inception_4d/double3x3_reduce"
  name: "layer2/inception_4d/double3x3_reduce"
  type: "Convolution"
  param {
    name: "layer/inception_4d/double3x3_reduce"
    lr_mult: 1
    decay_mult: 1
  }
  convolution_param {
    num_output: 160
    pad: 0
    kernel_size: 1
    stride: 1
    weight_filler {
      type: "xavier"
    }
    bias_term: false
  }
}
layer {
  bottom: "layer2/inception_4d/double3x3_reduce"
  name: "layer2/inception_4d/double3x3_reduce/bn"
  top: "layer2/inception_4d/double3x3_reduce/bn"
  type: "BatchNorm"
}
layer {
  bottom: "layer2/inception_4d/double3x3_reduce/bn"
  top: "layer2/inception_4d/double3x3_reduce/bn/sc"
  name: "layer2/inception_4d/double3x3_reduce/bn/sc"
  type: "Scale"
  scale_param {
    bias_term: true
  }
}
layer {
  bottom: "layer2/inception_4d/double3x3_reduce/bn/sc"
  top: "layer2/inception_4d/double3x3_reduce/bn/sc"
  name: "layer2/inception_4d/double3x3_reduce/bn/sc/relu"
  type: "ReLU"
}
layer {
 bottom: "layer2/inception_4d/double3x3_reduce/bn/sc"
  top: "layer2/inception_4d/double3x3a"
  name: "layer2/inception_4d/double3x3a"
  type: "Convolution"
  param {
    name: "layer/inception_4d/double3x3a"
    lr_mult: 1
    decay_mult: 1
  }
  convolution_param {
    num_output: 192
    pad: 1
    kernel_size: 3
    stride: 1
    weight_filler {
      type: "xavier"
    }
    bias_term: false
  }
}
layer {
  bottom: "layer2/inception_4d/double3x3a"
  name: "layer2/inception_4d/double3x3a/bn"
  top: "layer2/inception_4d/double3x3a/bn"
  type: "BatchNorm"
}
layer {
  bottom: "layer2/inception_4d/double3x3a/bn"
  top: "layer2/inception_4d/double3x3a/bn/sc"
  name: "layer2/inception_4d/double3x3a/bn/sc"
  type: "Scale"
  scale_param {
    bias_term: true
  }
}
layer {
  bottom: "layer2/inception_4d/double3x3a/bn/sc"
  top: "layer2/inception_4d/double3x3a/bn/sc"
  name: "layer2/inception_4d/double3x3a/bn/sc/relu"
  type: "ReLU"
}
layer {
 bottom: "layer2/inception_4d/double3x3a/bn/sc"
  top: "layer2/inception_4d/double3x3b"
  name: "layer2/inception_4d/double3x3b"
  type: "Convolution"
  param {
    name: "layer/inception_4d/double3x3b"
    lr_mult: 1
    decay_mult: 1
  }
  convolution_param {
    num_output: 192
    pad: 1
    kernel_size: 3
    stride: 1
    weight_filler {
      type: "xavier"
    }
    bias_term: false
  }
}
layer {
  bottom: "layer2/inception_4d/double3x3b"
  name: "layer2/inception_4d/double3x3b/bn"
  top: "layer2/inception_4d/double3x3b/bn"
  type: "BatchNorm"
}
layer {
  bottom: "layer2/inception_4d/double3x3b/bn"
  top: "layer2/inception_4d/double3x3b/bn/sc"
  name: "layer2/inception_4d/double3x3b/bn/sc"
  type: "Scale"
  scale_param {
    bias_term: true
  }
}
layer {
  bottom: "layer2/inception_4d/double3x3b/bn/sc"
  top: "layer2/inception_4d/double3x3b/bn/sc"
  name: "layer2/inception_4d/double3x3b/bn/sc/relu"
  type: "ReLU"
}
layer {
  bottom: "layer2/inception_4c/output"
  top: "layer2/inception_4d/pool"
  name: "layer2/inception_4d/pool"
  type: "Pooling"
  pooling_param {
    pool: AVE
    kernel_size: 3
    stride: 1
    pad: 1
  }
}
layer {
 bottom: "layer2/inception_4d/pool"
  top: "layer2/inception_4d/pool_proj"
  name: "layer2/inception_4d/pool_proj"
  type: "Convolution"
  param {
    name: "layer/inception_4d/pool_proj"
    lr_mult: 1
    decay_mult: 1
  }
  convolution_param {
    num_output: 96
    pad: 0
    kernel_size: 1
    stride: 1
    weight_filler {
      type: "xavier"
    }
    bias_term: false
  }
}
layer {
  bottom: "layer2/inception_4d/pool_proj"
  name: "layer2/inception_4d/pool_proj/bn"
  top: "layer2/inception_4d/pool_proj/bn"
  type: "BatchNorm"
}
layer {
  bottom: "layer2/inception_4d/pool_proj/bn"
  top: "layer2/inception_4d/pool_proj/bn/sc"
  name: "layer2/inception_4d/pool_proj/bn/sc"
  type: "Scale"
  scale_param {
    bias_term: true
  }
}
layer {
  bottom: "layer2/inception_4d/pool_proj/bn/sc"
  top: "layer2/inception_4d/pool_proj/bn/sc"
  name: "layer2/inception_4d/pool_proj/bn/sc/relu"
  type: "ReLU"
}
layer {
  bottom: "layer2/inception_4d/1x1/bn/sc"
  bottom: "layer2/inception_4d/3x3/bn/sc"
  bottom: "layer2/inception_4d/double3x3b/bn/sc"
  bottom: "layer2/inception_4d/pool_proj/bn/sc"
  top: "layer2/inception_4d/output"
  name: "layer2/inception_4d/output"
  type: "Concat"
}
layer {
 bottom: "layer2/inception_4d/output"
  top: "layer2/inception_4e/3x3_reduce"
  name: "layer2/inception_4e/3x3_reduce"
  type: "Convolution"
  param {
    name: "layer/inception_4e/3x3_reduce"
    lr_mult: 1
    decay_mult: 1
  }
  convolution_param {
    num_output: 128
    pad: 0
    kernel_size: 1
    stride: 1
    weight_filler {
      type: "xavier"
    }
    bias_term: false
  }
}
layer {
  bottom: "layer2/inception_4e/3x3_reduce"
  name: "layer2/inception_4e/3x3_reduce/bn"
  top: "layer2/inception_4e/3x3_reduce/bn"
  type: "BatchNorm"
}
layer {
  bottom: "layer2/inception_4e/3x3_reduce/bn"
  top: "layer2/inception_4e/3x3_reduce/bn/sc"
  name: "layer2/inception_4e/3x3_reduce/bn/sc"
  type: "Scale"
  scale_param {
    bias_term: true
  }
}
layer {
  bottom: "layer2/inception_4e/3x3_reduce/bn/sc"
  top: "layer2/inception_4e/3x3_reduce/bn/sc"
  name: "layer2/inception_4e/3x3_reduce/bn/sc/relu"
  type: "ReLU"
}
layer {
 bottom: "layer2/inception_4e/3x3_reduce/bn/sc"
  top: "layer2/inception_4e/3x3"
  name: "layer2/inception_4e/3x3"
  type: "Convolution"
  param {
    name: "layer/inception_4e/3x3"
    lr_mult: 1
    decay_mult: 1
  }
  convolution_param {
    num_output: 192
    pad: 1
    kernel_size: 3
    stride: 2
    weight_filler {
      type: "xavier"
    }
    bias_term: false
  }
}
layer {
  bottom: "layer2/inception_4e/3x3"
  name: "layer2/inception_4e/3x3/bn"
  top: "layer2/inception_4e/3x3/bn"
  type: "BatchNorm"
}
layer {
  bottom: "layer2/inception_4e/3x3/bn"
  top: "layer2/inception_4e/3x3/bn/sc"
  name: "layer2/inception_4e/3x3/bn/sc"
  type: "Scale"
  scale_param {
    bias_term: true
  }
}
layer {
  bottom: "layer2/inception_4e/3x3/bn/sc"
  top: "layer2/inception_4e/3x3/bn/sc"
  name: "layer2/inception_4e/3x3/bn/sc/relu"
  type: "ReLU"
}
layer {
 bottom: "layer2/inception_4d/output"
  top: "layer2/inception_4e/double3x3_reduce"
  name: "layer2/inception_4e/double3x3_reduce"
  type: "Convolution"
  param {
    name: "layer/inception_4e/double3x3_reduce"
    lr_mult: 1
    decay_mult: 1
  }
  convolution_param {
    num_output: 192
    pad: 0
    kernel_size: 1
    stride: 1
    weight_filler {
      type: "xavier"
    }
    bias_term: false
  }
}
layer {
  bottom: "layer2/inception_4e/double3x3_reduce"
  name: "layer2/inception_4e/double3x3_reduce/bn"
  top: "layer2/inception_4e/double3x3_reduce/bn"
  type: "BatchNorm"
}
layer {
  bottom: "layer2/inception_4e/double3x3_reduce/bn"
  top: "layer2/inception_4e/double3x3_reduce/bn/sc"
  name: "layer2/inception_4e/double3x3_reduce/bn/sc"
  type: "Scale"
  scale_param {
    bias_term: true
  }
}
layer {
  bottom: "layer2/inception_4e/double3x3_reduce/bn/sc"
  top: "layer2/inception_4e/double3x3_reduce/bn/sc"
  name: "layer2/inception_4e/double3x3_reduce/bn/sc/relu"
  type: "ReLU"
}
layer {
 bottom: "layer2/inception_4e/double3x3_reduce/bn/sc"
  top: "layer2/inception_4e/double3x3a"
  name: "layer2/inception_4e/double3x3a"
  type: "Convolution"
  param {
    name: "layer/inception_4e/double3x3a"
    lr_mult: 1
    decay_mult: 1
  }
  convolution_param {
    num_output: 256
    pad: 1
    kernel_size: 3
    stride: 1
    weight_filler {
      type: "xavier"
    }
    bias_term: false
  }
}
layer {
  bottom: "layer2/inception_4e/double3x3a"
  name: "layer2/inception_4e/double3x3a/bn"
  top: "layer2/inception_4e/double3x3a/bn"
  type: "BatchNorm"
}
layer {
  bottom: "layer2/inception_4e/double3x3a/bn"
  top: "layer2/inception_4e/double3x3a/bn/sc"
  name: "layer2/inception_4e/double3x3a/bn/sc"
  type: "Scale"
  scale_param {
    bias_term: true
  }
}
layer {
  bottom: "layer2/inception_4e/double3x3a/bn/sc"
  top: "layer2/inception_4e/double3x3a/bn/sc"
  name: "layer2/inception_4e/double3x3a/bn/sc/relu"
  type: "ReLU"
}
layer {
 bottom: "layer2/inception_4e/double3x3a/bn/sc"
  top: "layer2/inception_4e/double3x3b"
  name: "layer2/inception_4e/double3x3b"
  type: "Convolution"
  param {
    name: "layer/inception_4e/double3x3b"
    lr_mult: 1
    decay_mult: 1
  }
  convolution_param {
    num_output: 256
    pad: 1
    kernel_size: 3
    stride: 2
    weight_filler {
      type: "xavier"
    }
    bias_term: false
  }
}
layer {
  bottom: "layer2/inception_4e/double3x3b"
  name: "layer2/inception_4e/double3x3b/bn"
  top: "layer2/inception_4e/double3x3b/bn"
  type: "BatchNorm"
}
layer {
  bottom: "layer2/inception_4e/double3x3b/bn"
  top: "layer2/inception_4e/double3x3b/bn/sc"
  name: "layer2/inception_4e/double3x3b/bn/sc"
  type: "Scale"
  scale_param {
    bias_term: true
  }
}
layer {
  bottom: "layer2/inception_4e/double3x3b/bn/sc"
  top: "layer2/inception_4e/double3x3b/bn/sc"
  name: "layer2/inception_4e/double3x3b/bn/sc/relu"
  type: "ReLU"
}
layer {
  bottom: "layer2/inception_4d/output"
  top: "layer2/inception_4e/pool"
  name: "layer2/inception_4e/pool"
  type: "Pooling"
  pooling_param {
    pool: MAX
    kernel_size: 3
    stride: 2
  }
}
layer {
  bottom: "layer2/inception_4e/3x3/bn/sc"
  bottom: "layer2/inception_4e/double3x3b/bn/sc"
  bottom: "layer2/inception_4e/pool"
  top: "layer2/inception_4e/output"
  name: "layer2/inception_4e/output"
  type: "Concat"
}


layer {
 bottom: "layer2/inception_4e/output"
  top: "layer2/inception_5a/1x1"
  name: "layer2/inception_5a/1x1"
  type: "Convolution"
  param {
    name: "layer/inception_5a/1x1"
    lr_mult: 1
    decay_mult: 1
  }
  convolution_param {
    num_output: 352
    pad: 0
    kernel_size: 1
    stride: 1
    weight_filler {
      type: "xavier"
    }
    bias_term: false
  }
}
layer {
  bottom: "layer2/inception_5a/1x1"
  name: "layer2/inception_5a/1x1/bn"
  top: "layer2/inception_5a/1x1/bn"
  type: "BatchNorm"
}
layer {
  bottom: "layer2/inception_5a/1x1/bn"
  top: "layer2/inception_5a/1x1/bn/sc"
  name: "layer2/inception_5a/1x1/bn/sc"
  type: "Scale"
  scale_param {
    bias_term: true
  }
}
layer {
  bottom: "layer2/inception_5a/1x1/bn/sc"
  top: "layer2/inception_5a/1x1/bn/sc"
  name: "layer2/inception_5a/1x1/bn/sc/relu"
  type: "ReLU"
}
layer {
 bottom: "layer2/inception_4e/output"
  top: "layer2/inception_5a/3x3_reduce"
  name: "layer2/inception_5a/3x3_reduce"
  type: "Convolution"
  param {
    name: "layer/inception_5a/3x3_reduce"
    lr_mult: 1
    decay_mult: 1
  }
  convolution_param {
    num_output: 192
    pad: 0
    kernel_size: 1
    stride: 1
    weight_filler {
      type: "xavier"
    }
    bias_term: false
  }
}
layer {
  bottom: "layer2/inception_5a/3x3_reduce"
  name: "layer2/inception_5a/3x3_reduce/bn"
  top: "layer2/inception_5a/3x3_reduce/bn"
  type: "BatchNorm"
}
layer {
  bottom: "layer2/inception_5a/3x3_reduce/bn"
  top: "layer2/inception_5a/3x3_reduce/bn/sc"
  name: "layer2/inception_5a/3x3_reduce/bn/sc"
  type: "Scale"
  scale_param {
    bias_term: true
  }
}
layer {
  bottom: "layer2/inception_5a/3x3_reduce/bn/sc"
  top: "layer2/inception_5a/3x3_reduce/bn/sc"
  name: "layer2/inception_5a/3x3_reduce/bn/sc/relu"
  type: "ReLU"
}
layer {
 bottom: "layer2/inception_5a/3x3_reduce/bn/sc"
  top: "layer2/inception_5a/3x3"
  name: "layer2/inception_5a/3x3"
  type: "Convolution"
  param {
    name: "layer/inception_5a/3x3"
    lr_mult: 1
    decay_mult: 1
  }
  convolution_param {
    num_output: 320
    pad: 1
    kernel_size: 3
    stride: 1
    weight_filler {
      type: "xavier"
    }
    bias_term: false
  }
}
layer {
  bottom: "layer2/inception_5a/3x3"
  name: "layer2/inception_5a/3x3/bn"
  top: "layer2/inception_5a/3x3/bn"
  type: "BatchNorm"
}
layer {
  bottom: "layer2/inception_5a/3x3/bn"
  top: "layer2/inception_5a/3x3/bn/sc"
  name: "layer2/inception_5a/3x3/bn/sc"
  type: "Scale"
  scale_param {
    bias_term: true
  }
}
layer {
  bottom: "layer2/inception_5a/3x3/bn/sc"
  top: "layer2/inception_5a/3x3/bn/sc"
  name: "layer2/inception_5a/3x3/bn/sc/relu"
  type: "ReLU"
}
layer {
 bottom: "layer2/inception_4e/output"
  top: "layer2/inception_5a/double3x3_reduce"
  name: "layer2/inception_5a/double3x3_reduce"
  type: "Convolution"
  param {
    name: "layer/inception_5a/double3x3_reduce"
    lr_mult: 1
    decay_mult: 1
  }
  convolution_param {
    num_output: 160
    pad: 0
    kernel_size: 1
    stride: 1
    weight_filler {
      type: "xavier"
    }
    bias_term: false
  }
}
layer {
  bottom: "layer2/inception_5a/double3x3_reduce"
  name: "layer2/inception_5a/double3x3_reduce/bn"
  top: "layer2/inception_5a/double3x3_reduce/bn"
  type: "BatchNorm"
}
layer {
  bottom: "layer2/inception_5a/double3x3_reduce/bn"
  top: "layer2/inception_5a/double3x3_reduce/bn/sc"
  name: "layer2/inception_5a/double3x3_reduce/bn/sc"
  type: "Scale"
  scale_param {
    bias_term: true
  }
}
layer {
  bottom: "layer2/inception_5a/double3x3_reduce/bn/sc"
  top: "layer2/inception_5a/double3x3_reduce/bn/sc"
  name: "layer2/inception_5a/double3x3_reduce/bn/sc/relu"
  type: "ReLU"
}
layer {
 bottom: "layer2/inception_5a/double3x3_reduce/bn/sc"
  top: "layer2/inception_5a/double3x3a"
  name: "layer2/inception_5a/double3x3a"
  type: "Convolution"
  param {
    name: "layer/inception_5a/double3x3a"
    lr_mult: 1
    decay_mult: 1
  }
  convolution_param {
    num_output: 224
    pad: 1
    kernel_size: 3
    stride: 1
    weight_filler {
      type: "xavier"
    }
    bias_term: false
  }
}
layer {
  bottom: "layer2/inception_5a/double3x3a"
  name: "layer2/inception_5a/double3x3a/bn"
  top: "layer2/inception_5a/double3x3a/bn"
  type: "BatchNorm"
}
layer {
  bottom: "layer2/inception_5a/double3x3a/bn"
  top: "layer2/inception_5a/double3x3a/bn/sc"
  name: "layer2/inception_5a/double3x3a/bn/sc"
  type: "Scale"
  scale_param {
    bias_term: true
  }
}
layer {
  bottom: "layer2/inception_5a/double3x3a/bn/sc"
  top: "layer2/inception_5a/double3x3a/bn/sc"
  name: "layer2/inception_5a/double3x3a/bn/sc/relu"
  type: "ReLU"
}
layer {
 bottom: "layer2/inception_5a/double3x3a/bn/sc"
  top: "layer2/inception_5a/double3x3b"
  name: "layer2/inception_5a/double3x3b"
  type: "Convolution"
  param {
    name: "layer/inception_5a/double3x3b"
    lr_mult: 1
    decay_mult: 1
  }
  convolution_param {
    num_output: 224
    pad: 1
    kernel_size: 3
    stride: 1
    weight_filler {
      type: "xavier"
    }
    bias_term: false
  }
}
layer {
  bottom: "layer2/inception_5a/double3x3b"
  name: "layer2/inception_5a/double3x3b/bn"
  top: "layer2/inception_5a/double3x3b/bn"
  type: "BatchNorm"
}
layer {
  bottom: "layer2/inception_5a/double3x3b/bn"
  top: "layer2/inception_5a/double3x3b/bn/sc"
  name: "layer2/inception_5a/double3x3b/bn/sc"
  type: "Scale"
  scale_param {
    bias_term: true
  }
}
layer {
  bottom: "layer2/inception_5a/double3x3b/bn/sc"
  top: "layer2/inception_5a/double3x3b/bn/sc"
  name: "layer2/inception_5a/double3x3b/bn/sc/relu"
  type: "ReLU"
}
layer {
  bottom: "layer2/inception_4e/output"
  top: "layer2/inception_5a/pool"
  name: "layer2/inception_5a/pool"
  type: "Pooling"
  pooling_param {
    pool: AVE
    kernel_size: 3
    stride: 1
    pad: 1
  }
}
layer {
 bottom: "layer2/inception_5a/pool"
  top: "layer2/inception_5a/pool_proj"
  name: "layer2/inception_5a/pool_proj"
  type: "Convolution"
  param {
    name: "layer/inception_5a/pool_proj"
    lr_mult: 1
    decay_mult: 1
  }
  convolution_param {
    num_output: 128
    pad: 0
    kernel_size: 1
    stride: 1
    weight_filler {
      type: "xavier"
    }
    bias_term: false
  }
}
layer {
  bottom: "layer2/inception_5a/pool_proj"
  name: "layer2/inception_5a/pool_proj/bn"
  top: "layer2/inception_5a/pool_proj/bn"
  type: "BatchNorm"
}
layer {
  bottom: "layer2/inception_5a/pool_proj/bn"
  top: "layer2/inception_5a/pool_proj/bn/sc"
  name: "layer2/inception_5a/pool_proj/bn/sc"
  type: "Scale"
  scale_param {
    bias_term: true
  }
}
layer {
  bottom: "layer2/inception_5a/pool_proj/bn/sc"
  top: "layer2/inception_5a/pool_proj/bn/sc"
  name: "layer2/inception_5a/pool_proj/bn/sc/relu"
  type: "ReLU"
}
layer {
  bottom: "layer2/inception_5a/1x1/bn/sc"
  bottom: "layer2/inception_5a/3x3/bn/sc"
  bottom: "layer2/inception_5a/double3x3b/bn/sc"
  bottom: "layer2/inception_5a/pool_proj/bn/sc"
  top: "layer2/inception_5a/output"
  name: "layer2/inception_5a/output"
  type: "Concat"
}
layer {
 bottom: "layer2/inception_5a/output"
  top: "layer2/inception_5b/1x1"
  name: "layer2/inception_5b/1x1"
  type: "Convolution"
  param {
    name: "layer/inception_5b/1x1"
    lr_mult: 1
    decay_mult: 1
  }
  convolution_param {
    num_output: 352
    pad: 0
    kernel_size: 1
    stride: 1
    weight_filler {
      type: "xavier"
    }
    bias_term: false
  }
}
layer {
  bottom: "layer2/inception_5b/1x1"
  name: "layer2/inception_5b/1x1/bn"
  top: "layer2/inception_5b/1x1/bn"
  type: "BatchNorm"
}
layer {
  bottom: "layer2/inception_5b/1x1/bn"
  top: "layer2/inception_5b/1x1/bn/sc"
  name: "layer2/inception_5b/1x1/bn/sc"
  type: "Scale"
  scale_param {
    bias_term: true
  }
}
layer {
  bottom: "layer2/inception_5b/1x1/bn/sc"
  top: "layer2/inception_5b/1x1/bn/sc"
  name: "layer2/inception_5b/1x1/bn/sc/relu"
  type: "ReLU"
}
layer {
 bottom: "layer2/inception_5a/output"
  top: "layer2/inception_5b/3x3_reduce"
  name: "layer2/inception_5b/3x3_reduce"
  type: "Convolution"
  param {
    name: "layer/inception_5b/3x3_reduce"
    lr_mult: 1
    decay_mult: 1
  }
  convolution_param {
    num_output: 192
    pad: 0
    kernel_size: 1
    stride: 1
    weight_filler {
      type: "xavier"
    }
    bias_term: false
  }
}
layer {
  bottom: "layer2/inception_5b/3x3_reduce"
  name: "layer2/inception_5b/3x3_reduce/bn"
  top: "layer2/inception_5b/3x3_reduce/bn"
  type: "BatchNorm"
}
layer {
  bottom: "layer2/inception_5b/3x3_reduce/bn"
  top: "layer2/inception_5b/3x3_reduce/bn/sc"
  name: "layer2/inception_5b/3x3_reduce/bn/sc"
  type: "Scale"
  scale_param {
    bias_term: true
  }
}
layer {
  bottom: "layer2/inception_5b/3x3_reduce/bn/sc"
  top: "layer2/inception_5b/3x3_reduce/bn/sc"
  name: "layer2/inception_5b/3x3_reduce/bn/sc/relu"
  type: "ReLU"
}
layer {
 bottom: "layer2/inception_5b/3x3_reduce/bn/sc"
  top: "layer2/inception_5b/3x3"
  name: "layer2/inception_5b/3x3"
  type: "Convolution"
  param {
    name: "layer/inception_5b/3x3"
    lr_mult: 1
    decay_mult: 1
  }
  convolution_param {
    num_output: 320
    pad: 1
    kernel_size: 3
    stride: 1
    weight_filler {
      type: "xavier"
    }
    bias_term: false
  }
}
layer {
  bottom: "layer2/inception_5b/3x3"
  name: "layer2/inception_5b/3x3/bn"
  top: "layer2/inception_5b/3x3/bn"
  type: "BatchNorm"
}
layer {
  bottom: "layer2/inception_5b/3x3/bn"
  top: "layer2/inception_5b/3x3/bn/sc"
  name: "layer2/inception_5b/3x3/bn/sc"
  type: "Scale"
  scale_param {
    bias_term: true
  }
}
layer {
  bottom: "layer2/inception_5b/3x3/bn/sc"
  top: "layer2/inception_5b/3x3/bn/sc"
  name: "layer2/inception_5b/3x3/bn/sc/relu"
  type: "ReLU"
}
layer {
 bottom: "layer2/inception_5a/output"
  top: "layer2/inception_5b/double3x3_reduce"
  name: "layer2/inception_5b/double3x3_reduce"
  type: "Convolution"
  param {
    name: "layer/inception_5b/double3x3_reduce"
    lr_mult: 1
    decay_mult: 1
  }
  convolution_param {
    num_output: 192
    pad: 0
    kernel_size: 1
    stride: 1
    weight_filler {
      type: "xavier"
    }
    bias_term: false
  }
}
layer {
  bottom: "layer2/inception_5b/double3x3_reduce"
  name: "layer2/inception_5b/double3x3_reduce/bn"
  top: "layer2/inception_5b/double3x3_reduce/bn"
  type: "BatchNorm"
}
layer {
  bottom: "layer2/inception_5b/double3x3_reduce/bn"
  top: "layer2/inception_5b/double3x3_reduce/bn/sc"
  name: "layer2/inception_5b/double3x3_reduce/bn/sc"
  type: "Scale"
  scale_param {
    bias_term: true
  }
}
layer {
  bottom: "layer2/inception_5b/double3x3_reduce/bn/sc"
  top: "layer2/inception_5b/double3x3_reduce/bn/sc"
  name: "layer2/inception_5b/double3x3_reduce/bn/sc/relu"
  type: "ReLU"
}
layer {
 bottom: "layer2/inception_5b/double3x3_reduce/bn/sc"
  top: "layer2/inception_5b/double3x3a"
  name: "layer2/inception_5b/double3x3a"
  type: "Convolution"
  param {
    name: "layer/inception_5b/double3x3a"
    lr_mult: 1
    decay_mult: 1
  }
  convolution_param {
    num_output: 224
    pad: 1
    kernel_size: 3
    stride: 1
    weight_filler {
      type: "xavier"
    }
    bias_term: false
  }
}
layer {
  bottom: "layer2/inception_5b/double3x3a"
  name: "layer2/inception_5b/double3x3a/bn"
  top: "layer2/inception_5b/double3x3a/bn"
  type: "BatchNorm"
}
layer {
  bottom: "layer2/inception_5b/double3x3a/bn"
  top: "layer2/inception_5b/double3x3a/bn/sc"
  name: "layer2/inception_5b/double3x3a/bn/sc"
  type: "Scale"
  scale_param {
    bias_term: true
  }
}
layer {
  bottom: "layer2/inception_5b/double3x3a/bn/sc"
  top: "layer2/inception_5b/double3x3a/bn/sc"
  name: "layer2/inception_5b/double3x3a/bn/sc/relu"
  type: "ReLU"
}
layer {
 bottom: "layer2/inception_5b/double3x3a/bn/sc"
  top: "layer2/inception_5b/double3x3b"
  name: "layer2/inception_5b/double3x3b"
  type: "Convolution"
  param {
    name: "layer/inception_5b/double3x3b"
    lr_mult: 1
    decay_mult: 1
  }
  convolution_param {
    num_output: 224
    pad: 1
    kernel_size: 3
    stride: 1
    weight_filler {
      type: "xavier"
    }
    bias_term: false
  }
}
layer {
  bottom: "layer2/inception_5b/double3x3b"
  name: "layer2/inception_5b/double3x3b/bn"
  top: "layer2/inception_5b/double3x3b/bn"
  type: "BatchNorm"
}
layer {
  bottom: "layer2/inception_5b/double3x3b/bn"
  top: "layer2/inception_5b/double3x3b/bn/sc"
  name: "layer2/inception_5b/double3x3b/bn/sc"
  type: "Scale"
  scale_param {
    bias_term: true
  }
}
layer {
  bottom: "layer2/inception_5b/double3x3b/bn/sc"
  top: "layer2/inception_5b/double3x3b/bn/sc"
  name: "layer2/inception_5b/double3x3b/bn/sc/relu"
  type: "ReLU"
}
layer {
  bottom: "layer2/inception_5a/output"
  top: "layer2/inception_5b/pool"
  name: "layer2/inception_5b/pool"
  type: "Pooling"
  pooling_param {
    pool: MAX
    kernel_size: 3
    stride: 1
    pad: 1
  }
}
layer {
 bottom: "layer2/inception_5b/pool"
  top: "layer2/inception_5b/pool_proj"
  name: "layer2/inception_5b/pool_proj"
  type: "Convolution"
  param {
    name: "layer/inception_5b/pool_proj"
    lr_mult: 1
    decay_mult: 1
  }
  convolution_param {
    num_output: 128
    pad: 0
    kernel_size: 1
    stride: 1
    weight_filler {
      type: "xavier"
    }
    bias_term: false
  }
}
layer {
  bottom: "layer2/inception_5b/pool_proj"
  name: "layer2/inception_5b/pool_proj/bn"
  top: "layer2/inception_5b/pool_proj/bn"
  type: "BatchNorm"
}
layer {
  bottom: "layer2/inception_5b/pool_proj/bn"
  top: "layer2/inception_5b/pool_proj/bn/sc"
  name: "layer2/inception_5b/pool_proj/bn/sc"
  type: "Scale"
  scale_param {
    bias_term: true
  }
}
layer {
  bottom: "layer2/inception_5b/pool_proj/bn/sc"
  top: "layer2/inception_5b/pool_proj/bn/sc"
  name: "layer2/inception_5b/pool_proj/bn/sc/relu"
  type: "ReLU"
}
layer {
  bottom: "layer2/inception_5b/1x1/bn/sc"
  bottom: "layer2/inception_5b/3x3/bn/sc"
  bottom: "layer2/inception_5b/double3x3b/bn/sc"
  bottom: "layer2/inception_5b/pool_proj/bn/sc"
  top: "layer2/inception_5b/output"
  name: "layer2/inception_5b/output"
  type: "Concat"
}



###########layer3_lower###############

layer {
 bottom: "data/layer3"
  top: "layer3/conv1/7x7_s2"
  name: "layer3/conv1/7x7_s2"
  type: "Convolution"
  param {
    name: "layer/conv1/7x7_s2"
    lr_mult: 1
    decay_mult: 1
  }
  convolution_param {
    num_output: 64
    pad: 3
    kernel_size: 7
    stride: 2
    weight_filler {
      type: "xavier"
    }
    bias_term: false
  }
}
layer {
  bottom: "layer3/conv1/7x7_s2"
  name: "layer3/conv1/7x7_s2/bn"
  top: "layer3/conv1/7x7_s2/bn"
  type: "BatchNorm"
}
layer {
  bottom: "layer3/conv1/7x7_s2/bn"
  top: "layer3/conv1/7x7_s2/bn/sc"
  name: "layer3/conv1/7x7_s2/bn/sc"
  type: "Scale"
  scale_param {
    bias_term: true
  }
}
layer {
  bottom: "layer3/conv1/7x7_s2/bn/sc"
  top: "layer3/conv1/7x7_s2/bn/sc"
  name: "layer3/conv1/7x7_s2/bn/sc/relu"
  type: "ReLU"
}
layer {
  bottom: "layer3/conv1/7x7_s2/bn/sc"
  top: "layer3/pool1/3x3_s2"
  name: "layer3/pool1/3x3_s2"
  type: "Pooling"
  pooling_param {
    pool: MAX
    kernel_size: 3
    stride: 2
  }
}
layer {
 bottom: "layer3/pool1/3x3_s2"
  top: "layer3/conv2/3x3_reduce"
  name: "layer3/conv2/3x3_reduce"
  type: "Convolution"
  param {
    name: "layer/conv2/3x3_reduce"
    lr_mult: 1
    decay_mult: 1
  }
  convolution_param {
    num_output: 64
    pad: 0
    kernel_size: 1
    stride: 1
    weight_filler {
      type: "xavier"
    }
    bias_term: false
  }
}
layer {
  bottom: "layer3/conv2/3x3_reduce"
  name: "layer3/conv2/3x3_reduce/bn"
  top: "layer3/conv2/3x3_reduce/bn"
  type: "BatchNorm"
}
layer {
  bottom: "layer3/conv2/3x3_reduce/bn"
  top: "layer3/conv2/3x3_reduce/bn/sc"
  name: "layer3/conv2/3x3_reduce/bn/sc"
  type: "Scale"
  scale_param {
    bias_term: true
  }
}
layer {
  bottom: "layer3/conv2/3x3_reduce/bn/sc"
  top: "layer3/conv2/3x3_reduce/bn/sc"
  name: "layer3/conv2/3x3_reduce/bn/sc/relu"
  type: "ReLU"
}
layer {
 bottom: "layer3/conv2/3x3_reduce/bn/sc"
  top: "layer3/conv2/3x3"
  name: "layer3/conv2/3x3"
  type: "Convolution"
  param {
    name: "layer/conv2/3x3"
    lr_mult: 1
    decay_mult: 1
  }
  convolution_param {
    num_output: 192
    pad: 1
    kernel_size: 3
    stride: 1
    weight_filler {
      type: "xavier"
    }
    bias_term: false
  }
}
layer {
  bottom: "layer3/conv2/3x3"
  name: "layer3/conv2/3x3/bn"
  top: "layer3/conv2/3x3/bn"
  type: "BatchNorm"
}
layer {
  bottom: "layer3/conv2/3x3/bn"
  top: "layer3/conv2/3x3/bn/sc"
  name: "layer3/conv2/3x3/bn/sc"
  type: "Scale"
  scale_param {
    bias_term: true
  }
}
layer {
  bottom: "layer3/conv2/3x3/bn/sc"
  top: "layer3/conv2/3x3/bn/sc"
  name: "layer3/conv2/3x3/bn/sc/relu"
  type: "ReLU"
}
layer {
  bottom: "layer3/conv2/3x3/bn/sc"
  top: "layer3/pool2/3x3_s2"
  name: "layer3/pool2/3x3_s2"
  type: "Pooling"
  pooling_param {
    pool: MAX
    kernel_size: 3
    stride: 2
  }
}
layer {
 bottom: "layer3/pool2/3x3_s2"
  top: "layer3/inception_3a/1x1"
  name: "layer3/inception_3a/1x1"
  type: "Convolution"
  param {
    name: "layer/inception_3a/1x1"
    lr_mult: 1
    decay_mult: 1
  }
  convolution_param {
    num_output: 64
    pad: 0
    kernel_size: 1
    stride: 1
    weight_filler {
      type: "xavier"
    }
    bias_term: false
  }
}
layer {
  bottom: "layer3/inception_3a/1x1"
  name: "layer3/inception_3a/1x1/bn"
  top: "layer3/inception_3a/1x1/bn"
  type: "BatchNorm"
}
layer {
  bottom: "layer3/inception_3a/1x1/bn"
  top: "layer3/inception_3a/1x1/bn/sc"
  name: "layer3/inception_3a/1x1/bn/sc"
  type: "Scale"
  scale_param {
    bias_term: true
  }
}
layer {
  bottom: "layer3/inception_3a/1x1/bn/sc"
  top: "layer3/inception_3a/1x1/bn/sc"
  name: "layer3/inception_3a/1x1/bn/sc/relu"
  type: "ReLU"
}
layer {
 bottom: "layer3/pool2/3x3_s2"
  top: "layer3/inception_3a/3x3_reduce"
  name: "layer3/inception_3a/3x3_reduce"
  type: "Convolution"
  param {
    name: "layer/inception_3a/3x3_reduce"
    lr_mult: 1
    decay_mult: 1
  }
  convolution_param {
    num_output: 64
    pad: 0
    kernel_size: 1
    stride: 1
    weight_filler {
      type: "xavier"
    }
    bias_term: false
  }
}
layer {
  bottom: "layer3/inception_3a/3x3_reduce"
  name: "layer3/inception_3a/3x3_reduce/bn"
  top: "layer3/inception_3a/3x3_reduce/bn"
  type: "BatchNorm"
}
layer {
  bottom: "layer3/inception_3a/3x3_reduce/bn"
  top: "layer3/inception_3a/3x3_reduce/bn/sc"
  name: "layer3/inception_3a/3x3_reduce/bn/sc"
  type: "Scale"
  scale_param {
    bias_term: true
  }
}
layer {
  bottom: "layer3/inception_3a/3x3_reduce/bn/sc"
  top: "layer3/inception_3a/3x3_reduce/bn/sc"
  name: "layer3/inception_3a/3x3_reduce/bn/sc/relu"
  type: "ReLU"
}
layer {
 bottom: "layer3/inception_3a/3x3_reduce/bn/sc"
  top: "layer3/inception_3a/3x3"
  name: "layer3/inception_3a/3x3"
  type: "Convolution"
  param {
    name: "layer/inception_3a/3x3"
    lr_mult: 1
    decay_mult: 1
  }
  convolution_param {
    num_output: 64
    pad: 1
    kernel_size: 3
    stride: 1
    weight_filler {
      type: "xavier"
    }
    bias_term: false
  }
}
layer {
  bottom: "layer3/inception_3a/3x3"
  name: "layer3/inception_3a/3x3/bn"
  top: "layer3/inception_3a/3x3/bn"
  type: "BatchNorm"
}
layer {
  bottom: "layer3/inception_3a/3x3/bn"
  top: "layer3/inception_3a/3x3/bn/sc"
  name: "layer3/inception_3a/3x3/bn/sc"
  type: "Scale"
  scale_param {
    bias_term: true
  }
}
layer {
  bottom: "layer3/inception_3a/3x3/bn/sc"
  top: "layer3/inception_3a/3x3/bn/sc"
  name: "layer3/inception_3a/3x3/bn/sc/relu"
  type: "ReLU"
}
layer {
 bottom: "layer3/pool2/3x3_s2"
  top: "layer3/inception_3a/double3x3_reduce"
  name: "layer3/inception_3a/double3x3_reduce"
  type: "Convolution"
  param {
    name: "layer/inception_3a/double3x3_reduce"
    lr_mult: 1
    decay_mult: 1
  }
  convolution_param {
    num_output: 64
    pad: 0
    kernel_size: 1
    stride: 1
    weight_filler {
      type: "xavier"
    }
    bias_term: false
  }
}
layer {
  bottom: "layer3/inception_3a/double3x3_reduce"
  name: "layer3/inception_3a/double3x3_reduce/bn"
  top: "layer3/inception_3a/double3x3_reduce/bn"
  type: "BatchNorm"
}
layer {
  bottom: "layer3/inception_3a/double3x3_reduce/bn"
  top: "layer3/inception_3a/double3x3_reduce/bn/sc"
  name: "layer3/inception_3a/double3x3_reduce/bn/sc"
  type: "Scale"
  scale_param {
    bias_term: true
  }
}
layer {
  bottom: "layer3/inception_3a/double3x3_reduce/bn/sc"
  top: "layer3/inception_3a/double3x3_reduce/bn/sc"
  name: "layer3/inception_3a/double3x3_reduce/bn/sc/relu"
  type: "ReLU"
}
layer {
 bottom: "layer3/inception_3a/double3x3_reduce/bn/sc"
  top: "layer3/inception_3a/double3x3a"
  name: "layer3/inception_3a/double3x3a"
  type: "Convolution"
  param {
    name: "layer/inception_3a/double3x3a"
    lr_mult: 1
    decay_mult: 1
  }
  convolution_param {
    num_output: 96
    pad: 1
    kernel_size: 3
    stride: 1
    weight_filler {
      type: "xavier"
    }
    bias_term: false
  }
}
layer {
  bottom: "layer3/inception_3a/double3x3a"
  name: "layer3/inception_3a/double3x3a/bn"
  top: "layer3/inception_3a/double3x3a/bn"
  type: "BatchNorm"
}
layer {
  bottom: "layer3/inception_3a/double3x3a/bn"
  top: "layer3/inception_3a/double3x3a/bn/sc"
  name: "layer3/inception_3a/double3x3a/bn/sc"
  type: "Scale"
  scale_param {
    bias_term: true
  }
}
layer {
  bottom: "layer3/inception_3a/double3x3a/bn/sc"
  top: "layer3/inception_3a/double3x3a/bn/sc"
  name: "layer3/inception_3a/double3x3a/bn/sc/relu"
  type: "ReLU"
}
layer {
 bottom: "layer3/inception_3a/double3x3a/bn/sc"
  top: "layer3/inception_3a/double3x3b"
  name: "layer3/inception_3a/double3x3b"
  type: "Convolution"
  param {
    name: "layer/inception_3a/double3x3b"
    lr_mult: 1
    decay_mult: 1
  }
  convolution_param {
    num_output: 96
    pad: 1
    kernel_size: 3
    stride: 1
    weight_filler {
      type: "xavier"
    }
    bias_term: false
  }
}
layer {
  bottom: "layer3/inception_3a/double3x3b"
  name: "layer3/inception_3a/double3x3b/bn"
  top: "layer3/inception_3a/double3x3b/bn"
  type: "BatchNorm"
}
layer {
  bottom: "layer3/inception_3a/double3x3b/bn"
  top: "layer3/inception_3a/double3x3b/bn/sc"
  name: "layer3/inception_3a/double3x3b/bn/sc"
  type: "Scale"
  scale_param {
    bias_term: true
  }
}
layer {
  bottom: "layer3/inception_3a/double3x3b/bn/sc"
  top: "layer3/inception_3a/double3x3b/bn/sc"
  name: "layer3/inception_3a/double3x3b/bn/sc/relu"
  type: "ReLU"
}
layer {
  bottom: "layer3/pool2/3x3_s2"
  top: "layer3/inception_3a/pool"
  name: "layer3/inception_3a/pool"
  type: "Pooling"
  pooling_param {
    pool: AVE
    kernel_size: 3
    stride: 1
    pad: 1
  }
}
layer {
 bottom: "layer3/inception_3a/pool"
  top: "layer3/inception_3a/pool_proj"
  name: "layer3/inception_3a/pool_proj"
  type: "Convolution"
  param {
    name: "layer/inception_3a/pool_proj"
    lr_mult: 1
    decay_mult: 1
  }
  convolution_param {
    num_output: 32
    pad: 0
    kernel_size: 1
    stride: 1
    weight_filler {
      type: "xavier"
    }
    bias_term: false
  }
}
layer {
  bottom: "layer3/inception_3a/pool_proj"
  name: "layer3/inception_3a/pool_proj/bn"
  top: "layer3/inception_3a/pool_proj/bn"
  type: "BatchNorm"
}
layer {
  bottom: "layer3/inception_3a/pool_proj/bn"
  top: "layer3/inception_3a/pool_proj/bn/sc"
  name: "layer3/inception_3a/pool_proj/bn/sc"
  type: "Scale"
  scale_param {
    bias_term: true
  }
}
layer {
  bottom: "layer3/inception_3a/pool_proj/bn/sc"
  top: "layer3/inception_3a/pool_proj/bn/sc"
  name: "layer3/inception_3a/pool_proj/bn/sc/relu"
  type: "ReLU"
}
layer {
  bottom: "layer3/inception_3a/1x1/bn/sc"
  bottom: "layer3/inception_3a/3x3/bn/sc"
  bottom: "layer3/inception_3a/double3x3b/bn/sc"
  bottom: "layer3/inception_3a/pool_proj/bn/sc"
  top: "layer3/inception_3a/output"
  name: "layer3/inception_3a/output"
  type: "Concat"
}
layer {
 bottom: "layer3/inception_3a/output"
  top: "layer3/inception_3b/1x1"
  name: "layer3/inception_3b/1x1"
  type: "Convolution"
  param {
    name: "layer/inception_3b/1x1"
    lr_mult: 1
    decay_mult: 1
  }
  convolution_param {
    num_output: 64
    pad: 0
    kernel_size: 1
    stride: 1
    weight_filler {
      type: "xavier"
    }
    bias_term: false
  }
}
layer {
  bottom: "layer3/inception_3b/1x1"
  name: "layer3/inception_3b/1x1/bn"
  top: "layer3/inception_3b/1x1/bn"
  type: "BatchNorm"
}
layer {
  bottom: "layer3/inception_3b/1x1/bn"
  top: "layer3/inception_3b/1x1/bn/sc"
  name: "layer3/inception_3b/1x1/bn/sc"
  type: "Scale"
  scale_param {
    bias_term: true
  }
}
layer {
  bottom: "layer3/inception_3b/1x1/bn/sc"
  top: "layer3/inception_3b/1x1/bn/sc"
  name: "layer3/inception_3b/1x1/bn/sc/relu"
  type: "ReLU"
}
layer {
 bottom: "layer3/inception_3a/output"
  top: "layer3/inception_3b/3x3_reduce"
  name: "layer3/inception_3b/3x3_reduce"
  type: "Convolution"
  param {
    name: "layer/inception_3b/3x3_reduce"
    lr_mult: 1
    decay_mult: 1
  }
…
  convolution_param {
    num_output: 64
    pad: 0
    kernel_size: 1
    stride: 1
    weight_filler {
      type: "xavier"
    }
    bias_term: false
  }
}
layer {
  bottom: "inception_4a/3x3_reduce"
  name: "inception_4a/3x3_reduce/bn"
  top: "inception_4a/3x3_reduce/bn"
  type: "BatchNorm"
}
layer {
  bottom: "inception_4a/3x3_reduce/bn"
  top: "inception_4a/3x3_reduce/bn/sc"
  name: "inception_4a/3x3_reduce/bn/sc"
  type: "Scale"
  scale_param {
    bias_term: true
  }
}
layer {
  bottom: "inception_4a/3x3_reduce/bn/sc"
  top: "inception_4a/3x3_reduce/bn/sc"
  name: "inception_4a/3x3_reduce/bn/sc/relu"
  type: "ReLU"
}
layer {
 bottom: "inception_4a/3x3_reduce/bn/sc"
  top: "inception_4a/3x3"
  name: "inception_4a/3x3"
  type: "Convolution"
  param {
    name: "layer/inception_4a/3x3"
    lr_mult: 1
    decay_mult: 1
  }
  convolution_param {
    num_output: 96
    pad: 1
    kernel_size: 3
    stride: 1
    weight_filler {
      type: "xavier"
    }
    bias_term: false
  }
}
layer {
  bottom: "inception_4a/3x3"
  name: "inception_4a/3x3/bn"
  top: "inception_4a/3x3/bn"
  type: "BatchNorm"
}
layer {
  bottom: "inception_4a/3x3/bn"
  top: "inception_4a/3x3/bn/sc"
  name: "inception_4a/3x3/bn/sc"
  type: "Scale"
  scale_param {
    bias_term: true
  }
}
layer {
  bottom: "inception_4a/3x3/bn/sc"
  top: "inception_4a/3x3/bn/sc"
  name: "inception_4a/3x3/bn/sc/relu"
  type: "ReLU"
}
layer {
 bottom: "inception_3c/output"
  top: "inception_4a/double3x3_reduce"
  name: "inception_4a/double3x3_reduce"
  type: "Convolution"
  param {
    name: "layer/inception_4a/double3x3_reduce"
    lr_mult: 1
    decay_mult: 1
  }
  convolution_param {
    num_output: 96
    pad: 0
    kernel_size: 1
    stride: 1
    weight_filler {
      type: "xavier"
    }
    bias_term: false
  }
}
layer {
  bottom: "inception_4a/double3x3_reduce"
  name: "inception_4a/double3x3_reduce/bn"
  top: "inception_4a/double3x3_reduce/bn"
  type: "BatchNorm"
}
layer {
  bottom: "inception_4a/double3x3_reduce/bn"
  top: "inception_4a/double3x3_reduce/bn/sc"
  name: "inception_4a/double3x3_reduce/bn/sc"
  type: "Scale"
  scale_param {
    bias_term: true
  }
}
layer {
  bottom: "inception_4a/double3x3_reduce/bn/sc"
  top: "inception_4a/double3x3_reduce/bn/sc"
  name: "inception_4a/double3x3_reduce/bn/sc/relu"
  type: "ReLU"
}
layer {
 bottom: "inception_4a/double3x3_reduce/bn/sc"
  top: "inception_4a/double3x3a"
  name: "inception_4a/double3x3a"
  type: "Convolution"
  param {
    name: "layer/inception_4a/double3x3a"
    lr_mult: 1
    decay_mult: 1
  }
  convolution_param {
    num_output: 128
    pad: 1
    kernel_size: 3
    stride: 1
    weight_filler {
      type: "xavier"
    }
    bias_term: false
  }
}
layer {
  bottom: "inception_4a/double3x3a"
  name: "inception_4a/double3x3a/bn"
  top: "inception_4a/double3x3a/bn"
  type: "BatchNorm"
}
layer {
  bottom: "inception_4a/double3x3a/bn"
  top: "inception_4a/double3x3a/bn/sc"
  name: "inception_4a/double3x3a/bn/sc"
  type: "Scale"
  scale_param {
    bias_term: true
  }
}
layer {
  bottom: "inception_4a/double3x3a/bn/sc"
  top: "inception_4a/double3x3a/bn/sc"
  name: "inception_4a/double3x3a/bn/sc/relu"
  type: "ReLU"
}
layer {
 bottom: "inception_4a/double3x3a/bn/sc"
  top: "inception_4a/double3x3b"
  name: "inception_4a/double3x3b"
  type: "Convolution"
  param {
    name: "layer/inception_4a/double3x3b"
    lr_mult: 1
    decay_mult: 1
  }
  convolution_param {
    num_output: 128
    pad: 1
    kernel_size: 3
    stride: 1
    weight_filler {
      type: "xavier"
    }
    bias_term: false
  }
}
layer {
  bottom: "inception_4a/double3x3b"
  name: "inception_4a/double3x3b/bn"
  top: "inception_4a/double3x3b/bn"
  type: "BatchNorm"
}
layer {
  bottom: "inception_4a/double3x3b/bn"
  top: "inception_4a/double3x3b/bn/sc"
  name: "inception_4a/double3x3b/bn/sc"
  type: "Scale"
  scale_param {
    bias_term: true
  }
}
layer {
  bottom: "inception_4a/double3x3b/bn/sc"
  top: "inception_4a/double3x3b/bn/sc"
  name: "inception_4a/double3x3b/bn/sc/relu"
  type: "ReLU"
}
layer {
  bottom: "inception_3c/output"
  top: "inception_4a/pool"
  name: "inception_4a/pool"
  type: "Pooling"
  pooling_param {
    pool: AVE
    kernel_size: 3
    stride: 1
    pad: 1
  }
}
layer {
 bottom: "inception_4a/pool"
  top: "inception_4a/pool_proj"
  name: "inception_4a/pool_proj"
  type: "Convolution"
  param {
    name: "layer/inception_4a/pool_proj"
    lr_mult: 1
    decay_mult: 1
  }
  convolution_param {
    num_output: 128
    pad: 0
    kernel_size: 1
    stride: 1
    weight_filler {
      type: "xavier"
    }
    bias_term: false
  }
}
layer {
  bottom: "inception_4a/pool_proj"
  name: "inception_4a/pool_proj/bn"
  top: "inception_4a/pool_proj/bn"
  type: "BatchNorm"
}
layer {
  bottom: "inception_4a/pool_proj/bn"
  top: "inception_4a/pool_proj/bn/sc"
  name: "inception_4a/pool_proj/bn/sc"
  type: "Scale"
  scale_param {
    bias_term: true
  }
}
layer {
  bottom: "inception_4a/pool_proj/bn/sc"
  top: "inception_4a/pool_proj/bn/sc"
  name: "inception_4a/pool_proj/bn/sc/relu"
  type: "ReLU"
}
layer {
  bottom: "inception_4a/1x1/bn/sc"
  bottom: "inception_4a/3x3/bn/sc"
  bottom: "inception_4a/double3x3b/bn/sc"
  bottom: "inception_4a/pool_proj/bn/sc"
  top: "inception_4a/output"
  name: "inception_4a/output"
  type: "Concat"
}
layer {
 bottom: "inception_4a/output"
  top: "inception_4b/1x1"
  name: "inception_4b/1x1"
  type: "Convolution"
  param {
    name: "layer/inception_4b/1x1"
    lr_mult: 1
    decay_mult: 1
  }
  convolution_param {
    num_output: 192
    pad: 0
    kernel_size: 1
    stride: 1
    weight_filler {
      type: "xavier"
    }
    bias_term: false
  }
}
layer {
  bottom: "inception_4b/1x1"
  name: "inception_4b/1x1/bn"
  top: "inception_4b/1x1/bn"
  type: "BatchNorm"
}
layer {
  bottom: "inception_4b/1x1/bn"
  top: "inception_4b/1x1/bn/sc"
  name: "inception_4b/1x1/bn/sc"
  type: "Scale"
  scale_param {
    bias_term: true
  }
}
layer {
  bottom: "inception_4b/1x1/bn/sc"
  top: "inception_4b/1x1/bn/sc"
  name: "inception_4b/1x1/bn/sc/relu"
  type: "ReLU"
}
layer {
 bottom: "inception_4a/output"
  top: "inception_4b/3x3_reduce"
  name: "inception_4b/3x3_reduce"
  type: "Convolution"
  param {
    name: "layer/inception_4b/3x3_reduce"
    lr_mult: 1
    decay_mult: 1
  }
  convolution_param {
    num_output: 96
    pad: 0
    kernel_size: 1
    stride: 1
    weight_filler {
      type: "xavier"
    }
    bias_term: false
  }
}
layer {
  bottom: "inception_4b/3x3_reduce"
  name: "inception_4b/3x3_reduce/bn"
  top: "inception_4b/3x3_reduce/bn"
  type: "BatchNorm"
}
layer {
  bottom: "inception_4b/3x3_reduce/bn"
  top: "inception_4b/3x3_reduce/bn/sc"
  name: "inception_4b/3x3_reduce/bn/sc"
  type: "Scale"
  scale_param {
    bias_term: true
  }
}
layer {
  bottom: "inception_4b/3x3_reduce/bn/sc"
  top: "inception_4b/3x3_reduce/bn/sc"
  name: "inception_4b/3x3_reduce/bn/sc/relu"
  type: "ReLU"
}
layer {
 bottom: "inception_4b/3x3_reduce/bn/sc"
  top: "inception_4b/3x3"
  name: "inception_4b/3x3"
  type: "Convolution"
  param {
    name: "layer/inception_4b/3x3"
    lr_mult: 1
    decay_mult: 1
  }
  convolution_param {
    num_output: 128
    pad: 1
    kernel_size: 3
    stride: 1
    weight_filler {
      type: "xavier"
    }
    bias_term: false
  }
}
layer {
  bottom: "inception_4b/3x3"
  name: "inception_4b/3x3/bn"
  top: "inception_4b/3x3/bn"
  type: "BatchNorm"
}
layer {
  bottom: "inception_4b/3x3/bn"
  top: "inception_4b/3x3/bn/sc"
  name: "inception_4b/3x3/bn/sc"
  type: "Scale"
  scale_param {
    bias_term: true
  }
}
layer {
  bottom: "inception_4b/3x3/bn/sc"
  top: "inception_4b/3x3/bn/sc"
  name: "inception_4b/3x3/bn/sc/relu"
  type: "ReLU"
}
layer {
 bottom: "inception_4a/output"
  top: "inception_4b/double3x3_reduce"
  name: "inception_4b/double3x3_reduce"
  type: "Convolution"
  param {
    name: "layer/inception_4b/double3x3_reduce"
    lr_mult: 1
    decay_mult: 1
  }
  convolution_param {
    num_output: 96
    pad: 0
    kernel_size: 1
    stride: 1
    weight_filler {
      type: "xavier"
    }
    bias_term: false
  }
}
layer {
  bottom: "inception_4b/double3x3_reduce"
  name: "inception_4b/double3x3_reduce/bn"
  top: "inception_4b/double3x3_reduce/bn"
  type: "BatchNorm"
}
layer {
  bottom: "inception_4b/double3x3_reduce/bn"
  top: "inception_4b/double3x3_reduce/bn/sc"
  name: "inception_4b/double3x3_reduce/bn/sc"
  type: "Scale"
  scale_param {
    bias_term: true
  }
}
layer {
  bottom: "inception_4b/double3x3_reduce/bn/sc"
  top: "inception_4b/double3x3_reduce/bn/sc"
  name: "inception_4b/double3x3_reduce/bn/sc/relu"
  type: "ReLU"
}
layer {
 bottom: "inception_4b/double3x3_reduce/bn/sc"
  top: "inception_4b/double3x3a"
  name: "inception_4b/double3x3a"
  type: "Convolution"
  param {
    name: "layer/inception_4b/double3x3a"
    lr_mult: 1
    decay_mult: 1
  }
  convolution_param {
    num_output: 128
    pad: 1
    kernel_size: 3
    stride: 1
    weight_filler {
      type: "xavier"
    }
    bias_term: false
  }
}
layer {
  bottom: "inception_4b/double3x3a"
  name: "inception_4b/double3x3a/bn"
  top: "inception_4b/double3x3a/bn"
  type: "BatchNorm"
}
layer {
  bottom: "inception_4b/double3x3a/bn"
  top: "inception_4b/double3x3a/bn/sc"
  name: "inception_4b/double3x3a/bn/sc"
  type: "Scale"
  scale_param {
    bias_term: true
  }
}
layer {
  bottom: "inception_4b/double3x3a/bn/sc"
  top: "inception_4b/double3x3a/bn/sc"
  name: "inception_4b/double3x3a/bn/sc/relu"
  type: "ReLU"
}
layer {
 bottom: "inception_4b/double3x3a/bn/sc"
  top: "inception_4b/double3x3b"
  name: "inception_4b/double3x3b"
  type: "Convolution"
  param {
    name: "layer/inception_4b/double3x3b"
    lr_mult: 1
    decay_mult: 1
  }
  convolution_param {
    num_output: 128
    pad: 1
    kernel_size: 3
    stride: 1
    weight_filler {
      type: "xavier"
    }
    bias_term: false
  }
}
layer {
  bottom: "inception_4b/double3x3b"
  name: "inception_4b/double3x3b/bn"
  top: "inception_4b/double3x3b/bn"
  type: "BatchNorm"
}
layer {
  bottom: "inception_4b/double3x3b/bn"
  top: "inception_4b/double3x3b/bn/sc"
  name: "inception_4b/double3x3b/bn/sc"
  type: "Scale"
  scale_param {
    bias_term: true
  }
}
layer {
  bottom: "inception_4b/double3x3b/bn/sc"
  top: "inception_4b/double3x3b/bn/sc"
  name: "inception_4b/double3x3b/bn/sc/relu"
  type: "ReLU"
}
layer {
  bottom: "inception_4a/output"
  top: "inception_4b/pool"
  name: "inception_4b/pool"
  type: "Pooling"
  pooling_param {
    pool: AVE
    kernel_size: 3
    stride: 1
    pad: 1
  }
}
layer {
 bottom: "inception_4b/pool"
  top: "inception_4b/pool_proj"
  name: "inception_4b/pool_proj"
  type: "Convolution"
  param {
    name: "layer/inception_4b/pool_proj"
    lr_mult: 1
    decay_mult: 1
  }
  convolution_param {
    num_output: 128
    pad: 0
    kernel_size: 1
    stride: 1
    weight_filler {
      type: "xavier"
    }
    bias_term: false
  }
}
layer {
  bottom: "inception_4b/pool_proj"
  name: "inception_4b/pool_proj/bn"
  top: "inception_4b/pool_proj/bn"
  type: "BatchNorm"
}
layer {
  bottom: "inception_4b/pool_proj/bn"
  top: "inception_4b/pool_proj/bn/sc"
  name: "inception_4b/pool_proj/bn/sc"
  type: "Scale"
  scale_param {
    bias_term: true
  }
}
layer {
  bottom: "inception_4b/pool_proj/bn/sc"
  top: "inception_4b/pool_proj/bn/sc"
  name: "inception_4b/pool_proj/bn/sc/relu"
  type: "ReLU"
}
layer {
  bottom: "inception_4b/1x1/bn/sc"
  bottom: "inception_4b/3x3/bn/sc"
  bottom: "inception_4b/double3x3b/bn/sc"
  bottom: "inception_4b/pool_proj/bn/sc"
  top: "inception_4b/output"
  name: "inception_4b/output"
  type: "Concat"
}
layer {
 bottom: "inception_4b/output"
  top: "inception_4c/1x1"
  name: "inception_4c/1x1"
  type: "Convolution"
  param {
    name: "layer/inception_4c/1x1"
    lr_mult: 1
    decay_mult: 1
  }
  convolution_param {
    num_output: 160
    pad: 0
    kernel_size: 1
    stride: 1
    weight_filler {
      type: "xavier"
    }
    bias_term: false
  }
}
layer {
  bottom: "inception_4c/1x1"
  name: "inception_4c/1x1/bn"
  top: "inception_4c/1x1/bn"
  type: "BatchNorm"
}
layer {
  bottom: "inception_4c/1x1/bn"
  top: "inception_4c/1x1/bn/sc"
  name: "inception_4c/1x1/bn/sc"
  type: "Scale"
  scale_param {
    bias_term: true
  }
}
layer {
  bottom: "inception_4c/1x1/bn/sc"
  top: "inception_4c/1x1/bn/sc"
  name: "inception_4c/1x1/bn/sc/relu"
  type: "ReLU"
}
layer {
 bottom: "inception_4b/output"
  top: "inception_4c/3x3_reduce"
  name: "inception_4c/3x3_reduce"
  type: "Convolution"
  param {
    name: "layer/inception_4c/3x3_reduce"
    lr_mult: 1
    decay_mult: 1
  }
  convolution_param {
    num_output: 128
    pad: 0
    kernel_size: 1
    stride: 1
    weight_filler {
      type: "xavier"
    }
    bias_term: false
  }
}
layer {
  bottom: "inception_4c/3x3_reduce"
  name: "inception_4c/3x3_reduce/bn"
  top: "inception_4c/3x3_reduce/bn"
  type: "BatchNorm"
}
layer {
  bottom: "inception_4c/3x3_reduce/bn"
  top: "inception_4c/3x3_reduce/bn/sc"
  name: "inception_4c/3x3_reduce/bn/sc"
  type: "Scale"
  scale_param {
    bias_term: true
  }
}
layer {
  bottom: "inception_4c/3x3_reduce/bn/sc"
  top: "inception_4c/3x3_reduce/bn/sc"
  name: "inception_4c/3x3_reduce/bn/sc/relu"
  type: "ReLU"
}
layer {
 bottom: "inception_4c/3x3_reduce/bn/sc"
  top: "inception_4c/3x3"
  name: "inception_4c/3x3"
  type: "Convolution"
  param {
    name: "layer/inception_4c/3x3"
    lr_mult: 1
    decay_mult: 1
  }
  convolution_param {
    num_output: 160
    pad: 1
    kernel_size: 3
    stride: 1
    weight_filler {
      type: "xavier"
    }
    bias_term: false
  }
}
layer {
  bottom: "inception_4c/3x3"
  name: "inception_4c/3x3/bn"
  top: "inception_4c/3x3/bn"
  type: "BatchNorm"
}
layer {
  bottom: "inception_4c/3x3/bn"
  top: "inception_4c/3x3/bn/sc"
  name: "inception_4c/3x3/bn/sc"
  type: "Scale"
  scale_param {
    bias_term: true
  }
}
layer {
  bottom: "inception_4c/3x3/bn/sc"
  top: "inception_4c/3x3/bn/sc"
  name: "inception_4c/3x3/bn/sc/relu"
  type: "ReLU"
}
layer {
 bottom: "inception_4b/output"
  top: "inception_4c/double3x3_reduce"
  name: "inception_4c/double3x3_reduce"
  type: "Convolution"
  param {
    name: "layer/inception_4c/double3x3_reduce"
    lr_mult: 1
    decay_mult: 1
  }
  convolution_param {
    num_output: 128
    pad: 0
    kernel_size: 1
    stride: 1
    weight_filler {
      type: "xavier"
    }
    bias_term: false
  }
}
layer {
  bottom: "inception_4c/double3x3_reduce"
  name: "inception_4c/double3x3_reduce/bn"
  top: "inception_4c/double3x3_reduce/bn"
  type: "BatchNorm"
}
layer {
  bottom: "inception_4c/double3x3_reduce/bn"
  top: "inception_4c/double3x3_reduce/bn/sc"
  name: "inception_4c/double3x3_reduce/bn/sc"
  type: "Scale"
  scale_param {
    bias_term: true
  }
}
layer {
  bottom: "inception_4c/double3x3_reduce/bn/sc"
  top: "inception_4c/double3x3_reduce/bn/sc"
  name: "inception_4c/double3x3_reduce/bn/sc/relu"
  type: "ReLU"
}
layer {
 bottom: "inception_4c/double3x3_reduce/bn/sc"
  top: "inception_4c/double3x3a"
  name: "inception_4c/double3x3a"
  type: "Convolution"
  param {
    name: "layer/inception_4c/double3x3a"
    lr_mult: 1
    decay_mult: 1
  }
  convolution_param {
    num_output: 160
    pad: 1
    kernel_size: 3
    stride: 1
    weight_filler {
      type: "xavier"
    }
    bias_term: false
  }
}
layer {
  bottom: "inception_4c/double3x3a"
  name: "inception_4c/double3x3a/bn"
  top: "inception_4c/double3x3a/bn"
  type: "BatchNorm"
}
layer {
  bottom: "inception_4c/double3x3a/bn"
  top: "inception_4c/double3x3a/bn/sc"
  name: "inception_4c/double3x3a/bn/sc"
  type: "Scale"
  scale_param {
    bias_term: true
  }
}
layer {
  bottom: "inception_4c/double3x3a/bn/sc"
  top: "inception_4c/double3x3a/bn/sc"
  name: "inception_4c/double3x3a/bn/sc/relu"
  type: "ReLU"
}
layer {
 bottom: "inception_4c/double3x3a/bn/sc"
  top: "inception_4c/double3x3b"
  name: "inception_4c/double3x3b"
  type: "Convolution"
  param {
    name: "layer/inception_4c/double3x3b"
    lr_mult: 1
    decay_mult: 1
  }
  convolution_param {
    num_output: 160
    pad: 1
    kernel_size: 3
    stride: 1
    weight_filler {
      type: "xavier"
    }
    bias_term: false
  }
}
layer {
  bottom: "inception_4c/double3x3b"
  name: "inception_4c/double3x3b/bn"
  top: "inception_4c/double3x3b/bn"
  type: "BatchNorm"
}
layer {
  bottom: "inception_4c/double3x3b/bn"
  top: "inception_4c/double3x3b/bn/sc"
  name: "inception_4c/double3x3b/bn/sc"
  type: "Scale"
  scale_param {
    bias_term: true
  }
}
layer {
  bottom: "inception_4c/double3x3b/bn/sc"
  top: "inception_4c/double3x3b/bn/sc"
  name: "inception_4c/double3x3b/bn/sc/relu"
  type: "ReLU"
}
layer {
  bottom: "inception_4b/output"
  top: "inception_4c/pool"
  name: "inception_4c/pool"
  type: "Pooling"
  pooling_param {
    pool: AVE
    kernel_size: 3
    stride: 1
    pad: 1
  }
}
layer {
 bottom: "inception_4c/pool"
  top: "inception_4c/pool_proj"
  name: "inception_4c/pool_proj"
  type: "Convolution"
  param {
    name: "layer/inception_4c/pool_proj"
    lr_mult: 1
    decay_mult: 1
  }
  convolution_param {
    num_output: 96
    pad: 0
    kernel_size: 1
    stride: 1
    weight_filler {
      type: "xavier"
    }
    bias_term: false
  }
}
layer {
  bottom: "inception_4c/pool_proj"
  name: "inception_4c/pool_proj/bn"
  top: "inception_4c/pool_proj/bn"
  type: "BatchNorm"
}
layer {
  bottom: "inception_4c/pool_proj/bn"
  top: "inception_4c/pool_proj/bn/sc"
  name: "inception_4c/pool_proj/bn/sc"
  type: "Scale"
  scale_param {
    bias_term: true
  }
}
layer {
  bottom: "inception_4c/pool_proj/bn/sc"
  top: "inception_4c/pool_proj/bn/sc"
  name: "inception_4c/pool_proj/bn/sc/relu"
  type: "ReLU"
}
layer {
  bottom: "inception_4c/1x1/bn/sc"
  bottom: "inception_4c/3x3/bn/sc"
  bottom: "inception_4c/double3x3b/bn/sc"
  bottom: "inception_4c/pool_proj/bn/sc"
  top: "inception_4c/output"
  name: "inception_4c/output"
  type: "Concat"
}
layer {
 bottom: "inception_4c/output"
  top: "inception_4d/1x1"
  name: "inception_4d/1x1"
  type: "Convolution"
  param {
    name: "layer/inception_4d/1x1"
    lr_mult: 1
    decay_mult: 1
  }
  convolution_param {
    num_output: 96
    pad: 0
    kernel_size: 1
    stride: 1
    weight_filler {
      type: "xavier"
    }
    bias_term: false
  }
}
layer {
  bottom: "inception_4d/1x1"
  name: "inception_4d/1x1/bn"
  top: "inception_4d/1x1/bn"
  type: "BatchNorm"
}
layer {
  bottom: "inception_4d/1x1/bn"
  top: "inception_4d/1x1/bn/sc"
  name: "inception_4d/1x1/bn/sc"
  type: "Scale"
  scale_param {
    bias_term: true
  }
}
layer {
  bottom: "inception_4d/1x1/bn/sc"
  top: "inception_4d/1x1/bn/sc"
  name: "inception_4d/1x1/bn/sc/relu"
  type: "ReLU"
}
layer {
 bottom: "inception_4c/output"
  top: "inception_4d/3x3_reduce"
  name: "inception_4d/3x3_reduce"
  type: "Convolution"
  param {
    name: "layer/inception_4d/3x3_reduce"
    lr_mult: 1
    decay_mult: 1
  }
  convolution_param {
    num_output: 128
    pad: 0
    kernel_size: 1
    stride: 1
    weight_filler {
      type: "xavier"
    }
    bias_term: false
  }
}
layer {
  bottom: "inception_4d/3x3_reduce"
  name: "inception_4d/3x3_reduce/bn"
  top: "inception_4d/3x3_reduce/bn"
  type: "BatchNorm"
}
layer {
  bottom: "inception_4d/3x3_reduce/bn"
  top: "inception_4d/3x3_reduce/bn/sc"
  name: "inception_4d/3x3_reduce/bn/sc"
  type: "Scale"
  scale_param {
    bias_term: true
  }
}
layer {
  bottom: "inception_4d/3x3_reduce/bn/sc"
  top: "inception_4d/3x3_reduce/bn/sc"
  name: "inception_4d/3x3_reduce/bn/sc/relu"
  type: "ReLU"
}
layer {
 bottom: "inception_4d/3x3_reduce/bn/sc"
  top: "inception_4d/3x3"
  name: "inception_4d/3x3"
  type: "Convolution"
  param {
    name: "layer/inception_4d/3x3"
    lr_mult: 1
    decay_mult: 1
  }
  convolution_param {
    num_output: 192
    pad: 1
    kernel_size: 3
    stride: 1
    weight_filler {
      type: "xavier"
    }
    bias_term: false
  }
}
layer {
  bottom: "inception_4d/3x3"
  name: "inception_4d/3x3/bn"
  top: "inception_4d/3x3/bn"
  type: "BatchNorm"
}
layer {
  bottom: "inception_4d/3x3/bn"
  top: "inception_4d/3x3/bn/sc"
  name: "inception_4d/3x3/bn/sc"
  type: "Scale"
  scale_param {
    bias_term: true
  }
}
layer {
  bottom: "inception_4d/3x3/bn/sc"
  top: "inception_4d/3x3/bn/sc"
  name: "inception_4d/3x3/bn/sc/relu"
  type: "ReLU"
}
layer {
 bottom: "inception_4c/output"
  top: "inception_4d/double3x3_reduce"
  name: "inception_4d/double3x3_reduce"
  type: "Convolution"
  param {
    name: "layer/inception_4d/double3x3_reduce"
    lr_mult: 1
    decay_mult: 1
  }
  convolution_param {
    num_output: 160
    pad: 0
    kernel_size: 1
    stride: 1
    weight_filler {
      type: "xavier"
    }
    bias_term: false
  }
}
layer {
  bottom: "inception_4d/double3x3_reduce"
  name: "inception_4d/double3x3_reduce/bn"
  top: "inception_4d/double3x3_reduce/bn"
  type: "BatchNorm"
}
layer {
  bottom: "inception_4d/double3x3_reduce/bn"
  top: "inception_4d/double3x3_reduce/bn/sc"
  name: "inception_4d/double3x3_reduce/bn/sc"
  type: "Scale"
  scale_param {
    bias_term: true
  }
}
layer {
  bottom: "inception_4d/double3x3_reduce/bn/sc"
  top: "inception_4d/double3x3_reduce/bn/sc"
  name: "inception_4d/double3x3_reduce/bn/sc/relu"
  type: "ReLU"
}
layer {
 bottom: "inception_4d/double3x3_reduce/bn/sc"
  top: "inception_4d/double3x3a"
  name: "inception_4d/double3x3a"
  type: "Convolution"
  param {
    name: "layer/inception_4d/double3x3a"
    lr_mult: 1
    decay_mult: 1
  }
  convolution_param {
    num_output: 192
    pad: 1
    kernel_size: 3
    stride: 1
    weight_filler {
      type: "xavier"
    }
    bias_term: false
  }
}
layer {
  bottom: "inception_4d/double3x3a"
  name: "inception_4d/double3x3a/bn"
  top: "inception_4d/double3x3a/bn"
  type: "BatchNorm"
}
layer {
  bottom: "inception_4d/double3x3a/bn"
  top: "inception_4d/double3x3a/bn/sc"
  name: "inception_4d/double3x3a/bn/sc"
  type: "Scale"
  scale_param {
    bias_term: true
  }
}
layer {
  bottom: "inception_4d/double3x3a/bn/sc"
  top: "inception_4d/double3x3a/bn/sc"
  name: "inception_4d/double3x3a/bn/sc/relu"
  type: "ReLU"
}
layer {
 bottom: "inception_4d/double3x3a/bn/sc"
  top: "inception_4d/double3x3b"
  name: "inception_4d/double3x3b"
  type: "Convolution"
  param {
    name: "layer/inception_4d/double3x3b"
    lr_mult: 1
    decay_mult: 1
  }
  convolution_param {
    num_output: 192
    pad: 1
    kernel_size: 3
    stride: 1
    weight_filler {
      type: "xavier"
    }
    bias_term: false
  }
}
layer {
  bottom: "inception_4d/double3x3b"
  name: "inception_4d/double3x3b/bn"
  top: "inception_4d/double3x3b/bn"
  type: "BatchNorm"
}
layer {
  bottom: "inception_4d/double3x3b/bn"
  top: "inception_4d/double3x3b/bn/sc"
  name: "inception_4d/double3x3b/bn/sc"
  type: "Scale"
  scale_param {
    bias_term: true
  }
}
layer {
  bottom: "inception_4d/double3x3b/bn/sc"
  top: "inception_4d/double3x3b/bn/sc"
  name: "inception_4d/double3x3b/bn/sc/relu"
  type: "ReLU"
}
layer {
  bottom: "inception_4c/output"
  top: "inception_4d/pool"
  name: "inception_4d/pool"
  type: "Pooling"
  pooling_param {
    pool: AVE
    kernel_size: 3
    stride: 1
    pad: 1
  }
}
layer {
 bottom: "inception_4d/pool"
  top: "inception_4d/pool_proj"
  name: "inception_4d/pool_proj"
  type: "Convolution"
  param {
    name: "layer/inception_4d/pool_proj"
    lr_mult: 1
    decay_mult: 1
  }
  convolution_param {
    num_output: 96
    pad: 0
    kernel_size: 1
    stride: 1
    weight_filler {
      type: "xavier"
    }
    bias_term: false
  }
}
layer {
  bottom: "inception_4d/pool_proj"
  name: "inception_4d/pool_proj/bn"
  top: "inception_4d/pool_proj/bn"
  type: "BatchNorm"
}
layer {
  bottom: "inception_4d/pool_proj/bn"
  top: "inception_4d/pool_proj/bn/sc"
  name: "inception_4d/pool_proj/bn/sc"
  type: "Scale"
  scale_param {
    bias_term: true
  }
}
layer {
  bottom: "inception_4d/pool_proj/bn/sc"
  top: "inception_4d/pool_proj/bn/sc"
  name: "inception_4d/pool_proj/bn/sc/relu"
  type: "ReLU"
}
layer {
  bottom: "inception_4d/1x1/bn/sc"
  bottom: "inception_4d/3x3/bn/sc"
  bottom: "inception_4d/double3x3b/bn/sc"
  bottom: "inception_4d/pool_proj/bn/sc"
  top: "inception_4d/output"
  name: "inception_4d/output"
  type: "Concat"
}
layer {
 bottom: "inception_4d/output"
  top: "inception_4e/3x3_reduce"
  name: "inception_4e/3x3_reduce"
  type: "Convolution"
  param {
    name: "layer/inception_4e/3x3_reduce"
    lr_mult: 1
    decay_mult: 1
  }
  convolution_param {
    num_output: 128
    pad: 0
    kernel_size: 1
    stride: 1
    weight_filler {
      type: "xavier"
    }
    bias_term: false
  }
}
layer {
  bottom: "inception_4e/3x3_reduce"
  name: "inception_4e/3x3_reduce/bn"
  top: "inception_4e/3x3_reduce/bn"
  type: "BatchNorm"
}
layer {
  bottom: "inception_4e/3x3_reduce/bn"
  top: "inception_4e/3x3_reduce/bn/sc"
  name: "inception_4e/3x3_reduce/bn/sc"
  type: "Scale"
  scale_param {
    bias_term: true
  }
}
layer {
  bottom: "inception_4e/3x3_reduce/bn/sc"
  top: "inception_4e/3x3_reduce/bn/sc"
  name: "inception_4e/3x3_reduce/bn/sc/relu"
  type: "ReLU"
}
layer {
 bottom: "inception_4e/3x3_reduce/bn/sc"
  top: "inception_4e/3x3"
  name: "inception_4e/3x3"
  type: "Convolution"
  param {
    name: "layer/inception_4e/3x3"
    lr_mult: 1
    decay_mult: 1
  }
  convolution_param {
    num_output: 192
    pad: 1
    kernel_size: 3
    stride: 2
    weight_filler {
      type: "xavier"
    }
    bias_term: false
  }
}
layer {
  bottom: "inception_4e/3x3"
  name: "inception_4e/3x3/bn"
  top: "inception_4e/3x3/bn"
  type: "BatchNorm"
}
layer {
  bottom: "inception_4e/3x3/bn"
  top: "inception_4e/3x3/bn/sc"
  name: "inception_4e/3x3/bn/sc"
  type: "Scale"
  scale_param {
    bias_term: true
  }
}
layer {
  bottom: "inception_4e/3x3/bn/sc"
  top: "inception_4e/3x3/bn/sc"
  name: "inception_4e/3x3/bn/sc/relu"
  type: "ReLU"
}
layer {
 bottom: "inception_4d/output"
  top: "inception_4e/double3x3_reduce"
  name: "inception_4e/double3x3_reduce"
  type: "Convolution"
  param {
    name: "layer/inception_4e/double3x3_reduce"
    lr_mult: 1
    decay_mult: 1
  }
  convolution_param {
    num_output: 192
    pad: 0
    kernel_size: 1
    stride: 1
    weight_filler {
      type: "xavier"
    }
    bias_term: false
  }
}
layer {
  bottom: "inception_4e/double3x3_reduce"
  name: "inception_4e/double3x3_reduce/bn"
  top: "inception_4e/double3x3_reduce/bn"
  type: "BatchNorm"
}
layer {
  bottom: "inception_4e/double3x3_reduce/bn"
  top: "inception_4e/double3x3_reduce/bn/sc"
  name: "inception_4e/double3x3_reduce/bn/sc"
  type: "Scale"
  scale_param {
    bias_term: true
  }
}
layer {
  bottom: "inception_4e/double3x3_reduce/bn/sc"
  top: "inception_4e/double3x3_reduce/bn/sc"
  name: "inception_4e/double3x3_reduce/bn/sc/relu"
  type: "ReLU"
}
layer {
 bottom: "inception_4e/double3x3_reduce/bn/sc"
  top: "inception_4e/double3x3a"
  name: "inception_4e/double3x3a"
  type: "Convolution"
  param {
    name: "layer/inception_4e/double3x3a"
    lr_mult: 1
    decay_mult: 1
  }
  convolution_param {
    num_output: 256
    pad: 1
    kernel_size: 3
    stride: 1
    weight_filler {
      type: "xavier"
    }
    bias_term: false
  }
}
layer {
  bottom: "inception_4e/double3x3a"
  name: "inception_4e/double3x3a/bn"
  top: "inception_4e/double3x3a/bn"
  type: "BatchNorm"
}
layer {
  bottom: "inception_4e/double3x3a/bn"
  top: "inception_4e/double3x3a/bn/sc"
  name: "inception_4e/double3x3a/bn/sc"
  type: "Scale"
  scale_param {
    bias_term: true
  }
}
layer {
  bottom: "inception_4e/double3x3a/bn/sc"
  top: "inception_4e/double3x3a/bn/sc"
  name: "inception_4e/double3x3a/bn/sc/relu"
  type: "ReLU"
}
layer {
 bottom: "inception_4e/double3x3a/bn/sc"
  top: "inception_4e/double3x3b"
  name: "inception_4e/double3x3b"
  type: "Convolution"
  param {
    name: "layer/inception_4e/double3x3b"
    lr_mult: 1
    decay_mult: 1
  }
  convolution_param {
    num_output: 256
    pad: 1
    kernel_size: 3
    stride: 2
    weight_filler {
      type: "xavier"
    }
    bias_term: false
  }
}
layer {
  bottom: "inception_4e/double3x3b"
  name: "inception_4e/double3x3b/bn"
  top: "inception_4e/double3x3b/bn"
  type: "BatchNorm"
}
layer {
  bottom: "inception_4e/double3x3b/bn"
  top: "inception_4e/double3x3b/bn/sc"
  name: "inception_4e/double3x3b/bn/sc"
  type: "Scale"
  scale_param {
    bias_term: true
  }
}
layer {
  bottom: "inception_4e/double3x3b/bn/sc"
  top: "inception_4e/double3x3b/bn/sc"
  name: "inception_4e/double3x3b/bn/sc/relu"
  type: "ReLU"
}
layer {
  bottom: "inception_4d/output"
  top: "inception_4e/pool"
  name: "inception_4e/pool"
  type: "Pooling"
  pooling_param {
    pool: MAX
    kernel_size: 3
    stride: 2
  }
}
layer {
  bottom: "inception_4e/3x3/bn/sc"
  bottom: "inception_4e/double3x3b/bn/sc"
  bottom: "inception_4e/pool"
  top: "inception_4e/output"
  name: "inception_4e/output"
  type: "Concat"
}


layer {
 bottom: "inception_4e/output"
  top: "inception_5a/1x1"
  name: "inception_5a/1x1"
  type: "Convolution"
  param {
    name: "layer/inception_5a/1x1"
    lr_mult: 1
    decay_mult: 1
  }
  convolution_param {
    num_output: 352
    pad: 0
    kernel_size: 1
    stride: 1
    weight_filler {
      type: "xavier"
    }
    bias_term: false
  }
}
layer {
  bottom: "inception_5a/1x1"
  name: "inception_5a/1x1/bn"
  top: "inception_5a/1x1/bn"
  type: "BatchNorm"
}
layer {
  bottom: "inception_5a/1x1/bn"
  top: "inception_5a/1x1/bn/sc"
  name: "inception_5a/1x1/bn/sc"
  type: "Scale"
  scale_param {
    bias_term: true
  }
}
layer {
  bottom: "inception_5a/1x1/bn/sc"
  top: "inception_5a/1x1/bn/sc"
  name: "inception_5a/1x1/bn/sc/relu"
  type: "ReLU"
}
layer {
 bottom: "inception_4e/output"
  top: "inception_5a/3x3_reduce"
  name: "inception_5a/3x3_reduce"
  type: "Convolution"
  param {
    name: "layer/inception_5a/3x3_reduce"
    lr_mult: 1
    decay_mult: 1
  }
  convolution_param {
    num_output: 192
    pad: 0
    kernel_size: 1
    stride: 1
    weight_filler {
      type: "xavier"
    }
    bias_term: false
  }
}
layer {
  bottom: "inception_5a/3x3_reduce"
  name: "inception_5a/3x3_reduce/bn"
  top: "inception_5a/3x3_reduce/bn"
  type: "BatchNorm"
}
layer {
  bottom: "inception_5a/3x3_reduce/bn"
  top: "inception_5a/3x3_reduce/bn/sc"
  name: "inception_5a/3x3_reduce/bn/sc"
  type: "Scale"
  scale_param {
    bias_term: true
  }
}
layer {
  bottom: "inception_5a/3x3_reduce/bn/sc"
  top: "inception_5a/3x3_reduce/bn/sc"
  name: "inception_5a/3x3_reduce/bn/sc/relu"
  type: "ReLU"
}
layer {
 bottom: "inception_5a/3x3_reduce/bn/sc"
  top: "inception_5a/3x3"
  name: "inception_5a/3x3"
  type: "Convolution"
  param {
    name: "layer/inception_5a/3x3"
    lr_mult: 1
    decay_mult: 1
  }
  convolution_param {
    num_output: 320
    pad: 1
    kernel_size: 3
    stride: 1
    weight_filler {
      type: "xavier"
    }
    bias_term: false
  }
}
layer {
  bottom: "inception_5a/3x3"
  name: "inception_5a/3x3/bn"
  top: "inception_5a/3x3/bn"
  type: "BatchNorm"
}
layer {
  bottom: "inception_5a/3x3/bn"
  top: "inception_5a/3x3/bn/sc"
  name: "inception_5a/3x3/bn/sc"
  type: "Scale"
  scale_param {
    bias_term: true
  }
}
layer {
  bottom: "inception_5a/3x3/bn/sc"
  top: "inception_5a/3x3/bn/sc"
  name: "inception_5a/3x3/bn/sc/relu"
  type: "ReLU"
}
layer {
 bottom: "inception_4e/output"
  top: "inception_5a/double3x3_reduce"
  name: "inception_5a/double3x3_reduce"
  type: "Convolution"
  param {
    name: "layer/inception_5a/double3x3_reduce"
    lr_mult: 1
    decay_mult: 1
  }
  convolution_param {
    num_output: 160
    pad: 0
    kernel_size: 1
    stride: 1
    weight_filler {
      type: "xavier"
    }
    bias_term: false
  }
}
layer {
  bottom: "inception_5a/double3x3_reduce"
  name: "inception_5a/double3x3_reduce/bn"
  top: "inception_5a/double3x3_reduce/bn"
  type: "BatchNorm"
}
layer {
  bottom: "inception_5a/double3x3_reduce/bn"
  top: "inception_5a/double3x3_reduce/bn/sc"
  name: "inception_5a/double3x3_reduce/bn/sc"
  type: "Scale"
  scale_param {
    bias_term: true
  }
}
layer {
  bottom: "inception_5a/double3x3_reduce/bn/sc"
  top: "inception_5a/double3x3_reduce/bn/sc"
  name: "inception_5a/double3x3_reduce/bn/sc/relu"
  type: "ReLU"
}
layer {
 bottom: "inception_5a/double3x3_reduce/bn/sc"
  top: "inception_5a/double3x3a"
  name: "inception_5a/double3x3a"
  type: "Convolution"
  param {
    name: "layer/inception_5a/double3x3a"
    lr_mult: 1
    decay_mult: 1
  }
  convolution_param {
    num_output: 224
    pad: 1
    kernel_size: 3
    stride: 1
    weight_filler {
      type: "xavier"
    }
    bias_term: false
  }
}
layer {
  bottom: "inception_5a/double3x3a"
  name: "inception_5a/double3x3a/bn"
  top: "inception_5a/double3x3a/bn"
  type: "BatchNorm"
}
layer {
  bottom: "inception_5a/double3x3a/bn"
  top: "inception_5a/double3x3a/bn/sc"
  name: "inception_5a/double3x3a/bn/sc"
  type: "Scale"
  scale_param {
    bias_term: true
  }
}
layer {
  bottom: "inception_5a/double3x3a/bn/sc"
  top: "inception_5a/double3x3a/bn/sc"
  name: "inception_5a/double3x3a/bn/sc/relu"
  type: "ReLU"
}
layer {
 bottom: "inception_5a/double3x3a/bn/sc"
  top: "inception_5a/double3x3b"
  name: "inception_5a/double3x3b"
  type: "Convolution"
  param {
    name: "layer/inception_5a/double3x3b"
    lr_mult: 1
    decay_mult: 1
  }
  convolution_param {
    num_output: 224
    pad: 1
    kernel_size: 3
    stride: 1
    weight_filler {
      type: "xavier"
    }
    bias_term: false
  }
}
layer {
  bottom: "inception_5a/double3x3b"
  name: "inception_5a/double3x3b/bn"
  top: "inception_5a/double3x3b/bn"
  type: "BatchNorm"
}
layer {
  bottom: "inception_5a/double3x3b/bn"
  top: "inception_5a/double3x3b/bn/sc"
  name: "inception_5a/double3x3b/bn/sc"
  type: "Scale"
  scale_param {
    bias_term: true
  }
}
layer {
  bottom: "inception_5a/double3x3b/bn/sc"
  top: "inception_5a/double3x3b/bn/sc"
  name: "inception_5a/double3x3b/bn/sc/relu"
  type: "ReLU"
}
layer {
  bottom: "inception_4e/output"
  top: "inception_5a/pool"
  name: "inception_5a/pool"
  type: "Pooling"
  pooling_param {
    pool: AVE
    kernel_size: 3
    stride: 1
    pad: 1
  }
}
layer {
 bottom: "inception_5a/pool"
  top: "inception_5a/pool_proj"
  name: "inception_5a/pool_proj"
  type: "Convolution"
  param {
    name: "layer/inception_5a/pool_proj"
    lr_mult: 1
    decay_mult: 1
  }
  convolution_param {
    num_output: 128
    pad: 0
    kernel_size: 1
    stride: 1
    weight_filler {
      type: "xavier"
    }
    bias_term: false
  }
}
layer {
  bottom: "inception_5a/pool_proj"
  name: "inception_5a/pool_proj/bn"
  top: "inception_5a/pool_proj/bn"
  type: "BatchNorm"
}
layer {
  bottom: "inception_5a/pool_proj/bn"
  top: "inception_5a/pool_proj/bn/sc"
  name: "inception_5a/pool_proj/bn/sc"
  type: "Scale"
  scale_param {
    bias_term: true
  }
}
layer {
  bottom: "inception_5a/pool_proj/bn/sc"
  top: "inception_5a/pool_proj/bn/sc"
  name: "inception_5a/pool_proj/bn/sc/relu"
  type: "ReLU"
}
layer {
  bottom: "inception_5a/1x1/bn/sc"
  bottom: "inception_5a/3x3/bn/sc"
  bottom: "inception_5a/double3x3b/bn/sc"
  bottom: "inception_5a/pool_proj/bn/sc"
  top: "inception_5a/output"
  name: "inception_5a/output"
  type: "Concat"
}
layer {
 bottom: "inception_5a/output"
  top: "inception_5b/1x1"
  name: "inception_5b/1x1"
  type: "Convolution"
  param {
    name: "layer/inception_5b/1x1"
    lr_mult: 1
    decay_mult: 1
  }
  convolution_param {
    num_output: 352
    pad: 0
    kernel_size: 1
    stride: 1
    weight_filler {
      type: "xavier"
    }
    bias_term: false
  }
}
layer {
  bottom: "inception_5b/1x1"
  name: "inception_5b/1x1/bn"
  top: "inception_5b/1x1/bn"
  type: "BatchNorm"
}
layer {
  bottom: "inception_5b/1x1/bn"
  top: "inception_5b/1x1/bn/sc"
  name: "inception_5b/1x1/bn/sc"
  type: "Scale"
  scale_param {
    bias_term: true
  }
}
layer {
  bottom: "inception_5b/1x1/bn/sc"
  top: "inception_5b/1x1/bn/sc"
  name: "inception_5b/1x1/bn/sc/relu"
  type: "ReLU"
}
layer {
 bottom: "inception_5a/output"
  top: "inception_5b/3x3_reduce"
  name: "inception_5b/3x3_reduce"
  type: "Convolution"
  param {
    name: "layer/inception_5b/3x3_reduce"
    lr_mult: 1
    decay_mult: 1
  }
  convolution_param {
    num_output: 192
    pad: 0
    kernel_size: 1
    stride: 1
    weight_filler {
      type: "xavier"
    }
    bias_term: false
  }
}
layer {
  bottom: "inception_5b/3x3_reduce"
  name: "inception_5b/3x3_reduce/bn"
  top: "inception_5b/3x3_reduce/bn"
  type: "BatchNorm"
}
layer {
  bottom: "inception_5b/3x3_reduce/bn"
  top: "inception_5b/3x3_reduce/bn/sc"
  name: "inception_5b/3x3_reduce/bn/sc"
  type: "Scale"
  scale_param {
    bias_term: true
  }
}
layer {
  bottom: "inception_5b/3x3_reduce/bn/sc"
  top: "inception_5b/3x3_reduce/bn/sc"
  name: "inception_5b/3x3_reduce/bn/sc/relu"
  type: "ReLU"
}
layer {
 bottom: "inception_5b/3x3_reduce/bn/sc"
  top: "inception_5b/3x3"
  name: "inception_5b/3x3"
  type: "Convolution"
  param {
    name: "layer/inception_5b/3x3"
    lr_mult: 1
    decay_mult: 1
  }
  convolution_param {
    num_output: 320
    pad: 1
    kernel_size: 3
    stride: 1
    weight_filler {
      type: "xavier"
    }
    bias_term: false
  }
}
layer {
  bottom: "inception_5b/3x3"
  name: "inception_5b/3x3/bn"
  top: "inception_5b/3x3/bn"
  type: "BatchNorm"
}
layer {
  bottom: "inception_5b/3x3/bn"
  top: "inception_5b/3x3/bn/sc"
  name: "inception_5b/3x3/bn/sc"
  type: "Scale"
  scale_param {
    bias_term: true
  }
}
layer {
  bottom: "inception_5b/3x3/bn/sc"
  top: "inception_5b/3x3/bn/sc"
  name: "inception_5b/3x3/bn/sc/relu"
  type: "ReLU"
}
layer {
 bottom: "inception_5a/output"
  top: "inception_5b/double3x3_reduce"
  name: "inception_5b/double3x3_reduce"
  type: "Convolution"
  param {
    name: "layer/inception_5b/double3x3_reduce"
    lr_mult: 1
    decay_mult: 1
  }
  convolution_param {
    num_output: 192
    pad: 0
    kernel_size: 1
    stride: 1
    weight_filler {
      type: "xavier"
    }
    bias_term: false
  }
}
layer {
  bottom: "inception_5b/double3x3_reduce"
  name: "inception_5b/double3x3_reduce/bn"
  top: "inception_5b/double3x3_reduce/bn"
  type: "BatchNorm"
}
layer {
  bottom: "inception_5b/double3x3_reduce/bn"
  top: "inception_5b/double3x3_reduce/bn/sc"
  name: "inception_5b/double3x3_reduce/bn/sc"
  type: "Scale"
  scale_param {
    bias_term: true
  }
}
layer {
  bottom: "inception_5b/double3x3_reduce/bn/sc"
  top: "inception_5b/double3x3_reduce/bn/sc"
  name: "inception_5b/double3x3_reduce/bn/sc/relu"
  type: "ReLU"
}
layer {
 bottom: "inception_5b/double3x3_reduce/bn/sc"
  top: "inception_5b/double3x3a"
  name: "inception_5b/double3x3a"
  type: "Convolution"
  param {
    name: "layer/inception_5b/double3x3a"
    lr_mult: 1
    decay_mult: 1
  }
  convolution_param {
    num_output: 224
    pad: 1
    kernel_size: 3
    stride: 1
    weight_filler {
      type: "xavier"
    }
    bias_term: false
  }
}
layer {
  bottom: "inception_5b/double3x3a"
  name: "inception_5b/double3x3a/bn"
  top: "inception_5b/double3x3a/bn"
  type: "BatchNorm"
}
layer {
  bottom: "inception_5b/double3x3a/bn"
  top: "inception_5b/double3x3a/bn/sc"
  name: "inception_5b/double3x3a/bn/sc"
  type: "Scale"
  scale_param {
    bias_term: true
  }
}
layer {
  bottom: "inception_5b/double3x3a/bn/sc"
  top: "inception_5b/double3x3a/bn/sc"
  name: "inception_5b/double3x3a/bn/sc/relu"
  type: "ReLU"
}
layer {
 bottom: "inception_5b/double3x3a/bn/sc"
  top: "inception_5b/double3x3b"
  name: "inception_5b/double3x3b"
  type: "Convolution"
  param {
    name: "layer/inception_5b/double3x3b"
    lr_mult: 1
    decay_mult: 1
  }
  convolution_param {
    num_output: 224
    pad: 1
    kernel_size: 3
    stride: 1
    weight_filler {
      type: "xavier"
    }
    bias_term: false
  }
}
layer {
  bottom: "inception_5b/double3x3b"
  name: "inception_5b/double3x3b/bn"
  top: "inception_5b/double3x3b/bn"
  type: "BatchNorm"
}
layer {
  bottom: "inception_5b/double3x3b/bn"
  top: "inception_5b/double3x3b/bn/sc"
  name: "inception_5b/double3x3b/bn/sc"
  type: "Scale"
  scale_param {
    bias_term: true
  }
}
layer {
  bottom: "inception_5b/double3x3b/bn/sc"
  top: "inception_5b/double3x3b/bn/sc"
  name: "inception_5b/double3x3b/bn/sc/relu"
  type: "ReLU"
}
layer {
  bottom: "inception_5a/output"
  top: "inception_5b/pool"
  name: "inception_5b/pool"
  type: "Pooling"
  pooling_param {
    pool: MAX
    kernel_size: 3
    stride: 1
    pad: 1
  }
}
layer {
 bottom: "inception_5b/pool"
  top: "inception_5b/pool_proj"
  name: "inception_5b/pool_proj"
  type: "Convolution"
  param {
    name: "layer/inception_5b/pool_proj"
    lr_mult: 1
    decay_mult: 1
  }
  convolution_param {
    num_output: 128
    pad: 0
    kernel_size: 1
    stride: 1
    weight_filler {
      type: "xavier"
    }
    bias_term: false
  }
}
layer {
  bottom: "inception_5b/pool_proj"
  name: "inception_5b/pool_proj/bn"
  top: "inception_5b/pool_proj/bn"
  type: "BatchNorm"
}
layer {
  bottom: "inception_5b/pool_proj/bn"
  top: "inception_5b/pool_proj/bn/sc"
  name: "inception_5b/pool_proj/bn/sc"
  type: "Scale"
  scale_param {
    bias_term: true
  }
}
layer {
  bottom: "inception_5b/pool_proj/bn/sc"
  top: "inception_5b/pool_proj/bn/sc"
  name: "inception_5b/pool_proj/bn/sc/relu"
  type: "ReLU"
}
layer {
  bottom: "inception_5b/1x1/bn/sc"
  bottom: "inception_5b/3x3/bn/sc"
  bottom: "inception_5b/double3x3b/bn/sc"
  bottom: "inception_5b/pool_proj/bn/sc"
  top: "inception_5b/output"
  name: "inception_5b/output"
  type: "Concat"
}



############################fc_layer###################

#############layer1_head############
layer{
    name: "layer1/fc6"
    type: "Convolution"  
    bottom: "layer1/inception_5b/output"
    top: "layer1/fc6"
    param {
        lr_mult: 1
        decay_mult: 1
      }
    param {
        lr_mult: 2
        decay_mult: 0
      }
    convolution_param {
        num_output: 1024
        kernel_size: 1
        weight_filler {
            type: "xavier"
            std: 0.1
          }
        bias_filler {
            type: "constant"
            value: 0.2
          }
      }
  }


layer {
  bottom: "layer1/fc6"
  name: "layer1/fc6/bn"
  top: "layer1/fc6/bn"
  type: "BatchNorm"
}
layer {
  bottom: "layer1/fc6/bn"
  top: "layer1/fc6/bn/sc"
  name: "layer1/fc6/bn/sc"
  type: "Scale"
  scale_param {
    bias_term: true
  }
}
layer {
  bottom: "layer1/fc6/bn/sc"
  top: "layer1/fc6/bn/sc"
  name: "layer1/fc6/bn/sc/relu"
  type: "ReLU"
}

layer{
    name: "layer1/conv751"
    type: "Convolution"
    bottom: "layer1/fc6/bn/sc"
    top: "layer1/conv751"
    param {
        lr_mult: 1
        decay_mult: 1
      }
    param {
        lr_mult: 2
        decay_mult: 0
      }
    convolution_param {
        num_output: 751
        kernel_size: 1
        weight_filler {
            type: "xavier"
            std: 0.1
          }
    bias_filler {
            type: "constant"
            value: 0.2
          }
      }
  }


layer {
    name: "layer1/conv751/pool"
    type: "Pooling"
    bottom: "layer1/conv751"
    top: "layer1/conv751/pool"
    pooling_param {
        pool: AVE
        global_pooling: true
      }
  }

layer {
    name: "layer1/loss"
    type: "SoftmaxWithLoss"
    bottom:"layer1/conv751/pool"
    bottom: "label"
    top: "layer1/loss"
    loss_weight: 0.25
  }

layer {
    name: "layer1/Accuracy"
    type: "Accuracy"
    bottom: "layer1/conv751/pool"
    bottom: "label"
    top: "layer1/Accuracy"
    include {
        phase: TEST
      }
  }

layer {
  bottom: "layer1/conv751/pool"
  bottom: "label"
  top: "layer1/Accuracy/top-5"
  name: "layer1/Accuracy/top-5"
  type: "Accuracy"
  accuracy_param {
    top_k: 5
  }
  include {
    phase: TEST
  }
}
############layer2_upper############
layer{
    name: "layer2/fc6"
    type: "Convolution"  
    bottom: "layer2/inception_5b/output"
    top: "layer2/fc6"
    param {
        lr_mult: 1
        decay_mult: 1
      }
    param {
        lr_mult: 2
        decay_mult: 0
      }
    convolution_param {
        num_output: 1024
        kernel_size: 1
        weight_filler {
            type: "xavier"
            std: 0.1
          }
        bias_filler {
            type: "constant"
            value: 0.2
          }
      }
  }


layer {
  bottom: "layer2/fc6"
  name: "layer2/fc6/bn"
  top: "layer2/fc6/bn"
  type: "BatchNorm"
}
layer {
  bottom: "layer2/fc6/bn"
  top: "layer2/fc6/bn/sc"
  name: "layer2/fc6/bn/sc"
  type: "Scale"
  scale_param {
    bias_term: true
  }
}
layer {
  bottom: "layer2/fc6/bn/sc"
  top: "layer2/fc6/bn/sc"
  name: "layer2/fc6/bn/sc/relu"
  type: "ReLU"
}

layer{
    name: "layer2/conv751"
    type: "Convolution"
    bottom: "layer2/fc6/bn/sc"
    top: "layer2/conv751"
    param {
        lr_mult: 1
        decay_mult: 1
      }
    param {
        lr_mult: 2
        decay_mult: 0
      }
    convolution_param {
        num_output: 751
        kernel_size: 1
        weight_filler {
            type: "xavier"
            std: 0.1
          }
    bias_filler {
            type: "constant"
            value: 0.2
          }
      }
  }


layer {
    name: "layer2/conv751/pool"
    type: "Pooling"
    bottom: "layer2/conv751"
    top: "layer2/conv751/pool"
    pooling_param {
        pool: AVE
        global_pooling: true
      }
  }

layer {
    name: "layer2/loss"
    type: "SoftmaxWithLoss"
    bottom:"layer2/conv751/pool"
    bottom: "label"
    top: "layer2/loss"
    loss_weight: 0.4
  }

layer {
    name: "layer2/Accuracy"
    type: "Accuracy"
    bottom: "layer2/conv751/pool"
    bottom: "label"
    top: "layer2/Accuracy"
    include {
        phase: TEST
      }
  }

layer {
  bottom: "layer2/conv751/pool"
  bottom: "label"
  top: "layer2/Accuracy/top-5"
  name: "layer2/Accuracy/top-5"
  type: "Accuracy"
  accuracy_param {
    top_k: 5
  }
  include {
    phase: TEST
  }
}

############layer3_lower###########
layer{
    name: "layer3/fc6"
    type: "Convolution"  
    bottom: "layer3/inception_5b/output"
    top: "layer3/fc6"
    param {
        lr_mult: 1
        decay_mult: 1
      }
    param {
        lr_mult: 2
        decay_mult: 0
      }
    convolution_param {
        num_output: 1024
        kernel_size: 1
        weight_filler {
            type: "xavier"
            std: 0.1
          }
        bias_filler {
            type: "constant"
            value: 0.2
          }
      }
  }


layer {
  bottom: "layer3/fc6"
  name: "layer3/fc6/bn"
  top: "layer3/fc6/bn"
  type: "BatchNorm"
}
layer {
  bottom: "layer3/fc6/bn"
  top: "layer3/fc6/bn/sc"
  name: "layer3/fc6/bn/sc"
  type: "Scale"
  scale_param {
    bias_term: true
  }
}
layer {
  bottom: "layer3/fc6/bn/sc"
  top: "layer3/fc6/bn/sc"
  name: "layer3/fc6/bn/sc/relu"
  type: "ReLU"
}

layer{
    name: "layer3/conv751"
    type: "Convolution"
    bottom: "layer3/fc6/bn/sc"
    top: "layer3/conv751"
    param {
        lr_mult: 1
        decay_mult: 1
      }
    param {
        lr_mult: 2
        decay_mult: 0
      }
    convolution_param {
        num_output: 751
        kernel_size: 1
        weight_filler {
            type: "xavier"
            std: 0.1
          }
    bias_filler {
            type: "constant"
            value: 0.2
          }
      }
  }


layer {
    name: "layer3/conv751/pool"
    type: "Pooling"
    bottom: "layer3/conv751"
    top: "layer3/conv751/pool"
    pooling_param {
        pool: AVE
        global_pooling: true
      }
  }

layer {
    name: "layer3/loss"
    type: "SoftmaxWithLoss"
    bottom:"layer3/conv751/pool"
    bottom: "label"
    top: "layer3/loss"
    loss_weight: 0.35
  }

layer {
    name: "layer3/Accuracy"
    type: "Accuracy"
    bottom: "layer3/conv751/pool"
    bottom: "label"
    top: "layer3/Accuracy"
    include {
        phase: TEST
      }
  }

layer {
  bottom: "layer3/conv751/pool"
  bottom: "label"
  top: "layer3/Accuracy/top-5"
  name: "layer3/Accuracy/top-5"
  type: "Accuracy"
  accuracy_param {
    top_k: 5
  }
  include {
    phase: TEST
  }
}

###########full_data###############

layer{
    name: "fc6"
    type: "Convolution"  
    bottom: "inception_5b/output"
    top: "fc6"
    param {
        lr_mult: 1
        decay_mult: 1
      }
    param {
        lr_mult: 2
        decay_mult: 0
      }
    convolution_param {
        num_output: 1024
        kernel_size: 1
        weight_filler {
            type: "xavier"
            std: 0.1
          }
        bias_filler {
            type: "constant"
            value: 0.2
          }
      }
  }


layer {
  bottom: "fc6"
  name: "fc6/bn"
  top: "fc6/bn"
  type: "BatchNorm"
}
layer {
  bottom: "fc6/bn"
  top: "fc6/bn/sc"
  name: "fc6/bn/sc"
  type: "Scale"
  scale_param {
    bias_term: true
  }
}
layer {
  bottom: "fc6/bn/sc"
  top: "fc6/bn/sc"
  name: "fc6/bn/sc/relu"
  type: "ReLU"
}

layer{
    name: "conv751"
    type: "Convolution"
    bottom: "fc6/bn/sc"
    top: "conv751"
    param {
        lr_mult: 1
        decay_mult: 1
      }
    param {
        lr_mult: 2
        decay_mult: 0
      }
    convolution_param {
        num_output: 751
        kernel_size: 1
        weight_filler {
            type: "xavier"
            std: 0.1
          }
	  bias_filler {
            type: "constant"
            value: 0.2
          }
      }
  }


layer {
    name: "conv751/pool"
    type: "Pooling"
    bottom: "conv751"
    top: "conv751/pool"
    pooling_param {
        pool: AVE
        global_pooling: true
      }
  }

layer {
    name: "loss"
    type: "SoftmaxWithLoss"
    bottom:"conv751/pool"
    bottom: "label"
    top: "loss"
    loss_weight: 1
  }

layer {
    name: "Accuracy"
    type: "Accuracy"
    bottom: "conv751/pool"
    bottom: "label"
    top: "Accuracy"
    include {
        phase: TEST
      }
  }

layer {
  bottom: "conv751/pool"
  bottom: "label"
  top: "Accuracy/top-5"
  name: "Accuracy/top-5"
  type: "Accuracy"
  accuracy_param {
    top_k: 5
  }
  include {
    phase: TEST
  }
}




























