…
I0824 17:17:22.382287 45867 net.cpp:322] The NetState phase (0) differed from the phase (1) specified by a rule in layer accuracy
I0824 17:17:22.382465 45867 net.cpp:58] Initializing net from parameters: 
name: "CIFAR10_full"
state {
  phase: TRAIN
  level: 0
  stage: ""
}
layer {
  name: "cifar"
  type: "Data"
  top: "data"
  top: "label"
  include {
    phase: TRAIN
  }
  transform_param {
    mean_file: "examples/cifar10/mean.binaryproto"
  }
  data_param {
    source: "examples/cifar10/cifar10_train_lmdb"
    batch_size: 111
    backend: LMDB
  }
}
layer {
  name: "conv1"
  type: "Convolution"
  bottom: "data"
  top: "conv1"
  param {
    lr_mult: 1
  }
  param {
    lr_mult: 2
  }
  convolution_param {
    num_output: 32
    pad: 2
    kernel_size: 5
    stride: 1
    weight_filler {
      type: "gaussian"
      std: 0.0001
    }
    bias_filler {
      type: "constant"
    }
  }
}
layer {
  name: "pool1"
  type: "Pooling"
  bottom: "conv1"
  top: "pool1"
  pooling_param {
    pool: MAX
    kernel_size: 3
    stride: 2
  }
}
layer {
  name: "Sigmoid1"
  type: "Sigmoid"
  bottom: "pool1"
  top: "Sigmoid1"
}
layer {
  name: "conv2"
  type: "Convolution"
  bottom: "Sigmoid1"
  top: "conv2"
  param {
    lr_mult: 1
  }
  param {
    lr_mult: 2
  }
  convolution_param {
    num_output: 32
    pad: 2
    kernel_size: 5
    stride: 1
    weight_filler {
      type: "gaussian"
      std: 0.01
    }
    bias_filler {
      type: "constant"
    }
  }
}
layer {
  name: "Sigmoid2"
  type: "Sigmoid"
  bottom: "conv2"
  top: "Sigmoid2"
}
layer {
  name: "pool2"
  type: "Pooling"
  bottom: "Sigmoid2"
  top: "pool2"
  pooling_param {
    pool: AVE
    kernel_size: 3
    stride: 2
  }
}
layer {
  name: "conv3"
  type: "Convolution"
  bottom: "pool2"
  top: "conv3"
  param {
    lr_mult: 1
  }
  param {
    lr_mult: 1
  }
  convolution_param {
    num_output: 64
    pad: 2
    kernel_size: 5
    stride: 1
    weight_filler {
      type: "gaussian"
      std: 0.01
    }
    bias_filler {
      type: "constant"
    }
  }
}
layer {
  name: "Sigmoid3"
  type: "Sigmoid"
  bottom: "conv3"
  top: "Sigmoid3"
}
layer {
  name: "pool3"
  type: "Pooling"
  bottom: "Sigmoid3"
  top: "pool3"
  pooling_param {
    pool: AVE
    kernel_size: 3
    stride: 2
  }
}
layer {
  name: "ip1"
  type: "InnerProduct"
  bottom: "pool3"
  top: "ip1"
  param {
    lr_mult: 1
    decay_mult: 0
  }
  param {
    lr_mult: 2
    decay_mult: 0
  }
  inner_product_param {
    num_output: 10
    weight_filler {
      type: "gaussian"
      std: 0.01
    }
    bias_filler {
      type: "constant"
    }
  }
}
layer {
  name: "loss"
  type: "SoftmaxWithLoss"
  bottom: "ip1"
  bottom: "label"
  top: "loss"
}
I0824 17:17:22.382566 45867 layer_factory.hpp:77] Creating layer cifar
I0824 17:17:22.383281 45867 net.cpp:100] Creating Layer cifar
I0824 17:17:22.383321 45867 net.cpp:408] cifar -> data
I0824 17:17:22.383354 45867 net.cpp:408] cifar -> label
I0824 17:17:22.383378 45867 data_transformer.cpp:25] Loading mean file from: examples/cifar10/mean.binaryproto
I0824 17:17:22.388589 45881 db_lmdb.cpp:35] Opened lmdb examples/cifar10/cifar10_train_lmdb
I0824 17:17:22.402200 45867 data_layer.cpp:41] output data size: 111,3,32,32
I0824 17:17:22.407886 45867 net.cpp:150] Setting up cifar
I0824 17:17:22.407917 45867 net.cpp:157] Top shape: 111 3 32 32 (340992)
I0824 17:17:22.407946 45867 net.cpp:157] Top shape: 111 (111)
I0824 17:17:22.407951 45867 net.cpp:165] Memory required for data: 1364412
I0824 17:17:22.407963 45867 layer_factory.hpp:77] Creating layer conv1
I0824 17:17:22.407986 45867 net.cpp:100] Creating Layer conv1
I0824 17:17:22.407995 45867 net.cpp:434] conv1 <- data
I0824 17:17:22.408011 45867 net.cpp:408] conv1 -> conv1
I0824 17:17:22.618818 45867 net.cpp:150] Setting up conv1
I0824 17:17:22.618868 45867 net.cpp:157] Top shape: 111 32 32 32 (3637248)
I0824 17:17:22.618875 45867 net.cpp:165] Memory required for data: 15913404
I0824 17:17:22.618899 45867 layer_factory.hpp:77] Creating layer pool1
I0824 17:17:22.618918 45867 net.cpp:100] Creating Layer pool1
I0824 17:17:22.618926 45867 net.cpp:434] pool1 <- conv1
I0824 17:17:22.618935 45867 net.cpp:408] pool1 -> pool1
I0824 17:17:22.618999 45867 net.cpp:150] Setting up pool1
I0824 17:17:22.619010 45867 net.cpp:157] Top shape: 111 32 16 16 (909312)
I0824 17:17:22.619015 45867 net.cpp:165] Memory required for data: 19550652
I0824 17:17:22.619020 45867 layer_factory.hpp:77] Creating layer Sigmoid1
I0824 17:17:22.619031 45867 net.cpp:100] Creating Layer Sigmoid1
I0824 17:17:22.619036 45867 net.cpp:434] Sigmoid1 <- pool1
I0824 17:17:22.619045 45867 net.cpp:408] Sigmoid1 -> Sigmoid1
I0824 17:17:22.619246 45867 net.cpp:150] Setting up Sigmoid1
I0824 17:17:22.619259 45867 net.cpp:157] Top shape: 111 32 16 16 (909312)
I0824 17:17:22.619264 45867 net.cpp:165] Memory required for data: 23187900
I0824 17:17:22.619271 45867 layer_factory.hpp:77] Creating layer conv2
I0824 17:17:22.619287 45867 net.cpp:100] Creating Layer conv2
I0824 17:17:22.619294 45867 net.cpp:434] conv2 <- Sigmoid1
I0824 17:17:22.619303 45867 net.cpp:408] conv2 -> conv2
I0824 17:17:22.622251 45867 net.cpp:150] Setting up conv2
I0824 17:17:22.622269 45867 net.cpp:157] Top shape: 111 32 16 16 (909312)
I0824 17:17:22.622275 45867 net.cpp:165] Memory required for data: 26825148
I0824 17:17:22.622288 45867 layer_factory.hpp:77] Creating layer Sigmoid2
I0824 17:17:22.622298 45867 net.cpp:100] Creating Layer Sigmoid2
I0824 17:17:22.622304 45867 net.cpp:434] Sigmoid2 <- conv2
I0824 17:17:22.622313 45867 net.cpp:408] Sigmoid2 -> Sigmoid2
I0824 17:17:22.622690 45867 net.cpp:150] Setting up Sigmoid2
I0824 17:17:22.622709 45867 net.cpp:157] Top shape: 111 32 16 16 (909312)
I0824 17:17:22.622714 45867 net.cpp:165] Memory required for data: 30462396
I0824 17:17:22.622720 45867 layer_factory.hpp:77] Creating layer pool2
I0824 17:17:22.622730 45867 net.cpp:100] Creating Layer pool2
I0824 17:17:22.622735 45867 net.cpp:434] pool2 <- Sigmoid2
I0824 17:17:22.622743 45867 net.cpp:408] pool2 -> pool2
I0824 17:17:22.622934 45867 net.cpp:150] Setting up pool2
I0824 17:17:22.622948 45867 net.cpp:157] Top shape: 111 32 8 8 (227328)
I0824 17:17:22.622953 45867 net.cpp:165] Memory required for data: 31371708
I0824 17:17:22.622958 45867 layer_factory.hpp:77] Creating layer conv3
I0824 17:17:22.622972 45867 net.cpp:100] Creating Layer conv3
I0824 17:17:22.622978 45867 net.cpp:434] conv3 <- pool2
I0824 17:17:22.622987 45867 net.cpp:408] conv3 -> conv3
I0824 17:17:22.626107 45867 net.cpp:150] Setting up conv3
I0824 17:17:22.626127 45867 net.cpp:157] Top shape: 111 64 8 8 (454656)
I0824 17:17:22.626132 45867 net.cpp:165] Memory required for data: 33190332
I0824 17:17:22.626144 45867 layer_factory.hpp:77] Creating layer Sigmoid3
I0824 17:17:22.626154 45867 net.cpp:100] Creating Layer Sigmoid3
I0824 17:17:22.626160 45867 net.cpp:434] Sigmoid3 <- conv3
I0824 17:17:22.626168 45867 net.cpp:408] Sigmoid3 -> Sigmoid3
I0824 17:17:22.626543 45867 net.cpp:150] Setting up Sigmoid3
I0824 17:17:22.626560 45867 net.cpp:157] Top shape: 111 64 8 8 (454656)
I0824 17:17:22.626566 45867 net.cpp:165] Memory required for data: 35008956
I0824 17:17:22.626572 45867 layer_factory.hpp:77] Creating layer pool3
I0824 17:17:22.626581 45867 net.cpp:100] Creating Layer pool3
I0824 17:17:22.626587 45867 net.cpp:434] pool3 <- Sigmoid3
I0824 17:17:22.626595 45867 net.cpp:408] pool3 -> pool3
I0824 17:17:22.626790 45867 net.cpp:150] Setting up pool3
I0824 17:17:22.626816 45867 net.cpp:157] Top shape: 111 64 4 4 (113664)
I0824 17:17:22.626821 45867 net.cpp:165] Memory required for data: 35463612
I0824 17:17:22.626827 45867 layer_factory.hpp:77] Creating layer ip1
I0824 17:17:22.626840 45867 net.cpp:100] Creating Layer ip1
I0824 17:17:22.626847 45867 net.cpp:434] ip1 <- pool3
I0824 17:17:22.626854 45867 net.cpp:408] ip1 -> ip1
I0824 17:17:22.628407 45867 net.cpp:150] Setting up ip1
I0824 17:17:22.628425 45867 net.cpp:157] Top shape: 111 10 (1110)
I0824 17:17:22.628430 45867 net.cpp:165] Memory required for data: 35468052
I0824 17:17:22.628439 45867 layer_factory.hpp:77] Creating layer loss
I0824 17:17:22.628453 45867 net.cpp:100] Creating Layer loss
I0824 17:17:22.628459 45867 net.cpp:434] loss <- ip1
I0824 17:17:22.628465 45867 net.cpp:434] loss <- label
I0824 17:17:22.628474 45867 net.cpp:408] loss -> loss
I0824 17:17:22.628494 45867 layer_factory.hpp:77] Creating layer loss
…
I0824 17:17:22.629798 45867 solver.cpp:181] Creating test net (#0) specified by net file: examples/cifar10/cifar10_full_sigmoid_train_test.prototxt
I0824 17:17:22.629842 45867 net.cpp:322] The NetState phase (1) differed from the phase (0) specified by a rule in layer cifar
I0824 17:17:22.630033 45867 net.cpp:58] Initializing net from parameters: 
name: "CIFAR10_full"
state {
  phase: TEST
}
layer {
  name: "cifar"
  type: "Data"
  top: "data"
  top: "label"
  include {
    phase: TEST
  }
  transform_param {
    mean_file: "examples/cifar10/mean.binaryproto"
  }
  data_param {
    source: "examples/cifar10/cifar10_test_lmdb"
    batch_size: 1000
    backend: LMDB
  }
}
layer {
  name: "conv1"
  type: "Convolution"
  bottom: "data"
  top: "conv1"
  param {
    lr_mult: 1
  }
  param {
    lr_mult: 2
  }
  convolution_param {
    num_output: 32
    pad: 2
    kernel_size: 5
    stride: 1
    weight_filler {
      type: "gaussian"
      std: 0.0001
    }
    bias_filler {
      type: "constant"
    }
  }
}
layer {
  name: "pool1"
  type: "Pooling"
  bottom: "conv1"
  top: "pool1"
  pooling_param {
    pool: MAX
    kernel_size: 3
    stride: 2
  }
}
layer {
  name: "Sigmoid1"
  type: "Sigmoid"
  bottom: "pool1"
  top: "Sigmoid1"
}
layer {
  name: "conv2"
  type: "Convolution"
  bottom: "Sigmoid1"
  top: "conv2"
  param {
    lr_mult: 1
  }
  param {
    lr_mult: 2
  }
  convolution_param {
    num_output: 32
    pad: 2
    kernel_size: 5
    stride: 1
    weight_filler {
      type: "gaussian"
      std: 0.01
    }
    bias_filler {
      type: "constant"
    }
  }
}
layer {
  name: "Sigmoid2"
  type: "Sigmoid"
  bottom: "conv2"
  top: "Sigmoid2"
}
layer {
  name: "pool2"
  type: "Pooling"
  bottom: "Sigmoid2"
  top: "pool2"
  pooling_param {
    pool: AVE
    kernel_size: 3
    stride: 2
  }
}
layer {
  name: "conv3"
  type: "Convolution"
  bottom: "pool2"
  top: "conv3"
  param {
    lr_mult: 1
  }
  param {
    lr_mult: 1
  }
  convolution_param {
    num_output: 64
    pad: 2
    kernel_size: 5
    stride: 1
    weight_filler {
      type: "gaussian"
      std: 0.01
    }
    bias_filler {
      type: "constant"
    }
  }
}
layer {
  name: "Sigmoid3"
  type: "Sigmoid"
  bottom: "conv3"
  top: "Sigmoid3"
}
layer {
  name: "pool3"
  type: "Pooling"
  bottom: "Sigmoid3"
  top: "pool3"
  pooling_param {
    pool: AVE
    kernel_size: 3
    stride: 2
  }
}
layer {
  name: "ip1"
  type: "InnerProduct"
  bottom: "pool3"
  top: "ip1"
  param {
    lr_mult: 1
    decay_mult: 0
  }
  param {
    lr_mult: 2
    decay_mult: 0
  }
  inner_product_param {
    num_output: 10
    weight_filler {
      type: "gaussian"
      std: 0.01
    }
    bias_filler {
      type: "constant"
    }
  }
}
layer {
  name: "accuracy"
  type: "Accuracy"
  bottom: "ip1"
  bottom: "label"
  top: "accuracy"
  include {
    phase: TEST
  }
}
layer {
  name: "loss"
  type: "SoftmaxWithLoss"
  bottom: "ip1"
  bottom: "label"
  top: "loss"
}
I0824 17:17:22.630141 45867 layer_factory.hpp:77] Creating layer cifar
I0824 17:17:22.630800 45867 net.cpp:100] Creating Layer cifar
I0824 17:17:22.630818 45867 net.cpp:408] cifar -> data
I0824 17:17:22.630831 45867 net.cpp:408] cifar -> label
I0824 17:17:22.630846 45867 data_transformer.cpp:25] Loading mean file from: examples/cifar10/mean.binaryproto
I0824 17:17:22.636198 45883 db_lmdb.cpp:35] Opened lmdb examples/cifar10/cifar10_test_lmdb
I0824 17:17:22.636448 45867 data_layer.cpp:41] output data size: 1000,3,32,32
I0824 17:17:22.665941 45867 net.cpp:150] Setting up cifar
I0824 17:17:22.665967 45867 net.cpp:157] Top shape: 1000 3 32 32 (3072000)
I0824 17:17:22.665977 45867 net.cpp:157] Top shape: 1000 (1000)
I0824 17:17:22.665982 45867 net.cpp:165] Memory required for data: 12292000
I0824 17:17:22.665987 45867 layer_factory.hpp:77] Creating layer label_cifar_1_split
I0824 17:17:22.666020 45867 net.cpp:100] Creating Layer label_cifar_1_split
I0824 17:17:22.666030 45867 net.cpp:434] label_cifar_1_split <- label
I0824 17:17:22.666039 45867 net.cpp:408] label_cifar_1_split -> label_cifar_1_split_0
I0824 17:17:22.666052 45867 net.cpp:408] label_cifar_1_split -> label_cifar_1_split_1
I0824 17:17:22.666184 45867 net.cpp:150] Setting up label_cifar_1_split
I0824 17:17:22.666199 45867 net.cpp:157] Top shape: 1000 (1000)
I0824 17:17:22.666206 45867 net.cpp:157] Top shape: 1000 (1000)
I0824 17:17:22.666211 45867 net.cpp:165] Memory required for data: 12300000
I0824 17:17:22.666218 45867 layer_factory.hpp:77] Creating layer conv1
I0824 17:17:22.666236 45867 net.cpp:100] Creating Layer conv1
I0824 17:17:22.666245 45867 net.cpp:434] conv1 <- data
I0824 17:17:22.666259 45867 net.cpp:408] conv1 -> conv1
I0824 17:17:22.669318 45867 net.cpp:150] Setting up conv1
I0824 17:17:22.669425 45867 net.cpp:157] Top shape: 1000 32 32 32 (32768000)
I0824 17:17:22.669432 45867 net.cpp:165] Memory required for data: 143372000
I0824 17:17:22.669448 45867 layer_factory.hpp:77] Creating layer pool1
I0824 17:17:22.669459 45867 net.cpp:100] Creating Layer pool1
I0824 17:17:22.669466 45867 net.cpp:434] pool1 <- conv1
I0824 17:17:22.669538 45867 net.cpp:408] pool1 -> pool1
I0824 17:17:22.669684 45867 net.cpp:150] Setting up pool1
I0824 17:17:22.669700 45867 net.cpp:157] Top shape: 1000 32 16 16 (8192000)
I0824 17:17:22.669706 45867 net.cpp:165] Memory required for data: 176140000
I0824 17:17:22.669713 45867 layer_factory.hpp:77] Creating layer Sigmoid1
I0824 17:17:22.669723 45867 net.cpp:100] Creating Layer Sigmoid1
I0824 17:17:22.669728 45867 net.cpp:434] Sigmoid1 <- pool1
I0824 17:17:22.669737 45867 net.cpp:408] Sigmoid1 -> Sigmoid1
I0824 17:17:22.670212 45867 net.cpp:150] Setting up Sigmoid1
I0824 17:17:22.670233 45867 net.cpp:157] Top shape: 1000 32 16 16 (8192000)
I0824 17:17:22.670239 45867 net.cpp:165] Memory required for data: 208908000
I0824 17:17:22.670246 45867 layer_factory.hpp:77] Creating layer conv2
I0824 17:17:22.670275 45867 net.cpp:100] Creating Layer conv2
I0824 17:17:22.670294 45867 net.cpp:434] conv2 <- Sigmoid1
I0824 17:17:22.670306 45867 net.cpp:408] conv2 -> conv2
I0824 17:17:22.674175 45867 net.cpp:150] Setting up conv2
I0824 17:17:22.674198 45867 net.cpp:157] Top shape: 1000 32 16 16 (8192000)
I0824 17:17:22.674206 45867 net.cpp:165] Memory required for data: 241676000
I0824 17:17:22.674224 45867 layer_factory.hpp:77] Creating layer Sigmoid2
I0824 17:17:22.674239 45867 net.cpp:100] Creating Layer Sigmoid2
I0824 17:17:22.674247 45867 net.cpp:434] Sigmoid2 <- conv2
I0824 17:17:22.674264 45867 net.cpp:408] Sigmoid2 -> Sigmoid2
I0824 17:17:22.674587 45867 net.cpp:150] Setting up Sigmoid2
I0824 17:17:22.674607 45867 net.cpp:157] Top shape: 1000 32 16 16 (8192000)
I0824 17:17:22.674613 45867 net.cpp:165] Memory required for data: 274444000
I0824 17:17:22.674620 45867 layer_factory.hpp:77] Creating layer pool2
I0824 17:17:22.674643 45867 net.cpp:100] Creating Layer pool2
I0824 17:17:22.674651 45867 net.cpp:434] pool2 <- Sigmoid2
I0824 17:17:22.674669 45867 net.cpp:408] pool2 -> pool2
I0824 17:17:22.675196 45867 net.cpp:150] Setting up pool2
I0824 17:17:22.675227 45867 net.cpp:157] Top shape: 1000 32 8 8 (2048000)
I0824 17:17:22.675237 45867 net.cpp:165] Memory required for data: 282636000
I0824 17:17:22.675243 45867 layer_factory.hpp:77] Creating layer conv3
I0824 17:17:22.675266 45867 net.cpp:100] Creating Layer conv3
I0824 17:17:22.675277 45867 net.cpp:434] conv3 <- pool2
I0824 17:17:22.675299 45867 net.cpp:408] conv3 -> conv3
I0824 17:17:22.679481 45867 net.cpp:150] Setting up conv3
I0824 17:17:22.679507 45867 net.cpp:157] Top shape: 1000 64 8 8 (4096000)
I0824 17:17:22.679517 45867 net.cpp:165] Memory required for data: 299020000
I0824 17:17:22.679539 45867 layer_factory.hpp:77] Creating layer Sigmoid3
I0824 17:17:22.679553 45867 net.cpp:100] Creating Layer Sigmoid3
I0824 17:17:22.679570 45867 net.cpp:434] Sigmoid3 <- conv3
I0824 17:17:22.679584 45867 net.cpp:408] Sigmoid3 -> Sigmoid3
I0824 17:17:22.680328 45867 net.cpp:150] Setting up Sigmoid3
I0824 17:17:22.680351 45867 net.cpp:157] Top shape: 1000 64 8 8 (4096000)
I0824 17:17:22.680358 45867 net.cpp:165] Memory required for data: 315404000
I0824 17:17:22.680371 45867 layer_factory.hpp:77] Creating layer pool3
I0824 17:17:22.680387 45867 net.cpp:100] Creating Layer pool3
I0824 17:17:22.680395 45867 net.cpp:434] pool3 <- Sigmoid3
I0824 17:17:22.680407 45867 net.cpp:408] pool3 -> pool3
I0824 17:17:22.680971 45867 net.cpp:150] Setting up pool3
I0824 17:17:22.680994 45867 net.cpp:157] Top shape: 1000 64 4 4 (1024000)
I0824 17:17:22.681002 45867 net.cpp:165] Memory required for data: 319500000
I0824 17:17:22.681010 45867 layer_factory.hpp:77] Creating layer ip1
I0824 17:17:22.681028 45867 net.cpp:100] Creating Layer ip1
I0824 17:17:22.681037 45867 net.cpp:434] ip1 <- pool3
I0824 17:17:22.681049 45867 net.cpp:408] ip1 -> ip1
I0824 17:17:22.681908 45867 net.cpp:150] Setting up ip1
I0824 17:17:22.681926 45867 net.cpp:157] Top shape: 1000 10 (10000)
I0824 17:17:22.681936 45867 net.cpp:165] Memory required for data: 319540000
I0824 17:17:22.681947 45867 layer_factory.hpp:77] Creating layer ip1_ip1_0_split
I0824 17:17:22.681959 45867 net.cpp:100] Creating Layer ip1_ip1_0_split
I0824 17:17:22.681968 45867 net.cpp:434] ip1_ip1_0_split <- ip1
I0824 17:17:22.681987 45867 net.cpp:408] ip1_ip1_0_split -> ip1_ip1_0_split_0
I0824 17:17:22.682004 45867 net.cpp:408] ip1_ip1_0_split -> ip1_ip1_0_split_1
I0824 17:17:22.682071 45867 net.cpp:150] Setting up ip1_ip1_0_split
I0824 17:17:22.682092 45867 net.cpp:157] Top shape: 1000 10 (10000)
I0824 17:17:22.682101 45867 net.cpp:157] Top shape: 1000 10 (10000)
I0824 17:17:22.682109 45867 net.cpp:165] Memory required for data: 319620000
I0824 17:17:22.682116 45867 layer_factory.hpp:77] Creating layer accuracy
I0824 17:17:22.682133 45867 net.cpp:100] Creating Layer accuracy
I0824 17:17:22.682142 45867 net.cpp:434] accuracy <- ip1_ip1_0_split_0
I0824 17:17:22.682152 45867 net.cpp:434] accuracy <- label_cifar_1_split_0
I0824 17:17:22.682169 45867 net.cpp:408] accuracy -> accuracy
…
